19-06-2024-0219am.tflite (tflite, 35892 bytes, 6 tensors)

sequential_28/dense_84/MatMul;sequential_28/dense_84/Relu;sequential_28/dense_84/BiasAdd f4 [32]
00000000: 8ef3 8940 b47d 5340 5be2 1ec0 98b7 e140
00000010: 3f76 2a40 c536 edbe 17a3 7e40 3b3e a03f
00000020: 7206 0340 2655 4d40 aa5c b940 1677 9dbe
00000030: 376e 1241 12d3 c4be 317b 913f d543 6a3e
00000040: 0b31 93be 7764 b33f 27fc e640 5278 eb40
00000050: 16f0 f940 a66c c840 5fbe 8940 9624 4741
00000060: c9c5 afbf e607 ed40 8b70 c140 163b 16bf
00000070: c8ce 3c40 6483 5cbf b405 a540 98a2 f93f
4.310981 3.3045473 -2.4825656 7.0536613 2.6634672 -0.46330848 3.9787042 1.2518991
2.0472684 3.208322 5.7925615 -0.30754918 9.151908 -0.38442284 1.136572 0.22877438
-0.28748354 1.4015034 7.2182803 7.3584375 7.8105574 6.2632627 4.3044887 12.446432
-1.3732234 7.407214 6.044988 -0.5868391 2.950121 -0.86137986 5.156946 1.9502745

sequential_28/batch_normalization_6/batchnorm/mul_1;sequential_28/batch_normalization_6/batchnorm/add_1;sequential_28/dense_84/MatMul;sequential_28/dense_84/Relu;sequential_28/dense_84/BiasAdd f4 [32, 64]
00000000: 1c51 48c0 e49c 0d3f 4b95 6bbf 97e9 e4bd
00000010: 06e0 843f 7983 a23e 5b83 27bf 24d3 2b3f
00000020: 322b 6dbf da0f 89be 66bb 62be 203e 20bd
00000030: cc30 84bf 8ded 64bf 623e 063f 4a51 663f
00000040: 373e 2cbf ce90 953e 3247 0a3e 370b 913e
00000050: 88f0 ef3e 5b6f b0be d146 afbf 99c8 b83e
00000060: c32e 80be bdfc aa3e d202 e7be 1421 94bf
00000070: cad2 693f 0baa db3f 7121 dd3d 6b92 9f3f
00000080: e86b 183e 40fd 1bbe 2463 6fbe ca27 94bd
00000090: a696 f93e 03a4 89bf af13 153f 3a27 d5bf
000000a0: 9d64 6a3e df03 70bf d6ba 973f dbf0 97bf
000000b0: c3b0 0d3f 6cee a53e 9dac 823f ec18 3dbe
000000c0: 728d e0bc 5a7c d2bf b33b bebf b22e b23d
000000d0: 6489 7a3f bd5c 7d40 9218 4040 a2ce cc3e
000000e0: 4935 fabf 5cac 8c3f 137e a4bf dc94 f3bf
000000f0: 04eb febd d41b c5bf 882a 943e 8444 7a3f
00000100: f0ce 2ac0 518a cb3f 3013 41bf 5446 87bf
00000110: 948c 793f e53e 0cbf 3b74 1ec0 a390 933e
00000120: b452 85be 577f 4940 3d30 e53e f101 fb3f
00000130: 0c1c 61bf a207 19bf 0f4c 0a40 3955 8f3e
00000140: dacc 413f e589 efbe 1c98 453f be6c b9bd
00000150: 2926 683e 8d59 1ebf ab7a d2bf 615a ed3f
00000160: 1da3 01c0 2b79 99be 18fc 843f 50bf 963f
00000170: d246 99bf 1025 223f 22ca c63f 4eaa f03e
00000180: af0f ba3e 762f 8abe f07c 2abf 657f cbbe
00000190: d470 7ebf b890 e4bf 66f7 e53e 2914 a6be
000001a0: 7259 70be f32b 8c3e 7288 acbf b7d5 e03f
000001b0: 352a 483f eb5a cabf bee7 883e 835a 003e
000001c0: 6e26 433f 22da 94bf adfb a9bf f7f6 203e
000001d0: 352e 5cbe d26f 02c0 999d 03c0 b137 c1bf
000001e0: f4a0 35be 04ef 0dbf cac3 6a3f ef21 85be
000001f0: df40 07bf acfb f83c 365f fc3d 0ffe 90bf
00000200: a70b c33f e505 b2bf 2682 3640 594f 83bd
00000210: 7a98 963f 1c99 0b3f 31c1 ebbf c03c 423f
00000220: 4904 4abf 8182 4ec0 b568 893f 6ee5 6f3e
00000230: 00dc 613f eb8a e9bd 5256 173f 46a3 c43e
00000240: d2af 2540 2f31 853f 1443 743f ca0f 9d3e
00000250: ac67 623e 5889 a33f 59db e5be 3fc2 80bf
00000260: 7a39 983f ddba 1f3f 2b53 e03f e80d 92bf
00000270: c856 493f 7014 df3e 3a42 9cbf bb43 ccbb
00000280: 400c c5be 9f0a e23e af65 91bd 1d92 65bf
00000290: 843e febe d228 ccbe f1fd eebe 7c8d 3f40
000002a0: 169e 233e d5a4 12bf ef26 fa3f eab4 08bf
000002b0: b03e 9dbf fa3f 05bf 2f53 3abe 7d29 613f
000002c0: d247 703f 00e7 e5bd b6bf 1e3f d0ab 4abf
000002d0: b347 adbe 9d70 cf3f 327c 3140 c11a 8fbf
000002e0: 804c 553f 1edf 16bf 6101 bd3f 2965 debd
000002f0: 3e65 8fbf 0120 37bf 9453 653f 6632 0dbf
00000300: b1fb 8ec0 58e1 e0bf 7b9b ffbf b3b7 98bf
00000310: a5c9 03c0 f4b3 513f a1ae 523e 89ab c93e
00000320: 781e ef3d 3c4f 163f 88b4 013f 916e 3c3f
00000330: f4c7 643e ead3 05bf 1565 4b3e 3c5e b03d
00000340: adad 3fbf a3b2 3ac0 72b5 963f 7d7e 25bf
00000350: 45e0 7cbe b2e7 103f 5647 fdbf e2c2 593f
00000360: f248 a53f 2283 81bd 1982 2d3f f7bd 883e
00000370: 5aa3 9e3f 2154 66c0 2c23 66bf f9c9 13bf
00000380: 00e4 b93d 410f 26bf e0ac 463e d988 793e
00000390: 4535 633e b09e 4f40 2eb7 77bf 3233 753f
000003a0: cc6c ed3e 3bb4 a9bf 2bef 93bf a6b0 673f
000003b0: ca67 0fbe afc2 1bbf 9a3f 863e a2ea 903f
000003c0: 5f19 22bf a38c ef3e e4bb 86bf 35c0 96be
000003d0: 69ba f5bf 1650 03c0 1038 2740 e147 f83f
000003e0: a28d 693f 9a12 193f 65d8 3a3f 7348 823f
000003f0: 49fb 13bf 4449 09c0 19f9 56bf 22d1 a6be
-3.1299505 0.5531752 -0.9202468 -0.11177366 1.0380867 0.3174093 -0.6543481 0.6711905
-0.92644036 -0.26769906 -0.221418 -0.039121747 -1.0327392 -0.89424974 0.5243894 0.8996779
-0.6728243 0.2921204 0.13503721 0.2832887 0.46863198 -0.34459957 -1.3693486 0.36090544
-0.25035676 0.3339595 -0.4511934 -1.1572595 0.91337264 1.7161268 0.10797394 1.2466558
0.14884913 -0.15233326 -0.23377663 -0.07234152 0.48747748 -1.0753177 0.5823316 -1.6652596
0.22889943 -0.93755907 1.1853893 -1.1870378 0.5534784 0.32408464 1.0208927 -0.18466538
-0.027411196 -1.6444199 -1.4861969 0.08700313 0.9786589 3.9587853 3.0014997 0.40001398
-1.9547511 1.09901 -1.2850975 -1.9029803 -0.124471694 -1.5399117 0.289387 0.97760797
-2.6688805 1.5901586 -0.754199 -1.0568337 0.9748013 -0.5478347 -2.4758441 0.28821287
-0.2603966 3.1483972 0.44763365 1.9609967 -0.8793342 -0.5977727 2.1608922 0.27994707
0.75703204 -0.46784893 0.77185225 -0.09053944 0.22670807 -0.61855394 -1.6443685 1.8543206
-2.0255806 -0.29975256 1.0389433 1.1777134 -1.1974738 0.633378 1.5530436 0.47004932
0.3634009 -0.26989335 -0.6659689 -0.39745632 -0.9939091 -1.7856665 0.44915313 -0.32437256
-0.2347162 0.2737728 -1.347914 1.756522 0.781894 -1.5808996 0.26739305 0.12534527
0.76230514 -1.1629069 -1.327993 0.1571921 -0.21502002 -2.038075 -2.056494 -1.5095121
-0.1773718 -0.55442834 0.91705 -0.26002452 -0.5283336 0.030393444 0.123228475 -1.1327533
1.5237931 -1.3908049 2.8516936 -0.06411619 1.1765282 0.545305 -1.8418332 0.7587395
-0.7891279 -3.2267153 1.0735079 0.23427364 0.8822632 -0.114034496 0.5911609 0.38405818
2.5888562 1.0405635 0.95414853 0.3067611 0.2210986 1.2776289 -0.4489391 -1.0059279
1.189254 0.62394506 1.7525381 -1.1410494 0.7864804 0.4357028 -1.2207711 -0.00623366
-0.38485909 0.44148728 -0.07099473 -0.89676076 -0.4965707 -0.39874893 -0.46678117 2.9930105
0.15978274 -0.57282764 1.9543132 -0.5340105 -1.2284756 -0.52050745 -0.18195795 0.8795393
0.9385959 -0.112257004 0.6201128 -0.79168415 -0.33843765 1.6206242 2.7732053 -1.118004
0.83319855 -0.589342 1.4766046 -0.108591385 -1.1202772 -0.7153321 0.89580655 -0.55155027
-4.468224 -1.756877 -1.9969324 -1.193106 -2.0591824 0.8191521 0.20574428 0.39388683
0.11675733 0.5871465 0.50666094 0.7360621 0.22341901 -0.5227648 0.19862778 0.08611724
-0.74874383 -2.9171531 1.1774123 -0.6464613 -0.24694927 0.5660354 -1.9787395 0.8506299
1.2912886 -0.0632384 0.6777664 0.26707432 1.2393601 -3.5988848 -0.8989742 -0.5773006
0.09076691 -0.64867026 0.19401884 0.2436861 0.2218829 3.2440605 -0.96763885 0.9578124
0.46372068 -1.3258127 -1.1557363 0.9050392 -0.14004436 -0.6084394 0.262204 1.1321604
-0.63319963 0.46786985 -1.052609 -0.29443517 -1.9197513 -2.051763 2.6127968 1.9396936
0.9123174 0.5979401 0.7298644 1.017836 -0.57805306 -2.1450968 -0.8397384 -0.3258143

sequential_28/dense_85/BiasAdd/ReadVariableOp f4 [66]
00000000: d972 e13d c0c1 07be b6b6 453e f4ce 9e3d
00000010: 1967 84be 587a bebe 8d76 89be fd66 fabc
00000020: b35a 0f3e ee36 c53d 7af8 193d b182 133e
00000030: 0959 173c ba00 563e 902e 7ebe 2c6d fe3d
00000040: 073c 19be 6474 19bd 5841 66be 781e 11be
00000050: 5e48 a7bd facc 00bf b966 4dbd e9f6 2e3d
00000060: dbe1 dcbd 7b3f 183d 405f 44bd 449d 753d
00000070: 96ba 213e cfb2 e93d f25b c73d 9741 043f
00000080: 99f6 023e 5775 98bc f817 9e3d ffec 8cbd
00000090: 82e6 253d 9885 7cbe 0a22 4abe 13a6 723c
000000a0: 4c7a 11be b5b7 38be c09a 16bd cf71 e53e
000000b0: 277b 97be d269 6ebe 95b0 d03d f1f8 65be
000000c0: 2ff7 b6be 647b 16bd 8ab0 dabe 9ae7 673d
000000d0: a3b8 d03d 68d0 18be 995e 8e3c 2cb3 2f3c
000000e0: fc3b 98be ded2 1b3e 389c 05bd 5219 d93e
000000f0: 57a8 adbe f5de 273d 891c a43e 35c1 153e
00000100: 5ac7 b73e bb0a 493d
0.110082336 -0.13257504 0.1930798 0.07754317 -0.25859907 -0.37202716 -0.2684826 -0.030566687
0.13999443 0.09629618 0.03759048 0.14405324 0.009237536 0.20898715 -0.2482245 0.12423167
-0.14964305 -0.037464514 -0.22485864 -0.14171779 -0.081681 -0.5031277 -0.050146792 0.04271594
-0.10785266 0.037169915 -0.0479424 0.059964433 0.15793833 0.11411058 0.09734334 0.5166258
0.12789382 -0.01861064 0.077194154 -0.06881141 0.040503033 -0.24660337 -0.19739547 0.014810103
-0.14206809 -0.18038829 -0.036768675 0.44813392 -0.29586145 -0.23282555 0.1018993 -0.22458245
-0.3573546 -0.03673877 -0.42712814 0.056617357 0.10191467 -0.1492325 0.017379092 0.01072387
-0.29733264 0.15217158 -0.032619685 0.4240213 -0.33917496 0.040984113 0.3205302 0.14624484
0.3589428 0.0490825

sequential_28/dense_83/BiasAdd/ReadVariableOp f4 [64]
00000000: e263 5cbd 235a 28be 3555 14be 5186 8fbe
00000010: b743 95be 056a 613d a857 b9be f7b8 d5bd
00000020: 95d9 3e3c cb30 133e 8655 08be 1f1e 0e3e
00000030: e6d0 d6be 711e a13e c93a 973e ea8b 74be
00000040: 37ca 7abe f0ec aebc a801 f2bd 2b50 9c3e
00000050: 3948 abbb 6f8e 52be ebba e3bd a46a c6bd
00000060: 289a cdbe f579 0fbf 4207 993e a1e8 eebe
00000070: f466 753b d6f7 a2be 4b19 443e 639c cabc
00000080: 0966 1ebd 4d53 85be fde8 42be 5ca3 0a3d
00000090: d1d7 233e 49a4 94bd 22c5 25bf 9aaa 8fbe
000000a0: 3712 91be fc53 893e 1693 ca3d 0b37 d6be
000000b0: 2947 043f 5a9a e0be 5059 a3bc a3f0 71bf
000000c0: 45b2 3ebe e181 70bf a8b6 c03d 5fd0 90be
000000d0: 836a abbe 2f1e 30be 7704 7abd 6508 883e
000000e0: df35 c2bd da4f 1ebe 107f a53e bd83 153d
000000f0: 2dbb 713e 3e89 94be 2485 8c3a d8e3 52be
-0.053806193 -0.16440634 -0.14485629 -0.28032163 -0.29153225 0.05503275 -0.3619969 -0.1043567
0.011648555 0.14374082 -0.13313875 0.13878678 -0.41956252 0.31468537 0.29537037 -0.23881498
-0.24491201 -0.021353215 -0.11816722 0.30529913 -0.0052271155 -0.20562147 -0.11119636 -0.09688309
-0.40156674 -0.56045467 0.2988835 -0.46661857 0.0037445398 -0.3182971 0.19150274 -0.024732774
-0.038671527 -0.26040116 -0.1903419 0.033847198 0.16000296 -0.072578974 -0.64753926 -0.28059846
-0.2833421 0.26821887 0.09891336 -0.4183887 0.5167108 -0.4386776 -0.019940048 -0.9450781
-0.18622692 -0.9394818 0.09409839 -0.28283975 -0.334797 -0.17199014 -0.061039414 0.26568905
-0.09482931 -0.15460148 0.32323503 0.03650259 0.23606558 -0.29010957 0.0010720831 -0.20594728

sequential_28/dense_83/MatMul f4 [64, 63]
00000000: e1f0 5ebe 107b 0a3f 3867 94bc d2fb 8cbe
00000010: 42bb da3e 2a79 713e e7c1 27be 5ef5 a8bd
00000020: 0846 423e 7630 de3e e369 8c3e 287f a2bd
00000030: 2b44 483f 6742 b03e ccee 63bc cd2f 10bd
00000040: 2f16 d9be 36f4 8439 2ecb 09bf 6af1 19bf
00000050: f219 4bbe f131 00bc 4f19 36bd 5424 8fbe
00000060: ae88 833e 7411 1a3f 5708 253d 55b2 2fbe
00000070: bcda 83be c956 393e 3d63 e43d b190 ccbe
00000080: 169a e1bc 838b c3be 79a1 12be bdac 47be
00000090: bc1f bdbe cee9 d7bc 1750 8c3d ef6c 0fbd
000000a0: 336f b93d 6475 df3d 4c3e 9b3d 51cf 75be
000000b0: f003 66bb 228d a5bd 303f 2cbe 05bb 89bd
000000c0: 5107 bdbd 1a08 b93d 29e8 613d 3859 cb3e
000000d0: e20b c4bd 850e 923e a3a5 ebba f885 29be
000000e0: 5f60 ad3d 54a1 813e a772 843e 39f4 ed3d
000000f0: 3905 92bc 8d76 f03c 0a5a be3c 72fa 8a3e
00000100: 5362 cebd 5556 b9be e47e e0bd 8afc 8b3d
00000110: 3f60 543e 2fdc 283e 4397 373c 07b9 843e
00000120: f6f5 a1bd eca9 073e 626d a63e b8fa 32be
00000130: 439a 2e3e 73e5 243e 43bf e9be e5f2 d93e
00000140: 5d7a d5be 7c0d c6be 5364 76be be14 b4be
00000150: 31e6 eabe 1fe4 c0be a6f7 023e 8934 ecbe
00000160: 41b9 5fbe e0d8 e73d e638 cfbe 36ce 0ebd
00000170: a0bb 6d3d a47c 99be 4016 753d 34a5 88be
00000180: 0f97 933e 0d0d 5abe 147a a43d 4294 ab3e
00000190: 55d4 8dbe 9a00 1dbe 7850 6ebe 8082 573c
000001a0: b927 af3c 0620 313e 83cb 3c3d 6826 e2ba
000001b0: b663 973e 76a1 3f3e 3971 08be 7d83 3f3e
000001c0: d58d 99bd 0ae5 24bd 66cd e03d 373d 11be
000001d0: b151 f63e e8e0 6c3d 2494 6b3e 1dd3 7f3e
000001e0: 0a77 083f 6290 913e 173a c03c 9ccc 063f
000001f0: 062b 0e3e 57c8 81bc 95b5 85be e144 28be
00000200: 23ea dd3d d1e7 babb 39b0 9abe 882b 123f
00000210: 2aff 72be 5fe0 ee3c 5fbc 2fbc 03db ed3b
00000220: 041e de3d b77e 08be 65ad 083e c0fb 783e
00000230: ce81 3d3e 39d7 2abe d885 54bf f4cd 903e
00000240: d252 963d 7c24 e8be 9ab5 c4be b50a 193d
00000250: 1018 14bd 6d48 a9bd 0a55 4f3d a083 c23e
00000260: 0983 e13d 6786 56be da11 21bf fa37 8dba
00000270: cfb0 09be 4bf3 cb3d 94b1 1abe 70e5 adbd
00000280: dcde 2a3e ff32 89be f21e bfbc 1be1 d33e
00000290: 0006 ea3e 54bd 21bd a0a4 cbbe 3f36 52bc
000002a0: c96d bf3d c67e 8c3e c37f 89be 32b4 573e
000002b0: f87e fa3e 8696 29bd c257 18bd 9edd 6d3e
000002c0: db15 a93e be3a c33d a9f8 8b3d 5645 b03d
000002d0: 4820 2fbe 30b4 d33e e1d8 353d 6895 1f3e
000002e0: 84ce 043d fd90 47be 9f62 9b3e 8100 603e
000002f0: ca40 2aba 744b f23b d77b 6f3d c504 713e
00000300: bcce cabd 8692 dabe ce9d 913e 61e6 5bbe
00000310: 88c5 85be 8ae5 eebe f845 95bd db57 7bbe
00000320: cf08 14bf 1fb8 bfbe d046 1b3e 0092 cfbe
00000330: 8d33 a9bd c86a 9cbe 706d 03bf ca11 82bc
00000340: 9a60 8abd a3d3 813d 0ec0 1fbe 0f12 183e
00000350: 4abe 203f 4f63 36be a3b7 f73c ba2f 553f
00000360: 8e55 88bb 263a 3abe 1e45 76be ebed 073e
00000370: dd9f e73b d3e4 c43c e142 973e 71b1 db3d
00000380: 69a7 b93d 30f7 0c3e c22c d43e 568c 423f
00000390: 72f8 453d 5f5f dd3d 1df7 6bbc 7fd0 2e3e
000003a0: 0f75 bdbd 1aa6 25be eaf0 013e 7099 f23d
000003b0: 38cd 9c3e bed5 00be eda1 853e 71c1 6c3f
000003c0: 0f4e 90bd 1b78 c93d 8e1f 393f 8557 9f3e
000003d0: 46c0 0fbe aae1 953e 82c5 993e b0f5 973d
000003e0: 0c46 04bd 6c97 2c3e 6af2 4a3e e588 babe
000003f0: 9f39 123d 145f 513e 0bcd 1cbf 62e1 63bd
-0.21771576 0.5409403 -0.018115625 -0.27535874 0.4272099 0.23581377 -0.16382562 -0.08249925
0.18972027 0.43396348 0.27424535 -0.079344094 0.78229016 0.3442566 -0.013911914 -0.035201836
-0.42399737 0.00025358953 -0.5382565 -0.60133994 -0.19834116 -0.007824407 -0.04445773 -0.27957404
0.25690216 0.6018288 0.040291157 -0.17157872 -0.2575282 0.18099512 0.11151741 -0.3995414
-0.027539294 -0.38192376 -0.1431941 -0.19499488 -0.36938274 -0.026356604 0.068512134 -0.035015997
0.09054413 0.10911062 0.075802416 -0.24004866 -0.0035097562 -0.080835596 -0.16820979 -0.06725124
-0.09229911 0.090347484 0.055153046 0.39716506 -0.09572579 0.28526703 -0.0017978441 -0.16555011
0.08465647 0.25318396 0.25868723 0.116188474 -0.017824756 0.029353404 0.023236293 0.271442
-0.100773476 -0.3619868 -0.109617025 0.068352774 0.2073984 0.16490243 0.011205497 0.25922415
-0.079082415 0.13248414 0.32505327 -0.17478454 0.17051034 0.16103153 -0.45653734 0.42568126
-0.41694918 -0.38682163 -0.24061708 -0.35172075 -0.45878747 -0.37674043 0.12789783 -0.4613383
-0.21848013 0.113206625 -0.40473098 -0.034864627 0.05804026 -0.29977906 0.059835672 -0.2668854
0.28826186 -0.21294041 0.08031097 0.3351155 -0.2770106 -0.1533226 -0.23272884 0.013153672
0.021381246 0.17297372 0.04609252 -0.0017253878 0.2956826 0.18713936 -0.13324441 0.18702503
-0.074977554 -0.04025749 0.10976677 -0.14183508 0.481092 0.057831675 0.2300573 0.24982877
0.5330664 0.28430468 0.0234652 0.5265596 0.138836 -0.0158426 -0.261151 -0.16432525
0.10835674 -0.005703904 -0.30212572 0.57097673 -0.2373015 0.029159723 -0.0107260635 0.0072587742
0.10845569 -0.13329588 0.13347395 0.24314785 0.18506548 -0.16683663 -0.8301673 0.2828213
0.073400155 -0.45340335 -0.384198 0.037363727 -0.03615576 -0.08265767 0.05061821 0.37991047
0.11011321 -0.20949708 -0.62917864 -0.0010774129 -0.13446353 0.09958514 -0.15106803 -0.08491027
0.16686577 -0.2679672 -0.023330186 0.4138268 0.45707703 -0.039487198 -0.39774036 -0.012830316
0.09347112 0.2744047 -0.26855287 0.21064833 0.48924994 -0.041403316 -0.037193067 0.23229071
0.33024487 0.095326886 0.068345375 0.08606975 -0.17102158 0.4134841 0.044396285 0.15584338
0.03242351 -0.19488902 0.3034868 0.21875192 -0.00064946397 0.0073942486 0.058467712 0.23536976
-0.09902713 -0.42689914 0.28440708 -0.21474601 -0.26127267 -0.466595 -0.07288736 -0.24545233
-0.5782594 -0.3744516 0.15163732 -0.40541077 -0.08261786 -0.30550218 -0.51338863 -0.015877623
-0.067567065 0.063391946 -0.15600607 0.14850639 0.6279036 -0.1781132 0.030238932 0.8327595
-0.0041605895 -0.18186244 -0.24049804 0.13274352 0.0070686177 0.024034893 0.29543212 0.10727204
0.09065134 0.1376617 0.41440398 0.75995386 0.04833264 0.10809206 -0.014402178 0.17071722
-0.09250843 -0.16176644 0.12689558 0.11845672 0.3062532 -0.12581536 0.26100102 0.9248267
-0.070461385 0.098373614 0.72313774 0.3112146 -0.1403819 0.2927373 0.300335 0.07419908
-0.032293364 0.16854638 0.19819036 -0.36432567 0.035699483 0.20446426 -0.6125037 -0.055634864

sequential_28/dense_85/MatMul f4 [66, 32]
00000000: ae68 413e e897 523d 0fa9 823e 3446 47be
00000010: e79d 2dbf 8549 6f3c bae1 91be 0c9d 07bd
00000020: ef3f 1fbf 868c 113f efe3 1dbf 8f3a 5bbe
00000030: d84f 953e 3b17 eebe 2ded 19be 670c 2bbe
00000040: 09f3 7bbe 8ade 163e 37e1 9bbf 0a49 0d3d
00000050: 70c7 32bf f0d3 8bbe 4bac d5bd a6b9 8e3e
00000060: f03d e3be 5196 1abf 9a92 c5be e47c a03e
00000070: 6aa5 3d3e 4c46 af3d acd3 4b3e f1d4 a6bf
00000080: c32c 0cbf fe63 9bbe f70a 9f3c 327f 973e
00000090: 38f7 bd3e 6df8 6bbe c59e 03be 4fdc 373e
000000a0: 6603 bb3e fc8e 8fbe 4768 b8be d4c9 bf3d
000000b0: 6ba1 6f3e 4c81 a8bf 988d c0be da35 71be
000000c0: 3247 0abf 6919 d33e 8329 4fbf 67b1 0bbe
000000d0: 10ee 54bd 64b6 5ebf 29ff a73e d0aa 943d
000000e0: f249 b93e 7e24 eebe 26fd 293e 21bb 8fbf
000000f0: 867a 89bf 231e b53e e662 85be c302 cebe
00000100: 93db 17bf db68 28be 6c42 873d 6ca9 3abe
00000110: f324 603e 5793 b2bf 0b66 753e b94d 503e
00000120: 43b1 22be 1b3c 9bbf eb95 b5bd 9c7f 33bf
00000130: 3900 af3d d29a e1be c431 ee3e bd34 8d3e
00000140: 4b60 1bbf fcb3 2abe 92f1 63be 73e5 93bf
00000150: b126 a63d bf69 233e f892 e93d f4fb 5ebe
00000160: b3af 0dbf 2bc0 a7bd 5e97 a7bc 296a 99be
00000170: e8c9 513d 0cd7 cbbe bdd4 5dbe d55a 773e
00000180: 0222 dd3c a8ea ecbe bab4 b43e c42a 58be
00000190: 4849 bcbe 37fb 1dbe 1091 a2be b348 d33d
000001a0: e8dc 9ebe f59b 293e a971 85be bff7 4fbe
000001b0: 2f6c 1dbd 1efa 96be 657a d7be be22 aabb
000001c0: 1a24 98bd 24c6 1a3e 5cd4 a43e 5b3b 0c3d
000001d0: a1ca 55bd 206b 8ebe 3463 823b aa74 8abe
000001e0: de39 8dbc cb28 78be 453a f0be 5476 26be
000001f0: c3d3 693e c08f 39be 18d9 3e3e 1176 f03e
00000200: 2f9d 2a3f ee44 d73e 6332 2b3c 8d5d 81bf
00000210: e700 dd3e af7b 1d3e d097 24be c925 89be
00000220: bea9 fd3d a2e5 9fbf 7d1d 24be df4c ac3e
00000230: 9fae 83bf 2ea5 0a3e f40f 1d3e 0c3a 81bf
00000240: 306d 7c3e a336 6ebe 8764 43bf 3862 46bf
00000250: 1f37 16bf 3486 dcbd dec8 023e bc48 3dbf
00000260: e83e 12bf 57f1 57be e77f 3fbd a94d 00bf
00000270: 7011 debf a871 19bf 4c9f 183d 06b2 65be
00000280: 8c77 813d 6afd 5ebc 9f21 11be b893 94bd
00000290: 484b ed3d 49f0 94bf a51a dc3e ed57 11be
000002a0: 3504 b53e 4047 36bf e6ff 90be ab43 f0be
000002b0: 4559 85be 9801 493e 8f0b f93e b7b1 a53e
000002c0: 12ee 70bf dd55 5fbe 8f32 04be e23f 8dbe
000002d0: a2ad 4dbf 2820 ae3d 757c b2bf ca9a afbf
000002e0: 3ef7 1ebf 3f7c b8bf 8f85 c3bd 8e9a 87bf
000002f0: 62b0 25bf c4c2 1fbf f897 dbbe eaed 9e3e
00000300: 6b54 a7bf 5a03 163f 1ef9 0ebf cfb1 e43e
00000310: 92c7 79bf ada6 d3bd de55 053d 01e2 0bbe
00000320: 4d5d febe 2b9a ffbb a92a c13e ebde 40bd
00000330: f38f 01bf 9d1c 7abf 2cfa a1bf d780 66be
00000340: 9953 723a bab8 5ebf 1543 5ebc 2074 1a3f
00000350: 9240 01bf 9d30 34be 4d35 fcbe 5a12 bdbc
00000360: 2ada 36bf d50f de3d 2d5e 893f 0c95 60bf
00000370: 59ed bcbe f712 c73d b7a4 2ebf 855c 60be
00000380: bef7 1e3d addf ef3e 9a7d 7dbf 87a1 6bbf
00000390: 3091 73be 855c e5bf 83ea bf3d e878 843d
000003a0: 5c5f cd3d 6ad3 23be b427 493c 1e33 35bf
000003b0: 3362 17bf 3715 543e 36c3 073e 7904 85be
000003c0: 144d 603e 9e65 3ac0 52db dfbe f400 4dbf
000003d0: d135 e6bd a047 5e3e 32f6 4bbc 8001 2d3f
000003e0: ccac 0d3d dcd3 8e3e 0278 8fbe 2d74 42bf
000003f0: a70c a3be 5b5e c73d 4d4a 93bf 4516 7e3e
0.18887588 0.0514144 0.25519606 -0.19460374 -0.67819065 0.014604931 -0.28492528 -0.033108756
-0.6220693 0.56855047 -0.61675924 -0.21409057 0.29162478 -0.46502098 -0.15031882 -0.1670395
-0.2460443 0.1473333 -1.2178105 0.034493484 -0.6983557 -0.27310133 -0.10433253 0.27876014
-0.44383192 -0.60385615 -0.3858841 0.31345284 0.18520132 0.0855833 0.19904965 -1.3033735
-0.547558 -0.30349725 0.019414408 0.2958923 0.37102675 -0.23043986 -0.12853535 0.17955135
0.3652603 -0.28038776 -0.36017057 0.093646675 0.2340142 -1.3164458 -0.37608027 -0.23555699
-0.54014885 0.41230324 -0.80922717 -0.13641892 -0.051984847 -0.86997056 0.3281186 0.072591424
0.36189228 -0.46512216 0.16600475 -1.1228982 -1.0740516 0.35374555 -0.26052016 -0.40236482
-0.5931942 -0.16446249 0.06604466 -0.18228692 0.21889095 -1.3951215 0.23964708 0.20342149
-0.15887932 -1.2127718 -0.08866485 -0.7011659 0.08544964 -0.4406343 0.46522343 0.275793
-0.60693806 -0.16670221 -0.2226012 -1.1554397 0.081128486 0.15958308 0.11404985 -0.217758
-0.5534622 -0.0819095 -0.02045792 -0.29963806 0.051217943 -0.39812505 -0.21663184 0.24155743
0.026993755 -0.4627278 0.35294133 -0.21110064 -0.3677466 -0.15427862 -0.317513 0.10316601
-0.31027913 0.16563399 -0.26063278 -0.20309351 -0.03843325 -0.294877 -0.42085567 -0.00519213
-0.07428761 0.15114647 0.32193267 0.034236293 -0.052195195 -0.27816105 0.003979111 -0.27042133
-0.017239507 -0.24234311 -0.46919456 -0.16256076 0.22834687 -0.18121243 0.18637502 0.46965078
0.66646093 0.42044777 0.010449025 -1.0106674 0.4316475 0.15379213 -0.16073537 -0.2678664
0.123858914 -1.2491953 -0.16026874 0.33652398 -1.0287665 0.13539574 0.15338117 -1.009584
0.24651027 -0.2326303 -0.7632527 -0.7749362 -0.5867786 -0.10767785 0.12771937 -0.7393911
-0.5712724 -0.21088158 -0.046752837 -0.501185 -1.7349072 -0.5993905 0.037261292 -0.22431192
0.0632163 -0.013610223 -0.14172982 -0.072547376 0.115866244 -1.1635829 0.42989078 -0.14193697
0.35354772 -0.7120247 -0.28320235 -0.46926627 -0.2604467 0.19629514 0.4864163 0.32362148
-0.94113266 -0.21810098 -0.12909912 -0.275878 -0.8034307 0.08502227 -1.3944231 -1.3719113
-0.6209601 -1.4412917 -0.09546959 -1.0594041 -0.64722264 -0.62406564 -0.4288938 0.3104089
-1.3072637 0.58598864 -0.5584887 0.44666907 -0.97570145 -0.10334525 0.032552592 -0.13660432
-0.49680558 -0.0078003607 0.3772786 -0.04708759 -0.50610274 -0.9769991 -1.2654471 -0.22510086
0.00092440244 -0.8700062 -0.013565798 0.6033344 -0.5048915 -0.1759667 -0.49259415 -0.02308004
-0.7142664 0.108428635 1.0731865 -0.8772743 -0.36899832 0.09720414 -0.68220085 -0.21910293
0.038810484 0.4685034 -0.9901978 -0.92043346 -0.23785853 -1.791886 0.093709014 0.064683735
0.10027954 -0.15998617 0.012277532 -0.70781124 -0.59134215 0.20711218 0.13258061 -0.25979975
0.21904403 -2.9124522 -0.43722016 -0.8007958 -0.112407334 0.2170701 -0.012448834 0.67580414
0.03458862 0.2789601 -0.28021246 -0.7595852 -0.3184559 0.09734794 -1.150705 0.24813183
