19-06-2024-1257am.tflite (tflite, 36376 bytes, 7 tensors)

sequential_22/custom_standard_scaler_5/truediv;sequential_22/custom_standard_scaler_5/add;sequential_22/dense_65/MatMul;sequential_22/dense_65/Relu;sequential_22/dense_65/BiasAdd f4 [64, 63]
00000000: 3af3 ba3e 6bf3 103f ec58 453f d1e3 823e
00000010: 86aa cc3e 71ae 2cc0 ac12 c03c 8f06 e73e
00000020: c9f5 edbf 3ac9 15be bdc9 113e 1946 b1bf
00000030: 8866 6b3d fc5c 913e 3199 9fbf 80a0 a73d
00000040: 891b 953e 52de b6bf 0af5 69be 2d49 8b3c
00000050: ffa4 16be 140b 79be e62d 44be 4329 3d3e
00000060: 68f3 91be ad61 fabe 174d 8bbb 7591 883e
00000070: 23be d43e fefa 0bbf ffd1 c0bd e078 fabd
00000080: d085 503e 3ef7 54ba f7b0 98be 1cbe c43d
00000090: c8b9 173e 469a 22bf d357 133d e969 863e
000000a0: e811 783e 9aa0 cc3e eae9 f0bd 57d2 42be
000000b0: bc0d 383e 8111 6abe 1cc6 d9bc f1cd 303e
000000c0: 159e 33be 310b c0be 15d6 9dbe 3b89 c4bc
000000d0: 6153 a73e e44a e53e f4df 45be ab0e 4e3e
000000e0: 8d18 ae3e 3e95 2e3e 6c8d 1fbe 2439 1a3e
000000f0: d550 403e 1e78 c93d fa85 513e fbdd 2abe
00000100: c5ed 8dbe 5342 7ebe 7278 33be f454 c9be
00000110: af35 8f3e 5152 87be a737 87be 0b2b 4e3e
00000120: a23c 35be 0829 23be 35ac 963e cbad a4be
00000130: 99e5 68bd 9b27 a63e fa7c 413e 3c03 eb3c
00000140: ce8f bebf 863e 14be 5799 b23e a018 9fbf
00000150: 3d4e 3ebd be26 4f3e c591 94bf 03bc 04be
00000160: af7f cc3e 48dd 7dbf 7814 8c3d f767 5cb9
00000170: cb04 aebf e899 57bd 5c59 e23c feb1 8ebf
00000180: 34d6 63bd 396d 8c3e b4b1 8fbf 1a72 4d3d
00000190: c5fd 0c3d 0485 7fbf 01fd fcbd 7bab 1a3e
000001a0: ff7d 97bf c67d 29be 7ab3 ad3e fe84 73bf
000001b0: 519c c33d 710f 1d3e db0e 37bf 6a57 583e
000001c0: ebb0 9d3e 45b7 5dbf be04 213d bc7e f33c
000001d0: 235b 5dbf ace6 7f3e bb7b 12be 4150 6bbf
000001e0: f6a8 0ebe c3e7 003e 0569 7fbf 05d4 3b3e
000001f0: b20a c83c f561 83bf c01c a93d 0754 0dbe
00000200: ae71 213e e697 973d a821 22be fb21 fe3d
00000210: 1264 b73c 82f6 1c3e d163 603e f780 b7bc
00000220: 62eb 9abd bc6c 5ebb 7d25 883d 480a 2c3b
00000230: 69ae 573e 4f03 b4bd 6f86 4abd a4bb bebd
00000240: d88c 223e b1ed 9c3d 3ff7 4c3e 147f 323e
00000250: b70f 44be 7d37 da3c 7ed6 fd3d 75eb 94bc
00000260: b3dc 67bd bc7a 7abd 8570 423e 24f3 06be
00000270: 7ea2 193e dd37 e5bb 7aa3 09be c840 fe3d
00000280: 719d 2f3e e954 23bc b963 57be 072b 59bd
00000290: d293 0dbe b284 d73c 7711 953d b0be 97bd
000002a0: 8ae6 3fbe 6c3b 76bd 427f 0d3e 7e38 1d3e
000002b0: 8a8a 66be 4535 dcbc 2662 5cbe d7a2 17be
000002c0: 8fed 343d 6190 12bd 9002 e1bc 0850 0cbe
000002d0: 2c19 e53c 7b6f 3fbe bf7a 34be 6bd7 27be
000002e0: ef7f 41be c275 443d 73cf 13be e1e2 62be
000002f0: 223e ba3d 520a 483d b157 933e 4a77 ccbe
00000300: 4440 4d3e fdbd a63d 9b61 0cc0 c7c2 8f3d
00000310: dbf2 9cbd 6293 60bf f35e 953e 363a e1be
00000320: 766b e7bd 6006 863e 6b51 3bbf ea70 b63e
00000330: 3257 cabd 9ef3 8b3e 43bd 44bf 7120 a43e
00000340: 9078 663c c68e 33bf 5de5 a43e 0bd4 133e
00000350: 643f 0dbf 62bd fcbd db6f cd3e b75b f6be
00000360: 8c4b 563e fc9e f23d 3874 a0bd 5071 933e
00000370: 3331 2c3d 6249 f73d a3b8 913d aee3 a9be
00000380: cf3e 1fbd 32fa b4bc 8bd2 d0be 8585 0dbe
00000390: 5a38 983e 01bc 653e c8be d63e d1c0 473d
000003a0: 5bfb 7abe bcce 123f 8ca5 953e ecf7 fcbd
000003b0: f2a0 5f3d 6ed9 563e 9a2b 84be 3191 24bf
000003c0: 5e03 953e 1bb1 aa3d f06c 023f ae40 c83e
000003d0: fccb 88bc c4b4 d73e 7636 87bd 2eee 9ebe
000003e0: f7a6 2bbe 36e4 b63d 6d7d c4be 0be9 2fbf
000003f0: f79e 24be bc36 b8bd 63e9 83bc 1f60 3dbe
0.36513692 0.56621426 0.7708881 0.25564435 0.3997385 -2.698147 0.023446403 0.4512219
-1.8590633 -0.14627543 0.14237113 -1.3849517 0.05747083 0.28391254 -1.2468625 0.0818491
0.2912257 -1.4286597 -0.22847381 0.017002666 -0.14711379 -0.24320632 -0.19158134 0.18472771
-0.28506017 -0.48902646 -0.004251133 0.26673475 0.41551313 -0.5467986 -0.094150536 -0.12230086
0.20363545 -0.0008124 -0.29822513 0.09606573 0.14816964 -0.6351665 0.035972428 0.26252678
0.2422558 0.3996628 -0.117633656 -0.19025551 0.17973989 -0.2285824 -0.026583724 0.1726606
-0.17540772 -0.37508538 -0.30827394 -0.023991218 0.326808 0.447837 -0.19323713 0.20122783
0.34003106 0.17049119 -0.15581292 0.1506086 0.18780835 0.09837364 0.20461264 -0.16686241
-0.27720466 -0.24829988 -0.17526415 -0.39322627 0.27970645 -0.2642999 -0.26409647 0.20133607
-0.17698911 -0.15933621 0.2942826 -0.32163844 -0.056859586 0.32452092 0.18895331 0.028688066
-1.4887636 -0.14476976 0.34882614 -1.242939 -0.046461333 0.20229623 -1.1606985 -0.12962346
0.39941165 -0.99165773 0.068398416 -0.00021019565 -1.3595213 -0.05263701 0.0276305 -1.1148069
-0.055624202 0.2742708 -1.1226106 0.050157644 0.0344217 -0.9981234 -0.12352944 0.15104477
-1.1835326 -0.16551885 0.33925992 -0.95124805 0.09551299 0.15337922 -0.7150704 0.21127096
0.3079904 -0.8660777 0.039311163 0.029723518 -0.8646719 0.24990338 -0.14305012 -0.9191933
-0.13931641 0.1258841 -0.9976962 0.18342598 0.024419162 -1.0264269 0.08257437 -0.13801585
0.15766022 0.07402019 -0.15833151 0.12408825 0.022386584 0.1532841 0.21913077 -0.022400362
-0.07564427 -0.0033939322 0.06647775 0.0026251245 0.21062626 -0.087896936 -0.049444612 -0.09313133
0.1587404 0.076625235 0.20016192 0.17431289 -0.1914662 0.026637787 0.12394427 -0.01817868
-0.05660696 -0.061152205 0.18988235 -0.13178688 0.15003392 -0.006995185 -0.13441268 0.124147
0.17149903 -0.009968975 -0.21034135 -0.05301955 -0.1382592 0.026308391 0.07278722 -0.07409418
-0.18740287 -0.060115263 0.13818076 0.15353581 -0.22513786 -0.02688087 -0.21521816 -0.14808212
0.044171866 -0.03578222 -0.027467042 -0.13702404 0.027966104 -0.1869487 -0.17624949 -0.16390769
-0.18896459 0.047963865 -0.14434604 -0.2215686 0.09093882 0.048837967 0.2877784 -0.3993476
0.20044047 0.08141706 -2.1934574 0.07019573 -0.076635085 -0.8772489 0.29174003 -0.43989724
-0.112997934 0.2617674 -0.7317111 0.35633022 -0.098799124 0.27334303 -0.7685129 0.32056
0.01406683 -0.7013973 0.3220624 0.14436357 -0.5517485 -0.123408094 0.401244 -0.48116848
0.20927256 0.1184673 -0.07834667 0.28797388 0.042039108 0.120745435 0.07115295 -0.33181518
-0.03887826 -0.022091959 -0.40785632 -0.13820465 0.29730493 0.22434999 0.4194243 0.04876787
-0.24509947 0.573467 0.29227865 -0.12351975 0.05459685 0.2098138 -0.25814515 -0.64284045
0.2910413 0.083345614 0.50947475 0.39111847 -0.01669883 0.421301 -0.066021845 -0.31041092
-0.16762911 0.089302465 -0.38376942 -0.6871497 -0.16076265 -0.08994815 -0.016102498 -0.18493699

sequential_22/dense_67/BiasAdd/ReadVariableOp f4 [66]
00000000: c662 2cbb e63c 233e f96b e63d 4ddf 2c3d
00000010: e1c5 25bf d9e0 5c3e 0e17 a53e 521d 163e
00000020: e416 7d3e cbdd 963d 7ab0 9dbc 1247 29be
00000030: 33dd 843e 729b 793d 6d7e df3d 5b74 0a3e
00000040: 3260 b73d e9e1 c33e 4b13 38be 327d 3abe
00000050: 973b 873d a255 b1bd 8e8a a5bd 76c4 3f3e
00000060: 62fa 3cbe 733c 3abe 87d5 e63e 2c86 a23e
00000070: 037c 583e 5797 a43e c6fb bcbe bda8 3bbe
00000080: 25bd 93be efe4 d13e 01dc afbe 584c 0e3c
00000090: 257c 573d 7e79 0bbd 877c ecbe 6c5d 9dbe
000000a0: fa6d 4cbe 1e8d 24be c933 d13d 4125 f1bd
000000b0: be8e 61be 81da 093c 03fd 73be 4d05 263d
000000c0: 0992 f23d 7c79 65be ab6a 7abe 63a0 a3bd
000000d0: 3720 48bd c4a1 013c ee3f d73e afeb e5bd
000000e0: 1069 d13d 0ebf 82be ee15 073e 9967 8cbe
000000f0: f51f 073e 9884 3bbe 4884 21be 97cf a43d
00000100: 67cd 3e3d 96b8 cc3e
-0.002630399 0.159412 0.11251063 0.042205144 -0.64755064 0.21570148 0.32244152 0.14659622
0.24715763 0.073665224 -0.01924919 -0.16531017 0.25950012 0.06093926 0.10912786 0.13520949
0.08953895 0.38258293 -0.1797611 -0.1821182 0.06603163 -0.08658911 -0.08083068 0.18727288
-0.18454888 -0.18187122 0.45084783 0.3174299 0.21141057 0.32146713 -0.36910838 -0.18326087
-0.28855243 0.40994975 -0.34347537 0.008685194 0.052608628 -0.03405141 -0.46188757 -0.30735338
-0.19963828 -0.16069457 0.10214955 -0.11774684 -0.22027108 0.008413912 -0.23826985 0.0405324
0.1184426 -0.22409624 -0.24454753 -0.07989576 -0.048858847 0.007912103 0.42040962 -0.11226594
0.10225117 -0.25536388 0.1319196 -0.2742279 0.13195784 -0.18312299 -0.15773118 0.08047407
0.046582606 0.39984578

sequential_22/dense_66/BiasAdd/ReadVariableOp f4 [32]
00000000: e3ee 1bbf daaf 31bd 0000 0000 d805 1b3f
00000010: f4d9 6e3e e091 853e 8d2e 373e 3317 883d
00000020: a1d6 363d e23a d33e 19f1 fd3e a8a8 433e
00000030: 3222 143f c8f4 cdbe 902d a5be c275 18bd
00000040: 0222 87be fa27 d93e 8503 f2be 0925 023e
00000050: 412b 9dbd f69c 273e 62b3 fabe d31f c33e
00000060: 0000 0000 e23c 73be 6d77 b0bd 61c7 fc3d
00000070: b2e5 f43c 0768 52be 529f 263e bdf3 10bf
-0.6091139 -0.043380596 0.0 0.6055579 0.2332533 0.26087856 0.17888851 0.0664505
0.04463828 0.41255862 0.49598005 0.19107306 0.5786468 -0.40225816 -0.32261324 -0.037221678
-0.26393133 0.42413312 -0.4726831 0.1270944 -0.07674266 0.1636847 -0.48964983 0.38110217
0.0 -0.23753694 -0.08616529 0.12342716 0.029894684 -0.20547496 0.16271713 -0.56621915

sequential_22/dense_65/BiasAdd/ReadVariableOp f4 [64]
00000000: e67e cabe 1285 0cbe 7886 62bc 7fc5 0d3e
00000010: c182 17bb f318 903d 4334 843e 0000 0000
00000020: 89c9 27be 58b1 3c3d 0000 0000 f5ea 123e
00000030: 93fb 2bbe c03e 4dbe 700a 76bc 847e 243e
00000040: 9fc3 493e db38 25bd 8a06 e2bc d855 0e3f
00000050: be15 38bb 8626 a7bb 776b d73e bb74 6ebf
00000060: b71b 03be 433a a7bb 0000 0000 890c 16bf
00000070: 2734 97bd ddc2 dbbb 1f07 aa3e 0879 a1bb
00000080: 4fff c93e 1304 3f3e 9433 25bc c2c7 4fbc
00000090: eeba ebbb 1caa b2be efe6 99bc 965b d93d
000000a0: d042 1cbf 6307 10bf 2a34 abbb 532a 7ebc
000000b0: 0000 0000 0000 0000 0000 0000 5a05 923e
000000c0: e0e4 123f b719 2fbf 22ed f6be 492d b9bb
000000d0: 77d8 b73e 91d5 b23d 3f23 e9be 0000 0000
000000e0: 0000 0000 fe62 e0bc 4551 123f 0000 0000
000000f0: 1e31 743e 5091 8f3c 4d64 babe fa64 27be
-0.3954994 -0.13722637 -0.013826005 0.1384487 -0.0023118707 0.07036009 0.25821123 0.0
-0.16385473 0.046067566 0.0 0.14347441 -0.16795187 -0.20043468 -0.015017137 0.16063887
0.1970353 -0.040337425 -0.027591009 0.5559974 -0.0028089131 -0.005101028 0.42074177 -0.93146867
-0.12803541 -0.005103381 0.0 -0.5861288 -0.07382994 -0.006706579 0.33208558 -0.004927758
0.39452597 0.18653898 -0.010083098 -0.012681903 -0.0071939146 -0.34895408 -0.018786876 0.10613172
-0.6103945 -0.5626127 -0.0052247243 -0.015513021 0.0 0.0 0.0 0.28519708
0.57380486 -0.6839861 -0.48227793 -0.0056511504 0.35907337 0.08732141 -0.45534703 0.0
0.0 -0.027390953 0.5715526 0.0 0.23846862 0.017525345 -0.36404648 -0.16347113

sequential_22/custom_standard_scaler_5/sub/ReadVariableOp f4 [63]
00000000: 0000 0000 0000 0000 0000 0000 0000 0000
00000010: 0000 0000 0000 0000 0000 0000 0000 0000
00000020: 0000 0000 0000 0000 0000 0000 0000 0000
00000030: 0000 0000 0000 0000 0000 0000 0000 0000
00000040: 0000 0000 0000 0000 0000 0000 0000 0000
00000050: 0000 0000 0000 0000 0000 0000 0000 0000
00000060: 0000 0000 0000 0000 0000 0000 0000 0000
00000070: 0000 0000 0000 0000 0000 0000 0000 0000
00000080: 0000 0000 0000 0000 0000 0000 0000 0000
00000090: 0000 0000 0000 0000 0000 0000 0000 0000
000000a0: 0000 0000 0000 0000 0000 0000 0000 0000
000000b0: 0000 0000 0000 0000 0000 0000 0000 0000
000000c0: 0000 0000 0000 0000 0000 0000 0000 0000
000000d0: 0000 0000 0000 0000 0000 0000 0000 0000
000000e0: 0000 0000 0000 0000 0000 0000 0000 0000
000000f0: 0000 0000 0000 0000 0000 0000
0.0 0.0 0.0 0.0 0.0 0.0 0.0 0.0
0.0 0.0 0.0 0.0 0.0 0.0 0.0 0.0
0.0 0.0 0.0 0.0 0.0 0.0 0.0 0.0
0.0 0.0 0.0 0.0 0.0 0.0 0.0 0.0
0.0 0.0 0.0 0.0 0.0 0.0 0.0 0.0
0.0 0.0 0.0 0.0 0.0 0.0 0.0 0.0
0.0 0.0 0.0 0.0 0.0 0.0 0.0 0.0
0.0 0.0 0.0 0.0 0.0 0.0 0.0

sequential_22/dense_66/MatMul f4 [32, 64]
00000000: b827 493f c25c 4abf cacc 10bd c267 67be
00000010: 7d22 833e 84b7 513e b9bf debe 5899 fb3d
00000020: 97ea 4a3e a8e5 8e3e 1812 f13d 2f3d 8d3e
00000030: efa2 cabd 168a 05be 41ec 303e d061 8d3e
00000040: 3bf7 3d3c 670d 71be e2bc b4be 7173 343e
00000050: 7434 0a3f b434 c73d da50 bebd 2861 a63e
00000060: 7333 5d3f 9a88 7a3e f817 fa3d 9b1b e23e
00000070: 6269 663f da28 49bd 5ea3 8cbf 5919 1cbe
00000080: 0799 7abe 91ee b6bd b4b7 5d3b db51 20bd
00000090: 6d05 3d3e 46f9 273f 6afe 273e 83ea 5f3e
000000a0: ae01 a23e 6aa5 0a3f 5050 1cbe ef82 57be
000000b0: 503e 81bd 9ca9 413e 2030 58be 5f98 0dbf
000000c0: 6ca7 2a3e 6270 413e 8b49 9a3e 76b0 42be
000000d0: 72db a43e 2edd 9dbd 9894 2b3f 842a 22be
000000e0: 40e9 cfbc 782f dfba 97b2 d4be 88e1 8e3d
000000f0: 80b9 6dbd 10c3 2dbe 75e4 2e3f 2ef8 433e
00000100: d879 ee3e 359f f5be 26c7 34bc 622d c6be
00000110: 89ed 743d 27b4 35bf 5754 e43d b803 603e
00000120: f9c7 a23e c408 1b3f 5090 013e e5ca a13e
00000130: dd32 0a3f 8a88 253d 33c1 48be d581 49be
00000140: 7e14 d63c 5c06 ca3e 1786 0c3e 5bd0 17be
00000150: fe53 343e c760 f23d 2d14 fabe 6b9b 243f
00000160: acf4 3fbf dc5e 343d 74e2 30be bd83 b5be
00000170: 4898 273c e6ec 12bd fac3 17bf 8b8a dabd
00000180: a39d 29bd c107 f93e f3c7 cf3c e028 9d3d
00000190: 6976 503e 3267 23bf fcce 003d b996 94be
000001a0: 201e f43e a6d7 64be 91ce 4f3d 96da 30be
000001b0: 2008 c03c a44e 4e3e c02e 4e3e bbad 18bf
000001c0: f783 843e 4eea 51be 1186 c2be 940d 0cbe
000001d0: 46db 1fbf 2c83 9bbd f422 e2be 18da 643e
000001e0: e00d e83d b0b4 073d 8944 c33e 94fe 4b3e
000001f0: 9838 e2be 841e 9dbe 958c d3be d037 ff3e
00000200: c843 bdbd 40e1 213c 18cd 24be 10ed 81bd
00000210: 140b 4d3e 8c61 063e d8c0 c33d 506c 7f3d
00000220: d8b3 12be d873 efbd b0ed 373d 181e d9bd
00000230: 406a 18be 982a 50be b0ed 793d c875 dbbd
00000240: c0d0 c23d e0b6 a4bd 7856 9cbd 941e 373e
00000250: 5070 16be 3097 02be 6868 6abe 9c0b 383e
00000260: 981a c5bd 1009 12be 0067 a6bc 801a 8ebc
00000270: 6465 47be 342e 7d3e b049 3b3d f4f5 433e
00000280: f888 d23d 105a 2f3d 10c8 543e 2c77 0ebe
00000290: 584e 9f3d 7865 bfbd d005 9cbd 383c cd3d
000002a0: a001 aabd 00d8 203c 6091 67bd 20f0 52bd
000002b0: 40bb 85bc 005c 49bb 7004 15be 1009 bebd
000002c0: 9c0c 473e 603b 893d 1050 a9bd 542e 13be
000002d0: 04ef 4abe a80e 3d3e 24ba 11be 3404 35be
000002e0: 300f 85bd f0f8 29bd 209e f13d e0cc a33c
000002f0: e4f0 063e 748e 4ebe ecca 0a3e f0eb 52be
00000300: 7d0c 2bbf da97 72be be8a ad3d fcfc a6be
00000310: b829 d03d c45c 153d 7bb0 0d3f 1490 7fbe
00000320: f1c7 103e ad81 02bd 3070 723e f281 ce3d
00000330: d70d 1d3e 74c9 3c3e 26d4 fb3d 6d97 a0bc
00000340: fdd6 2b3f d16b 14be 5e12 5a3e 7f31 763e
00000350: abb1 71be fdc3 273d 409d c23d d9d2 6cbf
00000360: 32d5 243f 5a13 533d 9811 3ebe e331 06bf
00000370: e8b0 233f 1d3f 433e 4c25 dabe 476a 793d
00000380: 860a 95be 9a5c aebe 5ef5 d0bd a848 5b3e
00000390: b649 1a3e a790 843d 034c 51be 30a8 0b3f
000003a0: 74e1 63be 5f53 5e3e b4a6 673e 447f 67be
000003b0: cc77 5bbe c018 943c 58d8 d1bd 1020 a33f
000003c0: 0880 6f3f 5deb 09bf 846b c53d 17e3 f53d
000003d0: eccc 0dbd 1037 013f 2875 ce3d b85f cb3d
000003e0: 80ca a93c e728 99bb be40 a73e fc74 403e
000003f0: 2afe fdbe 2963 a93e 25d5 a33e 89de fbbe
0.7857623 -0.7904779 -0.035351552 -0.22598174 0.2561225 0.20480162 -0.43505648 0.122851074
0.19816051 0.2790959 0.11771029 0.27585742 -0.09894358 -0.13040957 0.17277624 0.27613688
0.011594589 -0.23540269 -0.35300356 0.17622162 0.5398629 0.09726849 -0.09292765 0.32496
0.8640663 0.24466172 0.12211603 0.44161686 0.9000455 -0.049111225 -1.0987356 -0.15244044
-0.24472438 -0.08932222 0.003383142 -0.039140563 0.18459101 0.65614736 0.16405645 0.21866803
0.31641906 0.5415865 -0.15265012 -0.21046041 -0.06310713 0.18912357 -0.21112108 -0.55310625
0.16665429 0.18890527 0.30134234 -0.19012627 0.32198673 -0.07708202 0.6702361 -0.15836531
-0.025379777 -0.0017027697 -0.41542503 0.069766104 -0.058038235 -0.16968942 0.6831735 0.19137642
0.46577334 -0.47973028 -0.011033809 -0.387065 0.059796844 -0.70978016 0.11148899 0.21876419
0.31793192 0.6056025 0.12652707 0.3160011 0.5398386 0.040413417 -0.1960495 -0.19678433
0.026132818 0.39457977 0.13723026 -0.14825575 0.17610165 0.11834865 -0.48843518 0.6429965
-0.74982715 0.044035777 -0.17273885 -0.3545207 0.010229178 -0.035870455 -0.5928341 -0.10670956
-0.0414101 0.48638728 0.025363898 0.07673812 0.2035767 -0.6382934 0.031447396 -0.29021242
0.47679234 -0.22347888 0.050734106 -0.17270884 0.023441374 0.20147187 0.20135021 -0.5964009
0.2588193 -0.20499536 -0.3799291 -0.13677055 -0.6244396 -0.075933784 -0.44167292 0.22348821
0.113307714 0.0331313 0.38138226 0.19921333 -0.44183803 -0.30687344 -0.41318193 0.4984727
-0.09241444 0.009880364 -0.16093862 -0.06344044 0.20023757 0.13123149 0.095582664 0.062359154
-0.14326417 -0.11692017 0.04490441 -0.10601443 -0.14884281 -0.20328748 0.061017692 -0.10715824
0.09512472 -0.08042693 -0.0763368 0.17882758 -0.14691281 -0.12752986 -0.2289139 0.17973179
-0.09624213 -0.1426127 -0.020312786 -0.01734662 -0.19472271 0.24724656 0.04572457 0.19136792
0.10280031 0.0428105 0.20779443 -0.13912648 0.07778615 -0.093455255 -0.07618296 0.100212514
-0.08301091 0.009817123 -0.056535125 -0.051498532 -0.01632464 -0.0030725002 -0.14552474 -0.09279072
0.19438404 0.06700778 -0.08267224 -0.14373142 -0.1981774 0.18462622 -0.14231163 -0.17677385
-0.064970374 -0.04149717 0.11797738 0.019995153 0.1317783 -0.20171529 0.13553971 -0.20597816
-0.6681593 -0.2369074 0.084737286 -0.32614887 0.10164207 0.03646542 0.5534741 -0.24957305
0.14138772 -0.03186195 0.23675609 0.10083379 0.1533731 0.18436223 0.122963235 -0.019603455
0.6712492 -0.14494254 0.21296069 0.24042319 -0.23602931 0.040958393 0.09502649 -0.9250923
0.6438781 0.051532127 -0.18561399 -0.5241987 0.6394181 0.19067045 -0.4260658 0.06089237
-0.2910959 -0.34055024 -0.1020305 0.21414435 0.15067181 0.06472903 -0.20439152 0.5455351
-0.22253972 0.21711491 0.22622186 -0.22607142 -0.21432418 0.018078208 -0.102463424 1.274416
0.93554735 -0.5387476 0.096396476 0.120062046 -0.034619257 0.50474644 0.100809395 0.09930366
0.020726442 -0.0046740654 0.32666582 0.18794626 -0.49607974 0.33083466 0.31998554 -0.49193218

sequential_22/dense_67/MatMul f4 [66, 32]
00000000: 2715 423e c58a 233d 705f 8abd 2736 18be
00000010: 5dd8 803e 85e5 4cbe aa69 f1be 0f2a 0ebf
00000020: a538 16be 4284 423e 78af 46be 51ee 463e
00000030: ebb2 e63d bbb8 5ebb 123b 50be 7b4c 413e
00000040: ad7b c93e c77b cabd 3164 b3bd 547a 95bb
00000050: 8415 acbe 8296 c03e bd11 373e 56c8 29bf
00000060: c377 053e 2a55 d23d db2e 4f3e 3038 03be
00000070: 8ab4 223e be2a 19be 78a2 15be 673f 77be
00000080: 2830 5abe c2d2 a13d 28d7 f53c accd 353e
00000090: 5f8a 723e 728f 0f3f 51c9 85be fe9b abbd
000000a0: 88d7 d73e 726a 20bf f9b5 0b3f d798 6a3e
000000b0: 49b4 a9be 560c 963c fa9b 3dbe 4651 52bd
000000c0: 922e d83e facc 79bf 1ae7 febd 0e0e 92be
000000d0: 3a41 83be 933f 8fbf 5cbc a6be adc5 243c
000000e0: 2389 1a3e 9f22 5c3d ca74 ac3e 5c52 88be
000000f0: 8c03 9b3d 5a54 c0bf 88a1 49be 9c0f d0bc
00000100: 66e5 b7be 6691 ba3d a920 253e aa24 1abe
00000110: 09cf 6b3c 788b 2c3e 02e3 7fbd 90c6 873e
00000120: 7241 40be ae72 9bbe bc7c 0c3f 11dc ddbc
00000130: 55e2 1a3f 8a02 43be 806d a23e b0e0 97bd
00000140: 2295 5cbe 6ced 9ebe 06b7 7d3d 9a2b c2be
00000150: f702 88be f224 af3c 76bf df3b 63cc 513d
00000160: 3cec 9ebd 575b c9be bbee 11be 1e6b 08bf
00000170: 6ab2 83bd 5a9b f6be cd33 423d 0c55 6dbe
00000180: e0b4 ff3d 6704 d43d bd9e 643e d5ad 9c3e
00000190: ad0f 903d bc72 943e fbcf 2abf 9b50 fc3c
000001a0: 59f1 fbbd be99 b3be 9450 aabe c158 0cbd
000001b0: 0216 ecbd a313 1bbd 0fe6 9d3e 09da 023e
000001c0: ce01 e03d 870a de3c c82e e3bd 101d 0c3e
000001d0: 5f06 c0bd c9e8 1b3e dfcd d3bd 97d3 573e
000001e0: 50a2 81bd c042 35be 58ef 65be 2c44 47be
000001f0: 4120 50be 2f18 9dbf ec32 88be 5490 93be
00000200: 9205 e2bd 851a 7fbe 42fa f7bd 65d3 12bf
00000210: 7b13 a9bd dead edbb 6224 5d3e 332f bf3d
00000220: e0f3 8dbe 6c8b a5be 048d b1bf a340 f7be
00000230: ab3c a8bd 99c2 8f3e cdc8 5e3e 2a18 163d
00000240: 29c8 79be bd70 0dbe bfb7 d33e 09c1 5bbe
00000250: b6d4 bdbe 1839 00bf 851f 843e 1232 b53e
00000260: c0ae 08be d3ae be3e 9397 01be 42a1 67be
00000270: fdcf 7abe 06d0 923e 0f8c c63d 67a6 d73d
00000280: 4b1c 29bf e3a3 68bd f002 013c fb36 ef3e
00000290: 95bb 46bd ec56 e33e da9e 1ebe c1c0 b2bd
000002a0: a74c d5bf d6cb b73d b0d2 8c3e a716 953e
000002b0: f2d2 343d b79b 89be 72f0 cf3e ffe1 ff3d
000002c0: 44d8 3abf cff0 18bf 4795 15bd a31b 943d
000002d0: dd2c f0bd f9cd 173e 93ff 393d f4f5 833e
000002e0: 5939 703e 135c 75bf d01a 12be 7a97 97be
000002f0: b1ca 2fbf a34d e6bf 33c5 513c e052 98bf
00000300: 88ff dbbb 4cc1 65be 10ef 75bd 3a77 033f
00000310: f5fe ebbc b78f 6abc c5f3 10be ef32 8fbf
00000320: cc39 493e 72df 6d3e 19ea 14bf 1584 883e
00000330: c2b1 98bf 44b4 33be e2e0 07be 1f3e d73d
00000340: 8621 223e ddfc a43e ee07 423e 73f7 f4be
00000350: 3774 1bc0 6f88 cf3e d7b5 4ebd 83b0 d1be
00000360: ebe5 5a3e 23a6 b03b ab6e d2bc 9599 343e
00000370: de93 c6bf b4ed 10be db3a acbe 58cc 5cbb
00000380: 984e 9ebe d745 0abf f41b 193d 9ff1 5c3e
00000390: 5681 963d 9919 bb3e 644e f83d ef6d 8e3e
000003a0: 8382 03bd 4025 d93d 55c4 393e 4cc9 85be
000003b0: e504 88bf 31ea 37bf 86bb 7fbe 447b fb3b
000003c0: 708f 68bf 9ad1 dd3d 3783 bfbc da35 33bd
000003d0: 1cb1 1a3e 7792 dabd f8a2 9abe 010c cf3e
000003e0: 899f 1b3e ac72 7abe 7538 0dbf 3460 f3be
000003f0: 33af f6be fa69 8a3c 272d 943e 1746 cbbd
0.18953381 0.039927263 -0.067564845 -0.14864407 0.25165072 -0.2000943 -0.47150928 -0.55532926
-0.14670046 0.18995765 -0.19402874 0.19426848 0.11264595 -0.003398462 -0.20335034 0.18876831
0.3935217 -0.0988689 -0.08759344 -0.004561702 -0.33610165 0.37614828 0.1787786 -0.66321313
0.13033967 0.1027015 0.20232718 -0.12814403 0.15889183 -0.14957711 -0.14612758 -0.2414528
-0.21307433 0.07901527 0.030009821 0.17754239 0.23685597 0.56078255 -0.26130155 -0.083793625
0.42156625 -0.6266242 0.54574543 0.22909866 -0.3314536 0.01831643 -0.18516532 -0.05134704
0.4222303 -0.97578394 -0.12446423 -0.28526348 -0.256357 -1.1191276 -0.32565582 0.010056895
0.15091376 0.053743955 0.33682853 -0.26625335 0.07569036 -1.5025742 -0.19690526 -0.025398068
-0.35917205 0.09109764 0.1612574 -0.15053049 0.014392623 0.16850078 -0.06247235 0.2651868
-0.18774965 -0.3036093 0.5487783 -0.027082475 0.60501605 -0.19043937 0.31724167 -0.074159026
-0.21541265 -0.31040514 0.061942123 -0.3792389 -0.26564762 0.021379922 0.006828244 0.05122031
-0.07759902 -0.393275 -0.14251225 -0.5328845 -0.06430514 -0.481654 0.047412682 -0.23176974
0.12485671 0.10352402 0.22326179 0.30601373 0.0703424 0.28993785 -0.66723603 0.030800154
-0.12301893 -0.35078233 -0.332646 -0.03426433 -0.11527635 -0.037860524 0.30839583 0.12778486
0.10937844 0.02710463 -0.11092907 0.13682961 -0.09376215 0.15225519 -0.10342001 0.21076809
-0.06329787 -0.17701244 -0.22454584 -0.194596 -0.20324804 -1.2273005 -0.2660135 -0.2882105
-0.11036219 -0.2491246 -0.1210828 -0.5735381 -0.08255669 -0.0072533926 0.2159591 0.093351744
-0.27725124 -0.32332933 -1.387116 -0.482915 -0.082146965 0.28078154 0.21756287 0.03664414
-0.24392761 -0.13812537 0.41351125 -0.21460356 -0.37076348 -0.5008712 0.25805297 0.35389763
-0.13347912 0.37242755 -0.12655477 -0.22620109 -0.24493404 0.28674334 0.09694683 0.105297856
-0.66058797 -0.05679692 0.0078742355 0.46721634 -0.048518736 0.44402254 -0.15490285 -0.08728171
-1.6664017 0.089744255 0.27504492 0.29118845 0.044146486 -0.26876613 0.40613133 0.12494277
-0.72986245 -0.59742445 -0.036519315 0.07231834 -0.11727307 0.14824666 0.04540975 0.25773585
0.23459376 -0.9584362 -0.1426804 -0.29607755 -0.6866866 -1.7992443 0.012803364 -1.1900291
-0.0067138113 -0.22437018 -0.06004244 0.513538 -0.028808096 -0.014316491 -0.1415549 -1.1187419
0.19650954 0.23229769 -0.58169705 0.2666327 -1.1929247 -0.17549235 -0.1326938 0.105098955
0.158331 0.3222417 0.18948337 -0.4784504 -2.4289682 0.40533778 -0.050466385 -0.4095498
0.21376769 0.005390899 -0.025687536 0.17636712 -1.5513875 -0.14153177 -0.33638653 -0.0033691134
-0.30919337 -0.5401282 0.037380174 0.21576546 0.073488876 0.36542967 0.12124327 0.27818248
-0.032106888 0.10602808 0.18141301 -0.2613014 -1.0626494 -0.7184172 -0.24973878 0.0076746065
-0.9084387 0.10830994 -0.023377998 -0.04375253 0.15106624 -0.10672467 -0.3020246 0.40438846
0.15197577 -0.24457806 -0.5516427 -0.47534335 -0.4818054 0.016896237 0.28940699 -0.09925478
