bundling-scale-and-calssification-19am.tflite (tflite, 71532 bytes, 12 tensors)

model_2/sequential_28/dense_84/MatMul;model_2/sequential_28/dense_84/Relu;model_2/sequential_28/dense_84/BiasAdd f4 [32]
0	0x409cc5e5	4.899157
1	0x404da48c	3.2131681
2	0xc006e93e	-2.107986
3	0x40e2512a	7.0724077
4	0x403808d9	2.87554
5	0xbfa9b675	-1.3258806
6	0x4082c880	4.086975
7	0x3eb25f76	0.34838456
8	0x3f9c5e6f	1.2216319
9	0x4074341d	3.8156807
10	0x40b9a519	5.8014035
11	0xbf94161e	-1.156925
12	0x4110f03f	9.058654
13	0xbe2a94a0	-0.16658258
14	0x3ea84618	0.32865977
15	0x3f56f118	0.8396163
16	0xbf9a91f2	-1.2075789
17	0xbc033cd0	-0.008010104
18	0x40ec2580	7.3795776
19	0x40c7f182	6.248231
20	0x41027fae	8.156172
21	0x40c11b84	6.034609
22	0x408b7ea2	4.359208
23	0x414612b2	12.379564
24	0xbfb6dd61	-1.428631
25	0x40e04cf8	7.0093956
26	0x40af3abd	5.47592
27	0xbec784b3	-0.3896843
28	0x402fd6fe	2.747497
29	0xbfaeedd3	-1.3666328
30	0x409c5e0e	4.8864813
31	0x3fc7b3ba	1.5601723

model_2/sequential_28/batch_normalization_6/batchnorm/mul_1;model_2/sequential_28/batch_normalization_6/batchnorm/add_1;model_2/sequential_28/dense_84/MatMul;model_2/sequential_28/dense_84/Relu;model_2/sequential_28/dense_84/BiasAdd f4 [32, 64]
0	0xc057ed7c	-3.37387
1	0x3f18cd96	0.596887
2	0xbf6f41ce	-0.93459785
3	0xbe3c444a	-0.18385425
4	0x3f4c72a8	0.7986245
5	0x3ee66d2f	0.45005175
6	0xbf018664	-0.5059569
7	0x3f377c28	0.7167382
8	0xbf53429a	-0.825235
9	0xbd70c38c	-0.058780238
10	0xbe36d440	-0.17854404
11	0x3d667d3c	0.056271777
12	0xbf4a1435	-0.78937083
13	0xbf55a77b	-0.8345868
14	0x3ee16859	0.44024923
15	0x3f650b04	0.89469934
16	0xbf318e03	-0.6935732
17	0x3e1a2786	0.1505414
18	0x3dd5c429	0.10437805
19	0x3e5c1c22	0.21495107
20	0x3f046ec0	0.5173149
21	0xbe6e2417	-0.23255955
22	0xbf9b474c	-1.2131133
23	0x3eaf37d2	0.34222275
24	0xbdbb3db1	-0.09142626
25	0x3ea8ed42	0.32993513
26	0xbed97381	-0.42470935
27	0xbf7841e6	-0.96975553
28	0x3f2ac85c	0.66711974
29	0x3fc10dab	1.5082296
30	0x3e044070	0.12915206
31	0x3fa6cc46	1.3031089
32	0x3e30b614	0.17256957
33	0xbdde7c9f	-0.10863613
34	0xbe7aaec0	-0.24480724
35	0xbda626c2	-0.08112861
36	0x3e8a948c	0.27066457
37	0xbf8f49a7	-1.1194352
38	0x3edf4e60	0.43614483
39	0xbfcb794f	-1.5896395
40	0x3e07bc73	0.13255481
41	0xbf4406e9	-0.76573044
42	0x3f83b137	1.0288457
43	0xbf80974c	-1.0046172
44	0x3ef9fdfd	0.4882659
45	0x3e9df84a	0.30853492
46	0x3f7f8338	0.998096
47	0xbe0398b9	-0.12851228
48	0xbd067ff3	-0.032836866
49	0xbfc56c30	-1.5423641
50	0xbf941e2b	-1.1571707
51	0x3d82e26a	0.06390841
52	0x3f5f2bfa	0.8717648
53	0x40586c25	3.3816006
54	0x401c5660	2.442772
55	0x3edda88f	0.43292663
56	0xbfdcab37	-1.7239751
57	0x3f91e683	1.1398472
58	0xbf8cda21	-1.1004068
59	0xbfdc12f2	-1.7193282
60	0xbdf3a4b3	-0.11896648
61	0xbfd5dffd	-1.6708981
62	0x3ea9c45b	0.3315762
63	0x3f87585d	1.0573841
64	0xc030303a	-2.7529435
65	0x3fb7c81d	1.4357945
66	0xbf1da6d0	-0.6158266
67	0xbf56c026	-0.83886945
68	0x3f63d27a	0.88993037
69	0xbeedc73f	-0.46441075
70	0xc0119a0a	-2.2750268
71	0x3e8ab91d	0.27094355
72	0xbe54cf05	-0.20782097
73	0x40314042	2.769547
74	0x3efe06ca	0.49614555
75	0x3fe04765	1.7521788
76	0xbf10e3f8	-0.5659785
77	0xbee68906	-0.45026416
78	0x4003c945	2.0591595
79	0x3e7042e7	0.23463021
80	0x3f4c64ed	0.798415
81	0xbeef5ce5	-0.4675056
82	0x3f168f77	0.5881266
83	0xbdb06ea8	-0.08614856
84	0x3e2c99d5	0.16855557
85	0xbf4a5a9c	-0.7904451
86	0xbfb901e5	-1.4453703
87	0x3fce7c8c	1.6131759
88	0xbfbd725f	-1.4800528
89	0xbecf5e1a	-0.4050148
90	0x3f7cfabf	0.9882011
91	0x3f7e9f4d	0.99461824
92	0xbf967907	-1.1755685
93	0x3f2d2c37	0.6764559
94	0x3fc61e5f	1.5478019
95	0x3eee8265	0.46583858
96	0x3e9ca635	0.30595556
97	0xbea6d677	-0.325855
98	0xbf1d15e0	-0.61361504
99	0xbea74be2	-0.32675081
100	0xbf644e36	-0.8918184
101	0xbfbec0b9	-1.4902564
102	0x3e937b49	0.28804997
103	0xbe9a5ed3	-0.3015047
104	0xbe8813de	-0.26577657
105	0x3e458912	0.1929057
106	0xbf934abc	-1.1507182
107	0x3fc85911	1.5652181
108	0x3f38da57	0.7220816
109	0xbfaa2b8f	-1.3294543
110	0x3e755f30	0.23962092
111	0x3daf526d	0.08560643
112	0x3f1aace0	0.60420036
113	0xbf75cb6e	-0.96013534
114	0xbf77ddf9	-0.9682308
115	0x3dfb0ec9	0.122586794
116	0xbe7d7825	-0.24752863
117	0xbfeeb929	-1.8650256
118	0xbfc206e3	-1.5158352
119	0xbfbe5026	-1.4868209
120	0xbd4925f1	-0.04910845
121	0xbf02a030	-0.51025677
122	0x3f726515	0.9468549
123	0xbe7f0dca	-0.24907604
124	0xbf0d1bd6	-0.551206
125	0x3dcef0d7	0.1010453
126	0x3ec21237	0.37904522
127	0xbf67edc0	-0.9059715
128	0x3f964b0a	1.174165
129	0xbfa150d0	-1.2602787
130	0x4028c3d7	2.636953
131	0xbd551192	-0.05201871
132	0x3fbfe98f	1.4993151
133	0x3f1edefc	0.62059
134	0xbfe187cd	-1.7619568
135	0x3f44d61b	0.768892
136	0xbf65767b	-0.8963391
137	0xc039f6a6	-2.9056792
138	0x3f60aa17	0.87759537
139	0x3e6a9739	0.2290925
140	0x3f3ea942	0.74477017
141	0xbca92baa	-0.020650703
142	0x3f044b34	0.5167725
143	0x3e768463	0.24073939
144	0x400bc4f4	2.183896
145	0x3f810f1c	1.0082736
146	0x3f4453ed	0.7669056
147	0x3e86bd4c	0.26316297
148	0x3e5c569c	0.21517414
149	0x3fb2389d	1.3923527
150	0xbec381b8	-0.38184905
151	0xbf4b8825	-0.79504615
152	0x3f3e5211	0.74343973
153	0x3f27857c	0.65438056
154	0x3fddc4c5	1.7325674
155	0xbf609a3e	-0.87735355
156	0x3f37ec5d	0.71845037
157	0x3e965df3	0.29368553
158	0xbf9ca52b	-1.2237905
159	0x3d39c713	0.045355868
160	0xbe705974	-0.23471624
161	0x3edd3eb5	0.43211904
162	0xbd9f01cb	-0.07764014
163	0xbf04e38a	-0.519097
164	0xbf032404	-0.5122683
165	0xbeeb971f	-0.46013734
166	0xbef26e83	-0.4734994
167	0x4039f4d8	2.905569
168	0x3dfc2989	0.1231261
169	0xbece586e	-0.40301841
170	0x3fec5aa3	1.846516
171	0xbe9dc824	-0.30816758
172	0xbf890da2	-1.0707285
173	0xbf3ef703	-0.7459566
174	0xbea8fc2b	-0.3300489
175	0x3f5a75fa	0.8533627
176	0x3f55ec22	0.83563435
177	0xbe83f8a2	-0.2577563
178	0x3ef1fdb7	0.47263882
179	0xbf3e1a5d	-0.7425898
180	0xbde093ae	-0.10965668
181	0x3fb5ffd0	1.4218693
182	0x400f5e2d	2.240123
183	0xbfa8f520	-1.3199806
184	0x3f536a74	0.8258431
185	0xbf3a1a6d	-0.7269657
186	0x3f9952fa	1.1978447
187	0xbe94184c	-0.28924787
188	0xbf915c8e	-1.135637
189	0xbf338d69	-0.7013765
190	0x3f406e92	0.75168717
191	0xbf0145b6	-0.50496995
192	0xc08daa57	-4.4270434
193	0xbfe6d641	-1.8034135
194	0xbfe8b6b9	-1.8180763
195	0xbf862e13	-1.0482811
196	0xc012c2e7	-2.293146
197	0x3f2b3b43	0.668873
198	0x3e65a86e	0.22427532
199	0x3ec95211	0.39320424
200	0x3e1efa41	0.15525152
201	0x3f02169d	0.50815755
202	0x3efb15c0	0.4904003
203	0x3f471da2	0.7777959
204	0x3e2e5dbb	0.17027943
205	0xbecadcf3	-0.39621696
206	0x3ef5b205	0.4798738
207	0x3e3e6340	0.18592548
208	0xbf603e47	-0.8759503
209	0xc037fd2e	-2.8748279
210	0x3f68ed71	0.90987307
211	0xbf016679	-0.50546986
212	0xbe85f977	-0.2616689
213	0x3f035123	0.5129568
214	0xbfdddd80	-1.7333221
215	0x3f2885e3	0.65829295
216	0x3f8164a1	1.0108835
217	0xbe4b5299	-0.19855727
218	0x3f13a478	0.57672834
219	0x3e7725ef	0.24135564
220	0x3f967f71	1.1757642
221	0xc043b19b	-3.0577152
222	0xbf503e20	-0.81344795
223	0xbf299b1b	-0.662523
224	0xbc101465	-0.008793925
225	0xbf0db6f4	-0.5535729
226	0x3e38d0ad	0.18048353
227	0x3dbc803e	0.09204148
228	0x3df7a577	0.12092107
229	0x404ca52a	3.1975808
230	0xbf6cb7d4	-0.92468
231	0x3f3a6b51	0.7282
232	0x3ed2356b	0.4105638
233	0xbf809acf	-1.0047244
234	0xbf859c97	-1.0438412
235	0x3f460e21	0.7736531
236	0xbc1c9cc2	-0.009558858
237	0xbed48d34	-0.4151398
238	0x3e9310c8	0.2872374
239	0x3f7bcb9f	0.98357576
240	0xbf03b3a1	-0.51445967
241	0x3f07ec5f	0.5309505
242	0xbf556084	-0.83350396
243	0xbe9c7453	-0.30557498
244	0xbfe12fcd	-1.7592713
245	0xbff6a36e	-1.9268625
246	0x3ff16040	1.8857498
247	0x3ffdcaf6	1.9827564
248	0x3f68ae5e	0.90891063
249	0x3eceb798	0.40374446
250	0x3f137a6c	0.57608676
251	0x3f4f66c9	0.8101621
252	0xbf133a9b	-0.575113
253	0xc0133549	-2.3001273
254	0xbf5256c1	-0.82163626
255	0xbeac2d4e	-0.33628315

model_2/sequential_28/dense_85/BiasAdd/ReadVariableOp f4 [66]
0	0x3dfc549f	0.12320828
1	0xbe0e6806	-0.1390687
2	0x3e464f9e	0.19366309
3	0x3d7b73ca	0.061389722
4	0xbe90873b	-0.28228173
5	0xbec2a8c7	-0.38019392
6	0xbe9280fb	-0.2861403
7	0xbce60896	-0.028080266
8	0x3e245bd9	0.16050662
9	0x3db5c5be	0.08875607
10	0x3d0fe127	0.03512683
11	0x3e33cef6	0.17559418
12	0x3cf412ba	0.029794086
13	0x3e50fc4e	0.20408747
14	0xbe88ce3d	-0.26719847
15	0x3e07a1f2	0.13245371
16	0xbe33b8cb	-0.17550962
17	0xbc8718a4	-0.016491242
18	0xbe676e6f	-0.22600721
19	0xbe089ff9	-0.13342275
20	0xbdb44767	-0.088026814
21	0xbf0571ca	-0.52126753
22	0xbd53ca0c	-0.05170636
23	0x3d76fc9e	0.06029951
24	0xbdb442d2	-0.088018075
25	0x3d339326	0.043841504
26	0xbd34f24b	-0.04417638
27	0x3d5e22b4	0.054232314
28	0x3e415a6e	0.18882152
29	0x3e0239f8	0.12717426
30	0x3df1cbfb	0.11806484
31	0x3f0a30fb	0.5398099
32	0x3e0e19c2	0.13877013
33	0xbc259af6	-0.010107746
34	0x3dc7c8e5	0.097551145
35	0xbda1a67a	-0.07893081
36	0x3d1656a0	0.036703706
37	0xbe81b90a	-0.25336486
38	0xbe4ff6ef	-0.20309041
39	0x3ce71061	0.028206052
40	0xbe259120	-0.16168642
41	0xbe2143ca	-0.15748516
42	0xbd501db5	-0.05080958
43	0x3eef820f	0.46778914
44	0xbea85dd3	-0.32884082
45	0xbe740fe8	-0.23834193
46	0x3ddf5cd0	0.109063745
47	0xbe6a6502	-0.22890094
48	0xbeb2b3a6	-0.34902686
49	0xbcba5a8c	-0.022748254
50	0xbedbd92c	-0.42939126
51	0x3d933f55	0.07189814
52	0x3e03f41e	0.12886092
53	0xbe2ab243	-0.16669564
54	0x3cca5b38	0.0247017
55	0x3cce2a62	0.025166694
56	0xbea5e5af	-0.32401797
57	0x3e1df466	0.15425262
58	0xbc6f3eb3	-0.014602351
59	0x3edbe8ff	0.429512
60	0xbea5fdf2	-0.32420307
61	0x3ce108b8	0.027469978
62	0x3eb00be9	0.34384087
63	0x3e15fdf3	0.14647655
64	0x3ebf22fb	0.37331375
65	0x3da442c3	0.08020546

model_2/sequential_28/dense_83/BiasAdd/ReadVariableOp f4 [64]
0	0xbcb6223a	-0.022233117
1	0xbe534ee6	-0.20635566
2	0xbe03ec84	-0.12883192
3	0xbe75dfc7	-0.24011146
4	0xbead6939	-0.3386934
5	0x3d391b29	0.045191918
6	0xbec64f1f	-0.3873224
7	0xbe2d750e	-0.16939184
8	0x3dcca897	0.099930935
9	0x3e3096c9	0.1724502
10	0xbdc0e97a	-0.09419532
11	0x3e4c31fc	0.19940943
12	0xbeb338df	-0.35004327
13	0x3e86352f	0.2621245
14	0x3ea46340	0.32106972
15	0xbe2c73f6	-0.1684111
16	0xbe827816	-0.25482243
17	0xbcdfad66	-0.027304363
18	0xbd8bca08	-0.06825644
19	0x3e752ab9	0.23942079
20	0x3dbbba2a	0.09166367
21	0xbe80b751	-0.2513986
22	0xbd8278c4	-0.063706905
23	0xbe04640a	-0.12928787
24	0xbecce5f3	-0.40019187
25	0xbf107e9a	-0.5644318
26	0x3e83a4c7	0.25711653
27	0xbeee7f53	-0.46581516
28	0x3d47bf7a	0.04876659
29	0xbec91bb3	-0.39278945
30	0x3e4a26e9	0.19741406
31	0xbbe685f6	-0.0070350124
32	0xbb31f5ed	-0.002715464
33	0xbe7f4f60	-0.24932623
34	0xbe363af0	-0.1779592
35	0x3d3a8df4	0.045545533
36	0x3e0949d1	0.13407065
37	0xbda3c0d7	-0.07995766
38	0xbf2d1663	-0.67612284
39	0xbe93fde7	-0.2890465
40	0xbe824b1e	-0.25447935
41	0x3ec23032	0.37927395
42	0x3e08e1ab	0.13367335
43	0xbef0f8cf	-0.47064826
44	0x3f0bea7e	0.5465468
45	0xbebed6ca	-0.37273246
46	0xbbe3e3bb	-0.006954638
47	0xbf7e2c17	-0.99286026
48	0xbdc74a80	-0.097310066
49	0xbf717426	-0.94317853
50	0x3d98b112	0.074556485
51	0xbe9eea54	-0.31038153
52	0xbedc2b99	-0.43002012
53	0xbdd913a4	-0.10599449
54	0xbdab04c1	-0.08350516
55	0x3e638d4c	0.22221869
56	0xbb451b2d	-0.0030076012
57	0xbe4e045a	-0.20118847
58	0x3eb00aeb	0.3438333
59	0x3e0648b6	0.13113675
60	0x3eb7e208	0.35914636
61	0xbe7d5e06	-0.24742898
62	0xbd7e2e05	-0.062055606
63	0xbe4257cf	-0.18978809

model_2/dense_6/BiasAdd/ReadVariableOp f4 [64]
0	0x3e8abf69	0.2709916
1	0x3e89fd1f	0.2695093
2	0x3e8ff589	0.28117016
3	0x3e942aa8	0.28938794
4	0x3e9da84f	0.30792472
5	0x3ea074e4	0.3133918
6	0x3e9c7bc3	0.30563173
7	0x3ea63578	0.32462668
8	0x3e93d6ae	0.28874725
9	0x3e826c4f	0.25473258
10	0x3e888dfd	0.26670828
11	0x3e941d85	0.28928772
12	0x3e8412dc	0.2579564
13	0x3e943b61	0.28951553
14	0x3e98f0f9	0.29871348
15	0x3e278726	0.16360149
16	0x3e9dfb67	0.30855867
17	0x3e9e2f00	0.30895233
18	0x3ebc21f2	0.36744648
19	0x3ea52b56	0.32259625
20	0x3e93c687	0.28862402
21	0x3e62ea7f	0.22159766
22	0x3e8d9f67	0.27660677
23	0x3ea0d429	0.31411865
24	0x3ea8684f	0.3289208
25	0x3e9bfe5e	0.30467504
26	0x3e9cb633	0.30607757
27	0x3ea77dde	0.32713217
28	0x3e899783	0.26873407
29	0x3e9970a1	0.29968742
30	0x3e9530eb	0.29138884
31	0x3e713b83	0.23557858
32	0x3eb00ecd	0.34386292
33	0x3e8a5b94	0.27022994
34	0x3e99ca96	0.30037373
35	0x3e86a90c	0.26300848
36	0x3e994df1	0.29942277
37	0x3e7142e1	0.23560669
38	0x3ea6c8eb	0.32575163
39	0x3e68bffd	0.22729488
40	0x3e5697a8	0.2095629
41	0x3e8e83ae	0.2783484
42	0x3ea28c7c	0.31747806
43	0x3e306eab	0.17229716
44	0x3e862b1d	0.26204768
45	0x3e83dea7	0.25755808
46	0x3e8943fa	0.26809675
47	0x3e8feac7	0.28108808
48	0x3e9ca898	0.30597377
49	0x3e91cd83	0.28477105
50	0x3e82579f	0.25457475
51	0x3e9a3f46	0.301264
52	0x3ea8a786	0.3294031
53	0x3e8979b0	0.26850653
54	0x3ea402e5	0.32033458
55	0x3e93ee3c	0.28892696
56	0x3e99db9d	0.30050364
57	0x3e7edec3	0.24889664
58	0x3ea80494	0.32815993
59	0x3e9b25d7	0.30302307
60	0x3e873b10	0.2641225
61	0x3ea4a714	0.3215872
62	0x3e9abff5	0.30224577
63	0x3eb2ab93	0.34896526

model_2/dense_7/BiasAdd/ReadVariableOp f4 [32]
0	0x3d964dc6	0.07339053
1	0x3d436f09	0.047713313
2	0x3dab05d6	0.083507225
3	0x3dfb386e	0.122666225
4	0x3d8c9963	0.06865194
5	0x3e3a2d0e	0.1818125
6	0x3de945e8	0.11390287
7	0x3d719f2f	0.0589897
8	0x3dee7ed6	0.11645286
9	0x3e129c8d	0.14317532
10	0x3df2de3f	0.11858796
11	0x3e051431	0.12995984
12	0x3d7798c7	0.060448434
13	0x3da81956	0.082079574
14	0x3db55ed7	0.0885598
15	0x3d836f4f	0.06417715
16	0x3e13ac41	0.14421178
17	0x3df54041	0.11975146
18	0x3de9df6a	0.11419566
19	0x3e15a4f4	0.14613706
20	0x3d9e3cb8	0.07726425
21	0x3e318be2	0.17338517
22	0x3d790336	0.060794078
23	0x3cdb5fde	0.026779111
24	0x3c214d1a	0.009845043
25	0x3e0bedbc	0.13664907
26	0x3e1a9c1e	0.15098616
27	0xbc1fbd7f	-0.009749769
28	0x3d9aa38b	0.075507246
29	0x3da15f01	0.07879449
30	0x3d20c026	0.039245747
31	0x3d8f783c	0.07005355

model_2/dense_8/BiasAdd/ReadVariableOp f4 [66]
0	0xbdb1e2b2	-0.08685817
1	0xbe241e87	-0.1602727
2	0x3c9b1d4a	0.018934865
3	0xbd830c4b	-0.06398829
4	0xbd9c8fb4	-0.07644597
5	0x3d07e093	0.033173155
6	0xbd002672	-0.031286664
7	0x3b53b2dc	0.0032302653
8	0x3d3475eb	0.044057768
9	0xbc130396	-0.008973023
10	0xbd315326	-0.043292187
11	0x3dc92f89	0.0982352
12	0xbd729bfb	-0.059230786
13	0xbd8e6fc9	-0.06954915
14	0xbd26fb9b	-0.040767293
15	0x39ab5361	0.00032677784
16	0x3c62c6a5	0.013841306
17	0xbd9dc760	-0.077040434
18	0x3accbfad	0.0015621089
19	0x3c231648	0.009954043
20	0x396942fe	0.00022245568
21	0xbb86f5fa	-0.004118678
22	0xbdc8f21b	-0.09811803
23	0xbd868b1a	-0.065695
24	0x3b56a0ea	0.003274972
25	0x3d31f9e3	0.0434512
26	0xbcfbdbb5	-0.030744413
27	0xbd4881a2	-0.048951752
28	0x3d293d4e	0.04131823
29	0x3d8b84c3	0.06812432
30	0x3d92efd1	0.071746476
31	0xbd86e29f	-0.06586193
32	0xbd33b3f3	-0.043872785
33	0x3d8ef044	0.06979421
34	0x3c4bce5e	0.0124393385
35	0xbbc35f44	-0.0059622843
36	0x3d7717f8	0.060325593
37	0x3ceb4ddb	0.028723648
38	0xbd830e15	-0.0639917
39	0xbc31f5a1	-0.010861785
40	0x3d011c3f	0.03152108
41	0xbc45be29	-0.0120692635
42	0x3d232ccd	0.039837647
43	0x3bb17f36	0.005416776
44	0xbd151084	-0.036392704
45	0xbd17b6bb	-0.0370395
46	0xbc7f16ea	-0.015569428
47	0xbc3c2059	-0.011482322
48	0x3d383ba0	0.044978738
49	0xbcd0f37f	-0.025506733
50	0xbcc7ed99	-0.024405288
51	0x3c56e6fe	0.013116596
52	0xbb7a55ec	-0.0038198186
53	0xbd18fb3c	-0.03734897
54	0x3dc4e876	0.09614651
55	0x3dc8f0e3	0.098115705
56	0x3cae7013	0.021293676
57	0xbc25aa30	-0.010111377
58	0xbc9ea29f	-0.019364653
59	0x3cd0c786	0.025485765
60	0x3c23db4b	0.010001014
61	0x3d4b869c	0.04968892
62	0x3c3e4f60	0.011615604
63	0xbd7ead01	-0.062176708
64	0x3d8853d3	0.06656613
65	0x3d74f82b	0.059806984

model_2/sequential_28/dense_83/MatMul f4 [64, 63]
0	0xbe7c8772	-0.24661043
1	0x3f0eae3e	0.5573462
2	0x3c499391	0.012303249
3	0xbe9b2ba4	-0.30306733
4	0x3ee47357	0.44619247
5	0x3e8297ca	0.2550643
6	0xbe325b0e	-0.17417547
7	0xbd9899d1	-0.07451213
8	0x3e4939dd	0.1965098
9	0x3ee5408f	0.44775817
10	0x3e9337a6	0.28753394
11	0xbd958a4c	-0.07301769
12	0x3f563506	0.8367466
13	0x3ebd98d1	0.37030652
14	0xbbbf1c1a	-0.0058322074
15	0xbd6a7c1d	-0.05724727
16	0xbeda5994	-0.42646468
17	0xbcf738f0	-0.030178517
18	0xbf0c997f	-0.54921716
19	0xbf1edf2a	-0.6205927
20	0xbe5a0729	-0.21291794
21	0xbb80477c	-0.0039147716
22	0xbd1444e4	-0.03619851
23	0xbe8f40d6	-0.27979153
24	0x3e8bb9d2	0.27290207
25	0x3f25581d	0.64587575
26	0x3d62aa26	0.055338047
27	0xbe3e9aab	-0.18613689
28	0xbe83e520	-0.25760746
29	0x3e206cd1	0.1566651
30	0x3ddfe78d	0.10932837
31	0xbed9d5ce	-0.42545933
32	0xbd0997eb	-0.033592146
33	0xbecc8c31	-0.39950708
34	0xbe22903c	-0.15875334
35	0xbe45f776	-0.1933268
36	0xbecf15b8	-0.40446258
37	0xbcedd422	-0.029031817
38	0x3da2b82c	0.07945284
39	0xbd3ab596	-0.04558333
40	0x3dbac1e6	0.091190144
41	0x3dca2b91	0.09871591
42	0x3d90077b	0.07032677
43	0xbe888748	-0.2666571
44	0xba84c9bd	-0.0010130923
45	0xbdb12a8c	-0.08650693
46	0xbe3ec1b9	-0.18628587
47	0xbd6b359e	-0.05742418
48	0xbdccac93	-0.099938534
49	0x3da543df	0.08069586
50	0x3d8c9744	0.06864789
51	0x3ec5e9a0	0.38654804
52	0xbdbfc285	-0.093632735
53	0x3e969605	0.2941133
54	0xbc1f2395	-0.009713073
55	0xbe3a5a0d	-0.18198414
56	0x3dc24346	0.09485488
57	0x3e81aa03	0.2532502
58	0x3e7afde0	0.24510908
59	0x3e058bef	0.13041662
60	0xbc4d6e8f	-0.012538566
61	0x3ca121ca	0.019669432
62	0x3d11b7b0	0.03557557
63	0x3e92999b	0.28632817
64	0xbde758f6	-0.11296265
65	0xbead1178	-0.3380239
66	0xbdc4a386	-0.09601502
67	0x3d69685a	0.056984283
68	0x3e81d329	0.25356415
69	0x3e34d12e	0.1765792
70	0x3b9cf29c	0.0047896635
71	0x3e97311c	0.29529655
72	0xbd85b296	-0.06528203
73	0x3e093747	0.13399993
74	0x3ebb3194	0.36561263
75	0xbe200a97	-0.1562904
76	0x3e33df2b	0.175656
77	0x3e533130	0.20624232
78	0xbef2b092	-0.47400337
79	0x3edc33f8	0.430084
80	0xbee94269	-0.4555848
81	0xbed3403f	-0.41259953
82	0xbe82b9ea	-0.25532466
83	0xbebc5a0a	-0.36787444
84	0xbefecc53	-0.49765262
85	0xbec927c4	-0.3928815
86	0x3dfd8d61	0.123804815
87	0xbf029fc2	-0.5102502
88	0xbe707958	-0.23483789
89	0x3df78db8	0.120875776
90	0xbed4799a	-0.41499025
91	0xbd0f655e	-0.03500878
92	0x3ceb3887	0.028713478
93	0xbea0b3ca	-0.31387168
94	0x3d3af231	0.045641128
95	0xbe85be40	-0.26121712
96	0x3e91edc0	0.285017
97	0xbe74a3d3	-0.23890619
98	0x3dad7bc6	0.084708735
99	0x3eaefc22	0.34176737
100	0xbe9df76d	-0.30852833
101	0xbe1f527a	-0.15558806
102	0xbe6e8c3f	-0.23295687
103	0x3c47df4b	0.012199233
104	0x3c078d0d	0.008273375
105	0x3e2acda2	0.16680005
106	0x3d27caae	0.040964775
107	0x3c1fd3a0	0.009755045
108	0x3e922d6b	0.28550276
109	0x3e36f67a	0.17867461
110	0xbe0c2cb7	-0.13688932
111	0x3e30eade	0.17277095
112	0xbda5b6cb	-0.080915056
113	0xbd75391a	-0.05986891
114	0x3df630dc	0.12021038
115	0xbe12d883	-0.14340405
116	0x3efa56fc	0.4889449
117	0x3d92a975	0.071612276
118	0x3e754cc4	0.23955065
119	0x3e883d92	0.26609474
120	0x3f0e2b17	0.555345
121	0x3e9865c1	0.29765132
122	0x3cea6c78	0.028616175
123	0x3f0e3ee3	0.5556471
124	0x3e1ebc6b	0.15501563
125	0xbcab1eac	-0.020888649
126	0xbe980cd4	-0.29697287
127	0xbe2a8d16	-0.16655383
128	0x3dd70918	0.10499781
129	0xbd36548f	-0.044514235
130	0xbea167ed	-0.31524602
131	0x3f17a950	0.59242725
132	0xbe87c5d1	-0.2651811
133	0x3c86d086	0.016456854
134	0xbc71e39e	-0.014763741
135	0xbc0865c9	-0.008325049
136	0x3dc97c37	0.09838145
137	0xbe07cdbc	-0.13262075
138	0x3df360ef	0.11883723
139	0x3e70dc92	0.23521641
140	0x3e4884de	0.19581935
141	0xbe48f557	-0.1962484
142	0xbf60a1ca	-0.8774687
143	0x3e87989d	0.26483622
144	0x3d5b09df	0.05347621
145	0xbeeedbcf	-0.46652076
146	0xbecb36b9	-0.39690188
147	0x3c968e53	0.018378412
148	0xbca1e43e	-0.019762155
149	0xbd9c6b8c	-0.076377004
150	0x3d0137e3	0.03154744
151	0x3ed66643	0.41874894
152	0x3e094bff	0.13407896
153	0xbe6dbd54	-0.23216754
154	0xbf295655	-0.6614736
155	0xbc12e07d	-0.008964655
156	0xbe18c542	-0.14918998
157	0x3deb011a	0.114748195
158	0xbe2eece3	-0.17082553
159	0xbde40b37	-0.111349516
160	0x3e536a1a	0.20645943
161	0xbe87d64e	-0.2653069
162	0xbd77bff1	-0.060485784
163	0x3ee73b43	0.451624
164	0x3ef996de	0.48747915
165	0xbd650ad1	-0.05591852
166	0xbed45a72	-0.41475254
167	0xbc21b7d4	-0.009870488
168	0x3daf4177	0.08557408
169	0x3e95fe16	0.29295415
170	0xbe8b04c9	-0.27152088
171	0x3e48d163	0.19611125
172	0x3f049442	0.51788723
173	0xbce04b0a	-0.027379531
174	0xbd74d42d	-0.05977266
175	0x3e802cf5	0.250343
176	0x3eba26e5	0.363578
177	0x3daa0641	0.08301974
178	0x3d7eb7cb	0.062186997
179	0x3dd0c324	0.1019347
180	0xbe2f42f3	-0.17115383
181	0x3ed9254b	0.42411265
182	0x3d5d735e	0.0540651
183	0x3e204127	0.15649854
184	0x3d54ef02	0.051985748
185	0xbe41255d	-0.18861909
186	0x3e9a67ba	0.30157262
187	0x3e6d9998	0.23203123
188	0x3b905cbd	0.0044055865
189	0x3c237b8a	0.0099781845
190	0x3d7ad7a2	0.0612408
191	0x3e482ef6	0.19549164
192	0xbdcb5725	-0.09928731
193	0xbee42de3	-0.4456626
194	0x3ebc0cf1	0.36728624
195	0xbe62a3eb	-0.22132842
196	0xbe900e98	-0.28136134
197	0xbed875f5	-0.42277494
198	0xbdb1dcf2	-0.0868472
199	0xbe84bca6	-0.25925177
200	0xbf0d386b	-0.5516421
201	0xbecc3169	-0.39881447
202	0x3e16002c	0.14648503
203	0xbec51b73	-0.38497505
204	0xbda709af	-0.08156144
205	0xbeac287d	-0.3362464
206	0xbf0d2bae	-0.55144775
207	0xbcd20647	-0.025637759
208	0xbd9a3242	-0.07529117
209	0x3d5d5790	0.054038584
210	0xbe2810d1	-0.16412665
211	0x3e1cc438	0.15309227
212	0x3f286673	0.65781325
213	0xbe3ce723	-0.18447547
214	0x3d30ffa1	0.043212537
215	0x3f64ec02	0.8942262
216	0xba8cf260	-0.0010753386
217	0xbe4f437b	-0.20240586
218	0xbe908f84	-0.28234494
219	0x3e1417c0	0.14462185
220	0x3c0e9d3c	0.00870448
221	0xbbc3b330	-0.0059722885
222	0x3e9bb08f	0.3040814
223	0x3e034bc9	0.12821878
224	0x3dbfcd98	0.09365386
225	0x3e0dad81	0.13835718
226	0x3ee54c7c	0.44784915
227	0x3f4d48f5	0.8018945
228	0x3d5cc990	0.053903162
229	0x3dc802c9	0.09766156
230	0xbd0da9eb	-0.034585875
231	0x3e3beb4c	0.18351477
232	0xbdaf7d04	-0.08568767
233	0xbe223b5f	-0.15842961
234	0x3e0bee69	0.13665165
235	0x3e0c12aa	0.13678995
236	0x3eb982e5	0.36232677
237	0xbdf8b66d	-0.1214417
238	0x3e9276d1	0.28606275
239	0x3f844eb8	1.0336523
240	0xbd7ec8ce	-0.06220322
241	0x3dc5e16d	0.09662137
242	0x3f3ede09	0.7455755
243	0x3ea919e6	0.3302757
244	0xbe069488	-0.13142598
245	0x3eb17a62	0.34663683
246	0x3ea1ac5d	0.31576815
247	0x3db72f6c	0.08944592
248	0x3d1cc07f	0.038269516
249	0x3e34dd16	0.17662463
250	0x3e600fe5	0.21881063
251	0xbe910610	-0.28324938
252	0x3ac8edd9	0.0015329673
253	0x3e789b60	0.24278021
254	0xbf133305	-0.57499725
255	0xbdb4f57b	-0.08835884

model_2/sequential_28/dense_85/MatMul f4 [66, 32]
0	0x3e363ae7	0.17795907
1	0x3c171321	0.009220869
2	0x3e9278ca	0.2860778
3	0xbe42b49b	-0.19014208
4	0xbf3c9098	-0.7365813
5	0x3c523607	0.012830264
6	0xbe8942be	-0.26808733
7	0x3bbc71a7	0.005750853
8	0xbf109b5a	-0.5648705
9	0x3f11ad1a	0.5690476
10	0xbf155139	-0.5832706
11	0xbe2c4730	-0.16824031
12	0x3e95e7fa	0.29278547
13	0xbeea12ed	-0.45717564
14	0xbe399694	-0.18123847
15	0xbdf8d947	-0.12150817
16	0xbe50083b	-0.2031564
17	0x3e0a62d6	0.13514265
18	0xbf9a29b0	-1.2043972
19	0x3d9b5b57	0.07585781
20	0xbf2cf767	-0.67565006
21	0xbe68af40	-0.22723103
22	0xbda3d8c6	-0.080003306
23	0x3e91a56f	0.28446528
24	0xbefea697	-0.49736473
25	0xbf20a6a2	-0.6275426
26	0xbece534f	-0.40297934
27	0x3ea6a85c	0.32550323
28	0x3e44b784	0.1921063
29	0x3dbaf582	0.09128858
30	0x3e1139ed	0.14182253
31	0xbfb96f02	-1.4487002
32	0xbf168e1e	-0.58810604
33	0xbeaf3137	-0.34217235
34	0xbc9ce6e0	-0.019153059
35	0x3e875e4d	0.26439133
36	0x3ec50f1d	0.38488093
37	0xbe6ac9c8	-0.22928536
38	0xbdce28e5	-0.10066394
39	0x3e52c309	0.20582213
40	0x3eccccb7	0.39999935
41	0xbe9b929d	-0.30385295
42	0xbeaac4ba	-0.33353215
43	0x3dba85e2	0.09107567
44	0x3e862380	0.2619896
45	0xbfa00748	-1.2502222
46	0xbec855d1	-0.39127973
47	0xbe6bbf19	-0.23022117
48	0xbf1811c7	-0.59402126
49	0x3ee09176	0.43860978
50	0xbf4c6c11	-0.79852396
51	0xbe031cff	-0.1280403
52	0xbe03f9ce	-0.12888262
53	0xbf5b74b4	-0.8572495
54	0x3eb9493d	0.3618869
55	0x3d18a7b9	0.037269328
56	0x3ee6d651	0.45085385
57	0xbf086959	-0.5328575
58	0x3e402aff	0.18766402
59	0xbf8be1d9	-1.0928298
60	0xbf8f1d91	-1.1180898
61	0x3eafd3fc	0.3434142
62	0xbe60bc8a	-0.21946922
63	0xbebd7a83	-0.37007532
64	0xbf25a8aa	-0.64710486
65	0xbe16d929	-0.14731278
66	0x3d562c83	0.052288543
67	0xbe1a9e9b	-0.15099566
68	0x3e805ac4	0.2506925
69	0xbfaa9232	-1.3325865
70	0x3e80aaa8	0.251302
71	0x3e3f83ab	0.18702571
72	0xbe0790a9	-0.13238777
73	0xbf9b3edd	-1.2128559
74	0xbd2fdbcb	-0.04293422
75	0xbf1cd1f0	-0.6125784
76	0x3db91986	0.09038071
77	0xbefc8f8f	-0.49328277
78	0x3ef6bff6	0.4819333
79	0x3e8999db	0.26875195
80	0xbf2423a0	-0.6411686
81	0xbde58d60	-0.11208606
82	0xbe466c46	-0.1937724
83	0xbf8c9a04	-1.0984502
84	0x3bbffe34	0.005859161
85	0x3e608ea0	0.21929407
86	0x3db26518	0.08710688
87	0xbe861d74	-0.26194346
88	0xbf0307fc	-0.5118406
89	0xbd2f8197	-0.042848196
90	0xbc8f11bb	-0.01746451
91	0xbe6284f4	-0.2212103
92	0x3ce38c61	0.027776899
93	0xbec311ba	-0.38099462
94	0xbe23ecda	-0.1600832
95	0x3e645232	0.2229698
96	0x3d15ed45	0.03660323
97	0xbebdbe94	-0.37059462
98	0x3ed7a048	0.42114472
99	0xbe05b48a	-0.13057151
100	0xbeb82d46	-0.3597204
101	0xbe43a938	-0.1910752
102	0xbebc5936	-0.36786813
103	0x3de44d95	0.1114761
104	0xbebe90b9	-0.3721979
105	0x3e1faae7	0.15592538
106	0xbe556e79	-0.20842923
107	0xbe470918	-0.19437063
108	0xbd9c0d35	-0.076197065
109	0xbe858759	-0.26079825
110	0xbef40935	-0.47663274
111	0xbcffeb28	-0.03124006
112	0xbc98b73e	-0.018642064
113	0x3e1057dd	0.14096017
114	0x3ea6ff9c	0.3261689
115	0x3c6dd03b	0.014514978
116	0xbde0be11	-0.10973752
117	0xbea5f8a2	-0.32416254
118	0xb9c85870	-0.00038212864
119	0xbeae2094	-0.3400923
120	0x3cd4525c	0.025918178
121	0xbe63fccc	-0.22264403
122	0xbedfd5d3	-0.43717822
123	0xbe6760c4	-0.22595507
124	0x3e5b5cf8	0.21422184
125	0xbe252ee2	-0.16131166
126	0x3e5302a5	0.20606478
127	0x3efccab4	0.493734
128	0x3f26c599	0.6514526
129	0x3ed25f48	0.4108832
130	0xbb656808	-0.0035004634
131	0xbf6d59d2	-0.9271518
132	0x3eeaa686	0.45830172
133	0x3e313836	0.17306599
134	0xbe2e33af	-0.17011903
135	0xbe807d06	-0.25095385
136	0x3e1451d1	0.14484335
137	0xbf96f423	-1.1793255
138	0xbe8a174a	-0.26970893
139	0x3eb8753c	0.36026943
140	0xbf8a3536	-1.0797489
141	0x3e3f9e30	0.18712687
142	0x3e259e76	0.1617373
143	0xbf87c107	-1.0605782
144	0x3e70e3ef	0.2352445
145	0xbe4d2cb4	-0.20036584
146	0xbf45d505	-0.77278167
147	0xbf50defb	-0.8159024
148	0xbf10b175	-0.5652078
149	0xbdadd243	-0.0848737
150	0x3e067255	0.13129552
151	0xbf617a54	-0.8807728
152	0xbf1c60f0	-0.61085415
153	0xbe068674	-0.13137227
154	0xbcb5c288	-0.022187486
155	0xbef7e6ab	-0.48418173
156	0xbfdd02cf	-1.7266482
157	0xbf2b2853	-0.66858405
158	0x3e051856	0.12997565
159	0xbe8bbb61	-0.27291396
160	0x3d8cc363	0.068732046
161	0xbd97cf1e	-0.07412551
162	0xbd9acd5e	-0.07558702
163	0xbdd09658	-0.10184926
164	0x3dd3fdf3	0.10351171
165	0xbf9640a2	-1.1738474
166	0x3edc6666	0.43046874
167	0xbdc3e559	-0.09565229
168	0x3eb94de5	0.3619224
169	0xbf383ddd	-0.71969396
170	0xbe43343d	-0.19062896
171	0xbef08f9f	-0.46984574
172	0xbe90e9e7	-0.28303453
173	0x3e3b0b8c	0.18266124
174	0x3f08498d	0.5323723
175	0x3eb53aae	0.35396332
176	0xbf6f2cee	-0.9342793
177	0xbe82fc52	-0.2558313
178	0xbe3f3799	-0.18673553
179	0xbe9d9e2b	-0.30784735
180	0xbf5beb4c	-0.8590591
181	0x3db88fd4	0.09011808
182	0xbfc4084e	-1.5315034
183	0xbfb30c4f	-1.3988131
184	0xbf29b193	-0.6628658
185	0xbfc825aa	-1.5636494
186	0xbe21b839	-0.15792932
187	0xbf8f114b	-1.1177152
188	0xbf1ac73d	-0.60460263
189	0xbf0c9f60	-0.54930687
190	0xbecb6250	-0.39723444
191	0x3e9372ef	0.28798625
192	0xbfa082f8	-1.2539968
193	0x3f171d98	0.5902953
194	0xbf0d1d74	-0.55123067
195	0x3ee94664	0.45561516
196	0xbf72a952	-0.9478961
197	0xbe03f817	-0.12887608
198	0x3dae1b26	0.08501272
199	0xbdff4a96	-0.12465398
200	0xbf05e75b	-0.52306145
201	0x3d064c90	0.03278786
202	0x3ed43a8e	0.41450924
203	0xbd55cca1	-0.052197102
204	0xbf0b0459	-0.5430351
205	0xbf82b1c4	-1.02105
206	0xbfa7618d	-1.3076645
207	0xbe87e5f3	-0.26542625
208	0x3bb51496	0.0055261357
209	0xbf674a24	-0.90347505
210	0x3d4c93c1	0.049945597
211	0x3f18ea17	0.5973219
212	0xbf13d5dc	-0.577482
213	0xbe35a0d1	-0.17737128
214	0xbee7ea87	-0.45296118
215	0xbc78898f	-0.015169515
216	0xbf2d9e0e	-0.678193
217	0x3db2c8b6	0.08729689
218	0x3f839879	1.0280906
219	0xbf506027	-0.81396717
220	0xbedc838d	-0.43069115
221	0x3d9d3a33	0.07677116
222	0xbf2ebc02	-0.6825563
223	0xbe92f205	-0.2870027
224	0x3a12f2dd	0.00056056475
225	0x3ef1b41a	0.4720772
226	0xbf7ef8c1	-0.9959832
227	0xbf62b59d	-0.8855837
228	0xbe5aba22	-0.21360067
229	0xbfed6504	-1.8546453
230	0x3d96ffe9	0.0737303
231	0x3db908c3	0.09034874
232	0x3dd46d32	0.1037239
233	0xbdfd7cdf	-0.12377333
234	0xbbff4a00	-0.007790804
235	0xbf45e29e	-0.77298915
236	0xbf192234	-0.59817815
237	0x3e558cc4	0.20854479
238	0x3e0d15c4	0.13777834
239	0xbe6a4ecd	-0.22881623
240	0x3e6ce2eb	0.23133437
241	0xc0411e5f	-3.0174787
242	0xbf00309a	-0.5007416
243	0xbf5d0ed5	-0.86350757
244	0xbd8e613d	-0.069521405
245	0x3e6073e6	0.21919212
246	0xbc8fd326	-0.017556738
247	0x3f2bb704	0.67076135
248	0x3cb8a7a1	0.02254087
249	0x3e87d218	0.26527476
250	0xbe80465d	-0.25053683
251	0xbf384252	-0.71976197
252	0xbe795a0a	-0.24350753
253	0x3ddd927f	0.108189575
254	0xbf9703a6	-1.1797988
255	0x3e887746	0.26653498

model_2/dense_6/MatMul f4 [64, 66]
0	0xbe0f74be	-0.14009377
1	0x3f082c3f	0.53192514
2	0xbe4d52ed	-0.20051165
3	0xbd36432f	-0.044497665
4	0xbe933b9c	-0.28756416
5	0xbe506921	-0.20352603
6	0xbe91ddc0	-0.28489494
7	0x3ecfe308	0.406029
8	0x3db73a44	0.0894666
9	0xbe2e68c5	-0.17032154
10	0xbdaec279	-0.085331865
11	0x3ec3c2a2	0.3823443
12	0xbe8169a4	-0.2527591
13	0x3e81c725	0.25347248
14	0xbe112fb4	-0.14178354
15	0x3e79fb46	0.2441226
16	0xbe14bd39	-0.14525308
17	0x3ea9b1e4	0.33143532
18	0x3e781b4a	0.2422916
19	0x3dba6727	0.09101706
20	0xbe548fc7	-0.20757972
21	0x3d62e5f4	0.05539508
22	0xbe72147d	-0.23640628
23	0xbe0e6694	-0.13906318
24	0xbcee7696	-0.02910928
25	0x3e84772b	0.25872168
26	0xbeb81268	-0.35951543
27	0xbe677ffb	-0.22607414
28	0xbe8b1b1b	-0.27169117
29	0x3edcee01	0.43150333
30	0xbe9b1f76	-0.3029744
31	0xbea6e004	-0.32592785
32	0xbcd874da	-0.026422907
33	0x3e8607df	0.2617788
34	0xbe6a7644	-0.22896677
35	0x3e581c94	0.21104652
36	0x3ef68f0e	0.48156017
37	0x3c5e7ce0	0.013579577
38	0xbe8c8db4	-0.2745186
39	0xbe993714	-0.29924834
40	0xbe884e01	-0.26622012
41	0x3f079988	0.52968645
42	0xbd400c8b	-0.046886962
43	0xbe83ad7c	-0.25718296
44	0x3e3ed46a	0.18635717
45	0x3e96deb7	0.29466793
46	0xbe296d38	-0.1654557
47	0xbe619daa	-0.220328
48	0x3eae44de	0.34036916
49	0x3f00e138	0.50343657
50	0x3d77205f	0.060333606
51	0x3f066b47	0.5250744
52	0xbd8533a1	-0.06503988
53	0xbda9ccbc	-0.08291003
54	0xbd1db62e	-0.03850382
55	0xbe746903	-0.23868184
56	0x3ee520be	0.44751543
57	0x3d58965b	0.052877765
58	0x3e9a8414	0.30178893
59	0x3eee41fc	0.46534717
60	0xbe83313b	-0.25623497
61	0xbe976276	-0.29567307
62	0xbe0bd079	-0.13653745
63	0x3e05f3fa	0.13081351
64	0xbe8a568b	-0.27019152
65	0x3ea94ea0	0.330678
66	0x3ef667b5	0.48125997
67	0x3cf4becc	0.029876135
68	0xbd8972ff	-0.06711387
69	0x3ed99760	0.42498302
70	0xbe95502d	-0.29162732
71	0xbe7a42e7	-0.24439584
72	0x3d7e9725	0.06215586
73	0x3e0b1729	0.13583054
74	0xbe877a10	-0.26460314
75	0x3ec94c3c	0.39315975
76	0x3ee6e2a2	0.45094782
77	0x3eb6647b	0.35623536
78	0xbe39a50e	-0.1812937
79	0x3eebbb1b	0.46041188
80	0x3e9e7dc6	0.30955333
81	0xbe87e007	-0.26538107
82	0x3e778518	0.24171865
83	0xbeabf526	-0.3358547
84	0xbe81af72	-0.25329167
85	0x3caf056f	0.021364896
86	0x3eb2f552	0.3495279
87	0xbc1732f2	-0.009228455
88	0xbe880f24	-0.2657405
89	0x3dcb1415	0.0991594
90	0x3f1436a6	0.57895887
91	0x3e7f1e51	0.24913909
92	0xbe3b1bad	-0.18272276
93	0xbe7eddcc	-0.24889296
94	0x3e6c899e	0.23099372
95	0x3d1b34f2	0.03789229
96	0xbe76b64c	-0.24092978
97	0xbd41c45d	-0.047306407
98	0x3eed7c3e	0.46383852
99	0xbd3cd9cc	-0.046106145
100	0xbea4c07c	-0.32178104
101	0x3e82a375	0.25515333
102	0x3ec5a924	0.38605607
103	0x3daf0340	0.08545542
104	0x3e560662	0.20900872
105	0x3cdd1e57	0.026992006
106	0xbe6817b5	-0.22665294
107	0x3c52ea48	0.01287324
108	0x3dca8193	0.098879956
109	0x3eadd799	0.3395355
110	0xbe32e5b9	-0.17470445
111	0xbc097be0	-0.0083913505
112	0x3ed69828	0.4191296
113	0x3dffb7d9	0.12486238
114	0x3d0988fc	0.033577904
115	0x3c5542e2	0.013016434
116	0x3d96b2da	0.07358332
117	0x3e59defa	0.21276465
118	0xbddeeac2	-0.1088462
119	0xbe7c23e2	-0.24623063
120	0xbe13208e	-0.14367887
121	0xbe9d294a	-0.30695564
122	0x3f047314	0.51738095
123	0xbe32156e	-0.17390987
124	0xbe9db642	-0.30803114
125	0x3d739ac4	0.059473768
126	0xbe93e291	-0.28883794
127	0x3ebb1a49	0.3654349
128	0xbdb21e1f	-0.086971514
129	0x3e82c0b0	0.25537634
130	0xbe0e183d	-0.13876434
131	0xbe2cc112	-0.16870525
132	0x3ea2d4a6	0.31802863
133	0xbea52899	-0.32257536
134	0xbe0fb717	-0.14034687
135	0xbe87bd05	-0.26511398
136	0x3eaf6806	0.3425905
137	0x3ec74a6b	0.38923964
138	0xbe9e982c	-0.30975473
139	0x3e81b0dc	0.25330245
140	0xbe8a21e0	-0.2697897
141	0xbe539243	-0.20661263
142	0xbe58c448	-0.21168625
143	0xbe6ff025	-0.23431452
144	0x3e471416	0.19441256
145	0xbe8e2fa8	-0.27770734
146	0xbe8b5abf	-0.2721767
147	0x3ec3d900	0.38251495
148	0xbdd3a758	-0.10334653
149	0x3db445fb	0.0880241
150	0x3ea786a4	0.3271991
151	0xbea6397c	-0.32465732
152	0x3e3a0936	0.18167576
153	0x3ef3bd78	0.4760549
154	0xbe92f32d	-0.28701153
155	0xbea0ec60	-0.3143034
156	0xbde24320	-0.11047959
157	0xbe8b44cb	-0.27200922
158	0x3e5427b1	0.20718266
159	0x3ebdd2a5	0.37074772
160	0xbdb60769	-0.08888132
161	0xbe95a6cd	-0.2922882
162	0xbcb9c004	-0.022674568
163	0xbe8e682a	-0.27813846
164	0x3d8a0535	0.067392744
165	0x3e84b62e	0.25920242
166	0x3eab084d	0.3340477
167	0x3db25d8e	0.087092504
168	0xbe652b43	-0.22379784
169	0x3f0273ad	0.5095776
170	0xbea9a3e8	-0.33132863
171	0xbe14a325	-0.1451536
172	0x3e582160	0.21106482
173	0x3e7f34b0	0.24922442
174	0x3e833e75	0.25633588
175	0xbde74734	-0.11292878
176	0x3d8895ec	0.0666922
177	0xbb813e61	-0.0039442037
178	0x3e808b5b	0.2510632
179	0xbe55126b	-0.20807807
180	0xbe16f839	-0.14743127
181	0xbe925a0e	-0.2858433
182	0x3d9e626d	0.07733617
183	0xbe9b6a08	-0.30354333
184	0x3edaa2c6	0.4270231
185	0x3e9ab7a1	0.30218223
186	0xbe94974b	-0.29021677
187	0x3f2973f9	0.66192585
188	0xbe6ad58a	-0.22933021
189	0x3eab4bdb	0.3345631
190	0xbe582a15	-0.21109803
191	0xbe8590ea	-0.26087123
192	0x3ec3f78c	0.382748
193	0x3e5b3bda	0.2140955
194	0xbe8eadd7	-0.27867004
195	0x3e25b9dc	0.16184181
196	0xbe82f0d7	-0.2557437
197	0xbe74f1c6	-0.23920354
198	0x3dc7d263	0.09756925
199	0x3c5d77e8	0.013517357
200	0xbe568824	-0.20950371
201	0xbe41ddb0	-0.18932223
202	0xbe967353	-0.2938486
203	0x3ee85eb8	0.45384765
204	0xbd4ac259	-0.04950175
205	0x3ea1c229	0.31593445
206	0x3f0e13cc	0.5549896
207	0xbe633d28	-0.22191298
208	0x3d1e125e	0.038591735
209	0x3f01c3ee	0.5068959
210	0xbe61783b	-0.2201852
211	0x3edb1cab	0.4279531
212	0x3e9c6523	0.3054591
213	0xbe9570f6	-0.29187745
214	0xbe80d206	-0.25160235
215	0xbe957529	-0.2919095
216	0x3e89a3db	0.26882824
217	0xbe853f06	-0.26024646
218	0x3e17b2f7	0.14814363
219	0xbe878cc5	-0.26474586
220	0x3e143122	0.14471868
221	0xbd416992	-0.04721982
222	0xbe655551	-0.22395827
223	0x3e3f496d	0.18680353
224	0xbe7e7feb	-0.24853484
225	0x3ebc0419	0.36721876
226	0x3ec238d1	0.37933972
227	0xbe710941	-0.23538686
228	0xbe174ef7	-0.14776216
229	0x3ec3c6ed	0.38237706
230	0x3e50bafc	0.20383829
231	0xbe8bebd5	-0.27328363
232	0x3ea4f822	0.3222056
233	0x3e5966c5	0.2123061
234	0xbe262cff	-0.16228102
235	0xbe34f887	-0.1767293
236	0x3ee3d5a4	0.44498932
237	0xbcbdeb17	-0.023183389
238	0x3e7eb001	0.24871828
239	0x3e92a359	0.2864025
240	0x3dd35794	0.103194386
241	0x3ea8fb22	0.330041
242	0xbe4d74a7	-0.2006403
243	0xbd630cb6	-0.055432044
244	0x3ed4367e	0.41447824
245	0x3e879630	0.2648177
246	0xbdf9e4ae	-0.1220182
247	0xbd9dcc1c	-0.077049464
248	0xbdc8f8fa	-0.098131135
249	0xbea31430	-0.3185134
250	0xbd559803	-0.052146923
251	0x3e4c4acd	0.19950409
252	0xbeac365c	-0.33635223
253	0x3d90e33d	0.07074592
254	0xbd2bf234	-0.04197903
255	0x3e2ab8a9	0.16672005

model_2/dense_7/MatMul f4 [32, 64]
0	0x3e9bd2ed	0.3043436
1	0x3ecab79a	0.39593202
2	0xbdd18555	-0.10230509
3	0x3ec8d20d	0.39222756
4	0x3de4968f	0.11161529
5	0xbe4c5100	-0.19952774
6	0xbe2f75a5	-0.17134722
7	0x3ea3e92c	0.32013834
8	0xbeb15f93	-0.3464323
9	0x3e383814	0.17990142
10	0x3df94b6a	0.12172587
11	0x3d7b1b20	0.061305165
12	0x3d84fe42	0.06493808
13	0xbdc18bad	-0.09450469
14	0xbe44c400	-0.19215393
15	0xbeedca76	-0.46443528
16	0xbef8f758	-0.48626208
17	0xbe7778c2	-0.24167159
18	0xbe186e90	-0.14885926
19	0x3ed82ac4	0.42220128
20	0xbe7a3863	-0.24435572
21	0x3d9a37f2	0.07530202
22	0x3d59c32c	0.053164646
23	0x3ec3dc11	0.38253835
24	0xbd91e7df	-0.07124304
25	0x3ce19092	0.027534757
26	0xbe51a6f7	-0.20473848
27	0x3dffc2f7	0.124883585
28	0x3f0986b3	0.5372116
29	0xbe4a72ca	-0.19770351
30	0x3e822260	0.2541685
31	0xbe98b74b	-0.2982734
32	0x3e4f2874	0.20230275
33	0xbe866f8f	-0.26256987
34	0x3ef59e73	0.4797245
35	0x3ea467f6	0.32110566
36	0x3e8252e2	0.2545386
37	0xbe374074	-0.1789568
38	0x3ed9af4c	0.42516553
39	0xbe75be45	-0.23998363
40	0xbeb6d419	-0.35708693
41	0xbe4b9389	-0.19880499
42	0x3e2bd833	0.16781692
43	0xbeb0f156	-0.34559125
44	0x3eba1b43	0.36348924
45	0x3e99a15e	0.30005926
46	0x3d861782	0.065474525
47	0x3e850d93	0.2598692
48	0xbba03b05	-0.004889848
49	0x3ed28144	0.41114247
50	0xbdda55a2	-0.106608644
51	0xbd812b1c	-0.063070506
52	0xbc87d289	-0.016579883
53	0xbe83da0a	-0.25752288
54	0xbc884d1f	-0.016638337
55	0xbd040258	-0.032228798
56	0x3edff9a5	0.4374515
57	0xbe995141	-0.29944804
58	0xbe308039	-0.17236413
59	0xbe643c59	-0.22288646
60	0x3f1b5b16	0.6068586
61	0xbecd7f52	-0.401362
62	0xbe081d04	-0.13292319
63	0x3e9aad49	0.3021033
64	0x3e5ed69d	0.21761556
65	0x3e2e715b	0.17035429
66	0x3ec1c795	0.37847582
67	0x3e87d1c3	0.26527223
68	0xbe2b15c4	-0.16707522
69	0x3d109895	0.035301764
70	0x3e04f6c4	0.12984759
71	0xbe13e560	-0.14442968
72	0x3f129ef2	0.5727378
73	0x3e2e4c24	0.17021233
74	0x3eb3fd30	0.35154104
75	0x3aa933df	0.0012909136
76	0x3d4b71aa	0.049668945
77	0x3d9d7f87	0.076903395
78	0xbeeae112	-0.4587484
79	0xbe48e6df	-0.1961932
80	0xbeb3ee36	-0.35142678
81	0xbd41d24d	-0.0473197
82	0xbd9e23da	-0.07721682
83	0x3de1c839	0.110245176
84	0x3e4ab29f	0.19794701
85	0xbe05405f	-0.13012837
86	0x3e8fbad6	0.28072232
87	0xbdada8c6	-0.084794566
88	0x3e4524da	0.19252339
89	0x3cef9520	0.029245913
90	0xbe6474f2	-0.22310236
91	0x3ecd0700	0.40044403
92	0x3e1bdfbb	0.15222065
93	0xbea385b0	-0.31937933
94	0xbe162f77	-0.14666544
95	0xbe2dfe6a	-0.16991583
96	0xbf077ea2	-0.529276
97	0x3ed49481	0.4151955
98	0x3eb3a186	0.3508417
99	0x3d259f57	0.04043516
100	0x3e911425	0.28335682
101	0x3ed0ab90	0.40755892
102	0xbe3d7cc5	-0.18504627
103	0xbd47bb64	-0.048762694
104	0xbc9c101d	-0.019050652
105	0xbee17cb2	-0.44040447
106	0x3d8db460	0.069191694
107	0x3e391007	0.1807252
108	0x3eb39093	0.3507124
109	0x3eebbd76	0.46042985
110	0xbd871f10	-0.065977216
111	0x3e011b31	0.12608029
112	0x3e644fc4	0.22296053
113	0x3d824190	0.06360161
114	0x3e8de2f3	0.2771221
115	0x3eeac707	0.4585497
116	0x3f0237ac	0.508662
117	0xbd0005b6	-0.031255446
118	0xbf0fb55b	-0.561361
119	0x3f1852ab	0.5950114
120	0x3ea1603f	0.31518742
121	0x3ed56175	0.41675916
122	0x3dba5b27	0.09099417
123	0xbee5e209	-0.44899014
124	0x3efc650c	0.49295843
125	0xbec5cd51	-0.38633206
126	0xbe7d6172	-0.24744204
127	0x3dbf2248	0.093327105
128	0x3e884864	0.2661773
129	0x3efb4e02	0.49082953
130	0x3dd06e24	0.10177258
131	0x3dc963da	0.09833498
132	0x3f4220f0	0.7583151
133	0x3e0c5137	0.13702856
134	0x3e88e087	0.267338
135	0xbebd865a	-0.37016565
136	0x3e4e71e4	0.20160633
137	0x3f2789b1	0.65444475
138	0x3f0a9ee7	0.54148716
139	0x3ecf83d5	0.40530267
140	0x3e52fee1	0.20605041
141	0xbbc9ddca	-0.0061604725
142	0xbe8b8307	-0.27248403
143	0xbe947ca0	-0.2900133
144	0x3ef489ae	0.4776129
145	0xbe7a1f48	-0.24425995
146	0xbe8853fa	-0.2662657
147	0x3eeb7eac	0.4599508
148	0xbe7b2e71	-0.24529435
149	0xbe575b3a	-0.21030894
150	0x3f286160	0.6577358
151	0xbe3beec2	-0.18352798
152	0x3e4b1b52	0.1983464
153	0xbe865a70	-0.26240873
154	0x3c485dcb	0.012229393
155	0x3ccdebd0	0.025136858
156	0x3e3ccdc6	0.18437871
157	0x3f21b8dd	0.63172704
158	0xbee364bc	-0.44412792
159	0x3dd28193	0.102786206
160	0x3eacc44d	0.33743516
161	0x3ea63223	0.32460126
162	0xbe01598b	-0.12631814
163	0xbccc6c1b	-0.024953892
164	0x3ec67424	0.38760483
165	0x3e3fe0af	0.18738054
166	0x3e9507a0	0.2910738
167	0xbf0a2393	-0.5396053
168	0x3f119b49	0.5687757
169	0x3d9b142e	0.07572208
170	0x3d713efc	0.058897957
171	0x3e87707f	0.26453015
172	0xbe5022e2	-0.20325807
173	0xbe3e11bf	-0.18561457
174	0x3e4f792f	0.20261072
175	0xbe6c47e2	-0.23074296
176	0xbea2646c	-0.3171724
177	0xbedb57df	-0.42840478
178	0x3e2ef5e1	0.17085983
179	0x3e0cee57	0.13762794
180	0x3e2c6c46	0.16838178
181	0xbeaeb057	-0.34118912
182	0x3da1c7dc	0.07899448
183	0x3dbf04c5	0.093270816
184	0x3b7b269a	0.003832257
185	0xbea4b217	-0.32167122
186	0x3e8955f5	0.26823393
187	0xbf03252d	-0.512286
188	0x3e6c307c	0.2306537
189	0xbdbfc1d2	-0.0936314
190	0xbeb1fca5	-0.34763065
191	0xbc6d1788	-0.014470942
192	0x3e185a4d	0.14878197
193	0xbe2c0e9f	-0.16802453
194	0x3cf69d47	0.030104293
195	0xbe379784	-0.17928892
196	0xbeb7b04d	-0.35876694
197	0xbe143583	-0.14473538
198	0xbefe9249	-0.49720982
199	0x3e4d0fff	0.20025633
200	0xbeff2788	-0.49834847
201	0xbdb09d7d	-0.086237885
202	0xbe68a34a	-0.2271854
203	0xbf00c44d	-0.5029953
204	0x3f1a6849	0.60315377
205	0xbe01ea6f	-0.12687086
206	0x3d33a869	0.04386178
207	0x3ee53748	0.4476874
208	0xbe9d605b	-0.30737576
209	0x3dcbbabb	0.099477254
210	0x3f1af338	0.6052737
211	0x3d007cf4	0.031369165
212	0xbe4a4ad2	-0.19755104
213	0xbee5b6b2	-0.44865948
214	0x3e339ff8	0.17541492
215	0x3f0b55fa	0.54428065
216	0x3e5e2d63	0.21697001
217	0xbe9b1ecb	-0.3029693
218	0x3f05bb33	0.5223877
219	0x3f111e2c	0.56686664
220	0xbe91a8dd	-0.28449145
221	0x3f01a549	0.5064283
222	0x3f146280	0.579628
223	0x3ea40829	0.32037476
224	0x3eed09b3	0.46296462
225	0x3e4a3bee	0.19749424
226	0x3ee12712	0.4397512
227	0x3d1b2aa2	0.037882455
228	0x3eac9c06	0.33712786
229	0x3e812308	0.2522204
230	0x3e96fc91	0.29489568
231	0x3e89316f	0.26795527
232	0x3ed1142e	0.40835708
233	0xbef28968	-0.47370458
234	0xbdf4803b	-0.119385205
235	0xbdf81bac	-0.12114653
236	0xbe90e11e	-0.2829675
237	0x3d476e65	0.048689265
238	0x3e491b64	0.19639355
239	0xbed04bdb	-0.40682873
240	0x3f2c7e2e	0.67380035
241	0xbe23030f	-0.15919136
242	0xbeecc6d8	-0.46245456
243	0x3d635ad4	0.055506542
244	0xbdc73aad	-0.097279884
245	0xbe99ebbe	-0.3006267
246	0x3e69639a	0.22791901
247	0x3eaa181f	0.33221528
248	0x3edb72ba	0.42860967
249	0xbe87aefa	-0.26500684
250	0x3cc9becf	0.024627117
251	0x3e8b9fca	0.27270347
252	0xbf0826ee	-0.531844
253	0x3f1ea289	0.6196676
254	0xbe19a7ca	-0.15005413
255	0x3d142e49	0.036176953

model_2/dense_8/MatMul f4 [66, 32]
0	0xbdd1c50b	-0.10242661
1	0x3e6e662d	0.23281164
2	0x3db7ff8d	0.08984289
3	0x3df291b9	0.11844201
4	0xbe58e79d	-0.21182103
5	0xbe80b242	-0.25136
6	0x3ceae512	0.028673682
7	0xbd351101	-0.04420567
8	0xbe7a593a	-0.244481
9	0xbef36de6	-0.47544783
10	0xbe3bc8a8	-0.18338263
11	0xbe4cc8fa	-0.19998541
12	0x3e8ca48f	0.27469298
13	0x3e32031f	0.17384003
14	0xbe975417	-0.29556343
15	0x3e4a89cf	0.19779132
16	0xbe6a579a	-0.2288498
17	0xbea34856	-0.31891125
18	0xbd44bc7b	-0.04803131
19	0xbe1a59d0	-0.15073323
20	0xbe5811a3	-0.21100478
21	0xbed4f251	-0.41591123
22	0x3e68e029	0.2274176
23	0xbe82a661	-0.25517562
24	0xbeca4ac6	-0.39510173
25	0xbdc0a0f9	-0.09405703
26	0xbf761c12	-0.9613658
27	0xbd224712	-0.03961856
28	0xbe07dd65	-0.13268049
29	0x3e2dd469	0.1697556
30	0x3ebb6c89	0.36606243
31	0x3e14d1df	0.14533184
32	0x3d6dba86	0.05803921
33	0xbf29381d	-0.6610125
34	0x3e624c90	0.22099519
35	0x3e3ace8f	0.18242858
36	0xbeb97c6f	-0.36227748
37	0xbde7c757	-0.11317318
38	0xbe07306e	-0.13202068
39	0x3e040538	0.12892616
40	0xbea1be0e	-0.31590313
41	0x3e6dce39	0.23223199
42	0xbf19a006	-0.600098
43	0xbef7c3f5	-0.4839169
44	0x3ed66321	0.41872504
45	0x3c0b8cce	0.008517457
46	0x3e351057	0.17682014
47	0x3d9e2a09	0.07722861
48	0xbebdfb56	-0.37105817
49	0xbf4da0b8	-0.8032336
50	0xbe46f6c7	-0.19430076
51	0xbda52cd4	-0.08065191
52	0xbc848f28	-0.016181543
53	0xbe758f20	-0.23980379
54	0x3d7f9906	0.062401794
55	0x3e6a623b	0.22889034
56	0x3cf3e49f	0.029772101
57	0xbf314b5e	-0.69255626
58	0x3e29cae7	0.16581307
59	0x3e5cba4a	0.21555439
60	0xbdf2bb65	-0.11852149
61	0xbf36bda3	-0.7138311
62	0xbe19219f	-0.14954232
63	0xbe916a86	-0.28401583
64	0xbe8b7b32	-0.27242428
65	0xbecfc571	-0.40580323
66	0xbeb151bc	-0.3463267
67	0x3ed763d4	0.4206835
68	0x3e4e39e4	0.20139271
69	0x3e9a10a8	0.30090833
70	0x3e89e5c1	0.269331
71	0xbc320864	-0.010866258
72	0xbd7ffd4e	-0.06249743
73	0xbb0d4808	-0.0021557827
74	0x3e11bd6a	0.14232412
75	0xbecbf28c	-0.39833486
76	0xbe1af7ac	-0.15133542
77	0xbeb16a2c	-0.34651315
78	0xbecff85c	-0.4061917
79	0xbf385617	-0.7200636
80	0xbdc9bff5	-0.09851066
81	0x3e95e8f0	0.2927928
82	0xbed9e249	-0.42555454
83	0xbe757676	-0.2397097
84	0xbeabcefe	-0.3355636
85	0x3e0add76	0.13561043
86	0xbed4102c	-0.41418588
87	0xbdaf749a	-0.08567162
88	0xbdb6f1b4	-0.0893282
89	0xbe4e69b2	-0.20157507
90	0x3d25527c	0.040361866
91	0xbf271db7	-0.65279716
92	0x3e578b6e	0.21049282
93	0xbf13cf3e	-0.577381
94	0xbda27f4d	-0.07934437
95	0x3a16683b	0.00057375774
96	0xbeb8db17	-0.36104652
97	0xbebc76f5	-0.36809507
98	0x3e676ff9	0.22601308
99	0xbefe493b	-0.49665245
100	0xbe654dbd	-0.22392936
101	0xbf25e072	-0.647956
102	0xbda4f047	-0.08053642
103	0xbf0364b6	-0.5132555
104	0xbca4a7ae	-0.020099487
105	0xbe9aae57	-0.30211136
106	0x3ea4d8ab	0.32196555
107	0xbee63c96	-0.44968098
108	0x3e4d4c33	0.20048599
109	0xbdae555e	-0.08512376
110	0xbdf77bcd	-0.1208416
111	0x3dbf67a4	0.0934594
112	0xbe075da1	-0.1321931
113	0xbd57ac74	-0.0526547
114	0x3e60e456	0.21962103
115	0xbc90b197	-0.017662806
116	0xbeaff7d9	-0.3436878
117	0xbefa7614	-0.4891821
118	0xbf0673b2	-0.5252029
119	0xbdf1e228	-0.11810714
120	0xbd82dbd4	-0.06389585
121	0x3e927eba	0.2861231
122	0xbe2f56dd	-0.1712298
123	0x3ea911e7	0.3302147
124	0x3e9cf939	0.30658892
125	0x3ccb0955	0.024784723
126	0xbe93e6f0	-0.2888713
127	0x3e477407	0.19477855
128	0xbf315ff0	-0.69287014
129	0x3e8f01f5	0.2793118
130	0xbf2658b0	-0.64979076
131	0xbf26b9a7	-0.65127033
132	0xbf4ec99f	-0.807764
133	0xbed1b7c0	-0.40960503
134	0x3e9eb10f	0.3099446
135	0x3ec5ea30	0.38655233
136	0xbf0d8010	-0.5527353
137	0xbee95699	-0.4557388
138	0x3da278e0	0.07933211
139	0xbf115de6	-0.567839
140	0x3eab96bf	0.33513448
141	0xbe8b59b4	-0.27216876
142	0x3e4f927d	0.20270725
143	0x3d166df5	0.036725957
144	0xbf737ac3	-0.95109195
145	0xbd276485	-0.040867347
146	0xbe9c67be	-0.305479
147	0xbf36f41f	-0.7146625
148	0x3e27f705	0.16402824
149	0xbd4ff0af	-0.050766643
150	0x3e80edc4	0.251814
151	0x3dc5a67d	0.09650896
152	0x3e44c2df	0.19214962
153	0xbefd44b9	-0.49466494
154	0xbeaa5a99	-0.33272246
155	0x3e280bfa	0.16410819
156	0xbde78409	-0.113044806
157	0x3e7dadf8	0.24773395
158	0xbf06a634	-0.52597356
159	0x3dde1781	0.10844327
160	0xbcfee71f	-0.031116067
161	0x3e131819	0.14364661
162	0xbec3312c	-0.38123453
163	0x3d9b7674	0.075909525
164	0xbee2e250	-0.44313288
165	0x3e9b1e73	0.30296668
166	0x3dc906f8	0.09815782
167	0x3e3681be	0.1782293
168	0x3e57f4ce	0.2108948
169	0x3d1fe19c	0.039033517
170	0xbe066862	-0.13125756
171	0xbe2d3390	-0.16914201
172	0xbf31587b	-0.69275635
173	0x3d036bd1	0.032085244
174	0xbc96e100	-0.018417835
175	0xbe435ad2	-0.19077614
176	0x3ef832ff	0.48476407
177	0xbef66f2c	-0.48131692
178	0xbf784634	-0.9698212
179	0xbf2fc91e	-0.68666255
180	0x3e3ddb6e	0.18540737
181	0xbec1679b	-0.37774357
182	0x3dfc3cb3	0.12316265
183	0xbed1fb13	-0.41011867
184	0xbf1d8127	-0.61525196
185	0xbefe270a	-0.4963916
186	0x3e6550d1	0.2239411
187	0xbf44dde1	-0.7690106
188	0xbf4f4c00	-0.8097534
189	0xbe12be3a	-0.14330378
190	0x3ef07b4d	0.4696907
191	0x3e000abb	0.12504093
192	0xbf0e30c6	-0.5554317
193	0x3b74a865	0.0037331816
194	0x3edc88e4	0.4307319
195	0xbf737363	-0.9509794
196	0xbd824c76	-0.0636224
197	0xbe1a82d9	-0.15088977
198	0xbe3507d4	-0.17678767
199	0xbf80aa05	-1.0051886
200	0xbea65f58	-0.32494617
201	0x3e66e758	0.22549188
202	0xbedca69c	-0.43095863
203	0x3e2f3986	0.17111787
204	0x3e104697	0.14089428
205	0xbf15f1ad	-0.5857189
206	0xbf4ccc38	-0.79999113
207	0xbebec3ff	-0.37258908
208	0xbe15946c	-0.146074
209	0xbf0c4f87	-0.5480885
210	0xbefbebc1	-0.49203303
211	0x3edb92c2	0.42885405
212	0x3eca10b6	0.39465874
213	0x3eadd821	0.33953956
214	0xbf09ecf8	-0.5387721
215	0xbc12de48	-0.008964129
216	0x3e0e6032	0.13903883
217	0xbf238c82	-0.6388627
218	0xbf72b152	-0.9480182
219	0xbeab4295	-0.33449236
220	0x3e0edbd8	0.13951051
221	0x3e9d84d4	0.30765402
222	0x3dfc150a	0.123087004
223	0x3e10e982	0.14151576
224	0x3e37dd48	0.17955506
225	0xbe66569b	-0.22493975
226	0xbf683e57	-0.90720123
227	0xbec9a81b	-0.39386067
228	0x3ea854dc	0.32877243
229	0x3d75e121	0.060029153
230	0xbedccee9	-0.4312661
231	0x3e147841	0.14498998
232	0xbe06817f	-0.13135336
233	0xbda4ef73	-0.08053484
234	0xbef2408c	-0.4731487
235	0xbe9b201d	-0.30297938
236	0xbdaa671f	-0.0832045
237	0x3e8a794f	0.27045676
238	0xbe8750bd	-0.26428786
239	0xbf736e08	-0.9508977
240	0xbf40c597	-0.753015
241	0x3e89e104	0.26929486
242	0xbbc69fa8	-0.006061513
243	0xbe78de8c	-0.24303645
244	0xbe831ca4	-0.2560779
245	0xbf279255	-0.6545766
246	0x3d905b0c	0.07048616
247	0xbeb5ebbc	-0.35531414
248	0xbf136daf	-0.5758924
249	0x3ec3b2ff	0.382225
250	0x3e3fc010	0.1872561
251	0x3e7123fe	0.23548886
252	0x3e2eef03	0.17083363
253	0x3e1aee1d	0.15129896
254	0x3e58899d	0.21146245
255	0x3db2a441	0.08722735
