model-2024-06-19.tflite (tflite, 88836 bytes, 6 tensors)

sequential_1/dense_4/MatMul;sequential_1/dense_4/Relu;sequential_1/dense_4/BiasAdd f4 [32]
000000 3f f2 3d 3f 25 92 8a c0 5a 2a 5e 40 92 a1 91 40
       0.74197763 -4.33034 3.471335 4.550973
000010 82 a2 a3 c0 c4 5e 6f c0 42 69 2f 40 e4 f7 1a 41
       -5.1135874 -3.740159 2.7407994 9.68552
000020 c9 ae 71 3f db 74 cd 40 12 a4 8e bf 01 c0 b7 40
       0.94407326 6.4205146 -1.114382 5.742188
000030 35 e5 b9 40 f4 40 07 40 f0 2d 85 bf 0c 2f a5 40
       5.8092294 2.1133394 -1.0404644 5.161993
000040 aa 83 d2 40 cf 2e ad 40 46 fe d1 40 05 07 f3 40
       6.5785723 5.411964 6.562289 7.594607
000050 fc 64 89 40 50 97 bc 40 6b 58 10 41 8e 89 3e 40
       4.293577 5.893471 9.021586 2.9771457
000060 c8 06 47 c0 66 ee 20 41 fc db 52 40 0b 25 81 41
       -3.109789 10.058203 3.2946768 16.143087
000070 3a 41 79 3f 74 c7 45 40 a7 df e4 3f e9 cf 39 41
       0.9736515 3.0902987 1.7880753 11.613259

sequential_1/batch_normalization_1/batchnorm/mul_1;sequential_1/batch_normalization_1/batchnorm/add_1;sequential_1/dense_4/MatMul;sequential_1/dense_4/Relu;sequential_1/dense_4/BiasAdd f4 [32, 128]
000000 65 b4 e8 be 9b 34 1f 3e e8 b2 0e 3e 78 3a 76 3d
       -0.4545013 0.15547411 0.13935435 0.060114354
000010 84 38 23 bf 3b 1b 60 3e 38 57 ab 3d a5 b4 05 bf
       -0.6375811 0.21885388 0.08366245 -0.52228767
000020 c7 cd d3 be d1 41 a5 bf 84 93 ee 3d 33 15 12 3e
       -0.41367933 -1.291071 0.1164923 0.142659
000030 26 ae a7 3b 81 53 52 bd a4 4c be 3e 58 48 a2 bd
       0.0051171957 -0.051349167 0.37167847 -0.07923955
000040 de 77 f2 bd 99 e3 99 3d fe 2f ce bd 67 2e c1 3b
       -0.11839269 0.07514114 -0.100677475 0.005895424
000050 2f e8 9b 3e f7 38 ab bd 48 cc 44 bb 17 a0 c0 3e
       0.3045058 -0.083604746 -0.0030028988 0.3762214
000060 c8 e0 ef be 1d 10 86 3e 5c 20 8d 3d 78 f0 4c 3c
       -0.46851182 0.26184168 0.06890938 0.012508504
000070 f0 c8 21 be c4 3d e3 bd 3f ed 27 3f 0c ef 2d bd
       -0.15799308 -0.11095765 0.65596384 -0.0424643
000080 bf 4c ab 3d 96 a8 95 be df 02 06 bd ec 56 8d 3e
       0.083642475 -0.29230183 -0.03271758 0.2760538
000090 07 ad 71 3d f2 65 b8 be 15 f2 97 bf b4 4c da be
       0.059002902 -0.36015278 -1.1870753 -0.42636645
0000a0 7f c4 a4 3d ed 25 90 3d 96 0c 06 3f cc 33 60 bf
       0.08045291 0.07038484 0.52362955 -0.87579036
0000b0 46 78 5a 3f 83 2c 6a 3c 4c c4 0f bf cb 0a a2 3e
       0.8533977 0.014292839 -0.561589 0.3164886
0000c0 cc 2c 5c bc ff 4e ff 3d 12 78 3b 3e 1f 28 4a 3e
       -0.013438415 0.12466239 0.18307522 0.19741867
0000d0 64 0c b4 3d 1f ad bc 3e 6b 3f 72 be 2c 58 3d 3f
       0.08791426 0.3685083 -0.23657005 0.73962665
0000e0 c9 35 80 be 84 c6 5b 3e c0 81 e3 3e 47 65 d1 3e
       -0.25041035 0.21462446 0.4443493 0.4089758
0000f0 5d bd 3b 3e 56 61 15 be e8 e3 6d bc e7 24 56 be
       0.18333955 -0.14587912 -0.014519669 -0.20912515
000100 43 18 0a 3d 55 c1 a5 3e 9d 7a a6 3e 9f 36 77 bd
       0.033714544 0.32374063 0.32515422 -0.060354825
000110 93 3e 61 3e d0 d3 20 3d 1b e6 76 be e0 2c 00 be
       0.21996526 0.0392645 -0.24111216 -0.12517118
000120 09 be 19 be 25 eb d5 3e 78 46 0c bf e9 60 e2 3d
       -0.15013899 0.41780964 -0.54795027 0.110536404
000130 24 cb ca 3e b6 a1 df 3e d4 e1 8e 3e a5 d3 d1 3e
       0.3960811 0.43678063 0.27906668 0.40981784
000140 58 be f6 bc 2b b9 09 bf 74 cc 42 3e 32 e5 26 3d
       -0.03012006 -0.5379817 0.19023305 0.04074592
000150 e1 dc 18 be 68 5e 7c be ab 16 0c 3e bb da fd be
       -0.14928009 -0.24645388 0.13680522 -0.4958094
000160 2c 77 c9 bf 98 c0 d0 bd 3a 79 4f be 77 5d 0f bf
       -1.5739493 -0.10192984 -0.20261088 -0.5600199
000170 a7 00 e2 3d 26 6a ae bd c4 b2 8f bc 7c fa f7 3d
       0.11035281 -0.0851634 -0.017541297 0.12108323
000180 3e 36 a3 3c f2 e1 ac be 29 df 03 3e a4 8f 17 bf
       0.019923326 -0.33766133 0.12878098 -0.59203553
000190 62 8d 37 bd c3 76 16 3f 17 92 01 3f 71 a8 03 3f
       -0.044812568 0.58774966 0.5061354 0.51428896
0001a0 6f 5f 81 3e c9 cd f3 3e af 41 e0 3d 69 1d 92 be
       0.25268123 0.4761794 0.10950028 -0.28538063
0001b0 72 19 3a be f7 8c 86 3e ca c6 de be f2 4d bd 3e
       -0.18173769 0.26279423 -0.4351104 0.3697353
0001c0 3a c1 17 3f 82 89 50 be 52 16 c3 3e cd 10 25 3e
       0.59279215 -0.20364955 0.38102967 0.1611969
0001d0 de ee 29 be 05 eb 65 be 43 a4 06 3f 3b c3 50 bd
       -0.16595027 -0.22452934 0.52594393 -0.050967436
0001e0 60 c2 3d 3e 77 0f 8a be fa 82 65 bb a4 af 07 be
       0.1853118 -0.26964924 -0.0035020695 -0.13250595
0001f0 70 f0 48 be 47 22 ac 3e 5a 6c 6c be fb 60 23 3f
       -0.1962297 0.33619902 -0.23088208 0.63819855
000200 81 b0 3b 3f 22 89 e2 3e 87 ba 2c be 2c eb 7d 3e
       0.733162 0.4424525 -0.1686803 0.24796742
000210 fc 18 11 3f 69 45 53 bf 81 3c eb 3c 76 85 e2 3d
       0.5667875 -0.82527786 0.028715374 0.11060612
000220 00 8d cf bd f3 0e 54 3f 1c d5 93 bd bc 06 5b 3d
       -0.101343155 0.8283531 -0.07218382 0.05347322
000230 68 c6 7a bd fa 6a cf 3d 9f 57 2b 3f 81 3a 3a bc
       -0.06122437 0.10127826 0.66930574 -0.0113664875
000240 53 6b 79 bd 5c 67 c0 3d 0f 48 e5 3d a8 f6 38 be
       -0.060893368 0.09394714 0.11195385 -0.18062842
000250 c6 7b ff be e5 cc 6d 3d ed d5 f6 bc ba 08 08 3c
       -0.4989912 0.05805673 -0.030131305 0.008302862
000260 db ce d7 3d 8b 11 ef 3b a5 91 3e be 09 d3 4c be
       0.105375014 0.0072957925 -0.18610246 -0.20002379
000270 c6 bd 31 be ac dd 99 bd 21 03 34 3f 6b d2 93 3c
       -0.17357549 -0.07512984 0.70317274 0.018044671
000280 e9 e5 83 be 35 42 c8 be fa 19 db bd bd cb cb be
       -0.25761345 -0.39113012 -0.10698314 -0.39803877
000290 3a 11 d6 3e 14 c3 ed bd c5 c7 c3 bd c5 50 9f 3e
       0.41810018 -0.11609474 -0.095595874 0.3111631
0002a0 91 e5 e8 3d 19 cc ed be 19 01 de 3e c0 1a 0c 3f
       0.11371911 -0.46444777 0.43360212 0.5472832
0002b0 56 1a 60 bf 75 8a 2b be fd 5f 1d 3f e7 a3 eb 3e
       -0.87540185 -0.16752036 0.6147459 0.46023485
0002c0 9b 64 fa 3d 6a 3b 0c bd 6e ee 06 3e 88 54 b3 3b
       0.1222622 -0.03423635 0.13176891 0.0054727234
0002d0 8b 73 7c be 84 25 17 bd b2 44 1e 3e 4a 91 3d be
       -0.24653451 -0.036901012 0.15455893 -0.18512455
0002e0 10 42 a7 3b 4b 22 20 bd 4f 74 18 bf 9d a3 f6 3d
       0.005104311 -0.039095204 -0.5955247 0.120429255
0002f0 88 e9 88 3f ca 75 3d 3f 7e 22 e8 bc 28 cf fa 3d
       1.0696268 0.74007857 -0.02833676 0.12246543
000300 ad d1 4f 3e d4 aa 80 be bd b9 a8 bc 82 54 8b be
       0.20294829 -0.25130332 -0.02059638 -0.27212912
000310 72 bc 82 3e 21 78 f7 3c 85 bd c9 3e 87 9a 35 3f
       0.25534397 0.03020865 0.39402404 0.70938915
000320 ca a1 5b 3d 5a d2 ee 3e d1 6b 59 3f 94 05 bb 3e
       0.05362109 0.4664486 0.8493014 0.36527693
000330 52 6c 2f 3c 9f 5c ea bd b1 89 aa be f7 6a 3f 3f
       0.010706978 -0.11443447 -0.33308175 0.7477259
000340 6c a3 46 be 2f 6e 82 3e 86 22 cd be 30 55 32 3f
       -0.19398278 0.25474688 -0.40065402 0.69661236
000350 61 65 17 3e df 3b 37 3f 60 c8 93 bd cd 8a a6 bc
       0.14784767 0.7157573 -0.07215953 -0.020329857
000360 96 ad a2 3f 68 58 15 bc 97 c1 ac 3d 32 1f 11 3f
       1.2709224 -0.009115316 0.08435362 0.56688225
000370 ff 75 bc be df 41 8b 3e f3 a2 a5 bc 19 c1 23 bc
       -0.36808774 0.27198693 -0.020219302 -0.009994769
000380 2d 85 eb 3e 13 bf 8d ba d2 85 1b be 42 b8 28 be
       0.46000043 -0.0010814391 -0.15187767 -0.16476539
000390 a7 8b 28 bc c1 be 1a 3f 21 bd 1d 3e 7f 18 54 3e
       -0.010287202 0.6044732 0.15404178 0.2071247
0003a0 48 d6 71 3e 7a 37 05 bf fb 29 06 be e1 52 26 3f
       0.23616898 -0.52037776 -0.13101952 0.64970213
0003b0 be 75 8d 3e 19 bd 83 be 01 86 ad bc 41 69 6d 3f
       0.27628893 -0.25730208 -0.021182062 0.9273873
0003c0 ee 81 f2 3e 43 34 da bd 31 25 ec be 75 94 1f 3e
       0.47364753 -0.106544994 -0.46122125 0.15583976
0003d0 a9 1e 8f be c9 d0 05 3e 41 b0 56 3f 64 53 d2 bd
       -0.2795308 0.13067926 0.8386269 -0.10269812
0003e0 57 05 e7 bc 1b 3a bb be cd ed 3e 3e b1 44 47 3e
       -0.028200788 -0.36567768 0.18645401 0.19459797
0003f0 ef e7 80 bd 4b ae 8b 3e f6 ca f8 bd ba a8 0b bf
       -0.06294238 0.27281412 -0.12148087 -0.5455433

sequential_1/dense_5/BiasAdd/ReadVariableOp f4 [37]
000000 f9 28 5f bd 88 df 91 3d be 8a 49 bd 25 7b 8c bd
       -0.054482434 0.07122713 -0.04920458 -0.068594255
000010 aa 0b e5 3d a0 d4 db bd 9d ac 23 3e a3 82 87 bc
       0.11183865 -0.107339144 0.15983815 -0.016541785
000020 6d 31 b8 bd de 55 4c 3e 2b 02 c2 3c 5b d5 55 3c
       -0.08993802 0.1995463 0.023682674 0.013051356
000030 9e c3 60 3d 03 2c 06 be 05 90 49 bd 72 4c 35 be
       0.054874055 -0.13102727 -0.049209613 -0.17704943
000040 66 f5 88 bc d4 ca de bd 27 bc 69 bb 4a 4e 8e 3d
       -0.016718578 -0.1087853 -0.0035665126 0.06948526
000050 8e b7 3c be ca 37 2e bd 93 dc 4f 3d af 3e 40 3d
       -0.18429396 -0.042533673 0.050747465 0.04693478
000060 ac e3 ca bc 90 73 85 bd 47 04 d2 3d 0b f9 49 3e
       -0.024766766 -0.065161824 0.10254722 0.19723909
000070 84 8a 8b bd 9b f5 6f be 77 c4 43 3d 3c 79 63 3c
       -0.06813529 -0.23433535 0.047794785 0.013883885
000080 2b 3f 08 bd 89 ed 71 3d eb 3e 10 3d 7d 1f dd bc
       -0.033263367 0.05906442 0.035216253 -0.026992554
000090 6e 7b 0f bd
       -0.03502982

sequential_1/dense_3/BiasAdd/ReadVariableOp f4 [128]
000000 84 6a f2 3d 28 c0 b8 bd 7c 92 b9 be cf 3a 5d 3d
       0.118367225 -0.09021026 -0.3624457 0.054011162
000010 dc 20 9a be 06 9d 77 3e 32 fe 2e be 9d cd f6 3c
       -0.30103195 0.24180993 -0.17089155 0.03012734
000020 f5 0a e5 be b6 67 fd be 45 75 99 be 20 a5 62 be
       -0.44734922 -0.49493188 -0.29972282 -0.22133303
000030 1b c3 06 bf 99 a0 5f bd b0 8c 96 3c 7a 66 ea be
       -0.5264146 -0.054596517 0.018377632 -0.45781308
000040 b7 3a e8 be b5 c1 52 be 59 1e f0 be 51 42 51 be
       -0.45357296 -0.20581706 -0.46898153 -0.20435454
000050 ca ba d4 be ff 9a a3 be 13 78 fd bd 75 0c 58 be
       -0.4154876 -0.3195419 -0.12376418 -0.21098502
000060 19 66 db bd dd 3c 09 bf 35 b5 c4 3d 42 01 47 be
       -0.10712833 -0.53608495 0.09604875 -0.19434074
000070 fb 6c 26 3e 3c 18 b5 be 33 55 7f bd 36 06 5b bf
       0.1625251 -0.35370052 -0.06233711 -0.8555635
000080 d0 ca fc 3e 3f 1b bc 3b a9 b9 10 bf 6b 75 3a bf
       0.49373484 0.0057405527 -0.56533295 -0.72835416
000090 21 1a 1d bd 7a 34 dc bd a6 37 2c bf a1 4b c7 bd
       -0.038354997 -0.107521966 -0.6727241 -0.09731222
0000a0 b6 4e b7 be 92 21 ba be 62 bb 79 be ad f3 c6 be
       -0.3580224 -0.36353737 -0.24387887 -0.38857785
0000b0 e6 4c f3 be 28 88 91 be 76 45 3b bf ed 34 0b bf
       -0.47519606 -0.2842419 -0.73152864 -0.54377633
0000c0 d1 c3 aa be 94 a8 08 bf ae 5f a3 be f9 f5 21 bf
       -0.3335252 -0.5338223 -0.31908935 -0.6326595
0000d0 4a 7e a3 bd ed 86 f0 bd 5f bf 7f be 22 ba 7e 3d
       -0.07983072 -0.11744485 -0.24975346 0.06218923
0000e0 41 ff 9b 3e fc f5 27 3f 8e 5e cb 3b 33 75 5a bd
       0.3046818 0.6560972 0.00620634 -0.053334426
0000f0 5c 4b cd be 32 7c 9b be 04 3d 89 be a9 b0 54 3e
       -0.40096557 -0.3036819 -0.26804364 0.20770516
000100 05 9a 41 3e ac c4 8a 3d 36 7d 86 bd e7 70 cc be
       0.1890641 0.067757934 -0.06566851 -0.39929888
000110 f2 2b 3e bf 36 05 ef be 1b 64 fd bd c4 d0 aa be
       -0.74285805 -0.46683663 -0.12372609 -0.333624
000120 73 64 ba be c6 1a 94 be e8 19 95 be 1a 4a 45 bf
       -0.36404762 -0.28926677 -0.29121327 -0.77066195
000130 16 52 6e be 77 35 cc be 86 bc 03 bf 47 37 26 be
       -0.23273501 -0.3988454 -0.5145954 -0.16232024
000140 50 a4 13 be 19 81 e1 3d 6b e4 ef 3e 0a 82 35 bf
       -0.14418149 0.110109515 0.46853957 -0.7090155
000150 67 d5 67 be 6f f9 e7 be dd 87 d3 be dd 87 4a be
       -0.2264 -0.4530749 -0.41314593 -0.1977839
000160 5d 34 06 bf e4 cd 7e be 79 f8 39 bf b3 d9 10 be
       -0.5242365 -0.24883229 -0.72644764 -0.14145546
000170 a9 e4 4a be fc ba d5 3d 66 10 93 be 4e a2 14 be
       -0.1981379 0.10436055 -0.2872345 -0.1451504
000180 bd 82 b2 be 7c 84 51 bf 50 2c f9 bd 02 ca 2a 3e
       -0.3486537 -0.8184278 -0.12166655 0.16678622
000190 c2 84 90 be 17 d6 a1 3d 0d 2a 42 bf bd a0 14 bf
       -0.28226286 0.079021625 -0.75845414 -0.5805777
0001a0 0c e4 97 3e 7f f0 1d be 24 97 df be b5 f3 21 bd
       0.29666173 -0.15423773 -0.4367 -0.039539058
0001b0 b5 ed 47 be 98 c5 cc 3e cf fe 83 3e 2e 36 16 bf
       -0.19524272 0.39994502 0.2578034 -0.5867642
0001c0 08 61 4f bf 1e fb 00 be 10 60 be 3e 26 af e1 be
       -0.8100743 -0.12595794 0.37182665 -0.4407894
0001d0 9b 74 0f 3e 59 5c 0d 3e 37 4e dd bd ab e3 40 bd
       0.14009325 0.13804759 -0.10805934 -0.04709212
0001e0 a2 db 77 bf ea 41 c2 3d 1b 1c a1 be 27 0d 6c 3e
       -0.9681951 0.09485228 -0.31466755 0.23051892
0001f0 3a 18 a1 be 11 f6 0d bf 68 ab 57 bd 72 f1 15 be
       -0.31463796 -0.5545359 -0.0526537 -0.14642885

sequential_1/dense_3/MatMul f4 [128, 126]
000000 61 12 be be 25 31 25 3e ee 97 cf bc 3c a8 a6 be
       -0.37123397 0.16132028 -0.025341 -0.32550228
000010 ac 22 50 3e 0d bd b2 bc 57 87 8d bd fc d9 2e 3d
       0.20325726 -0.021818662 -0.0691058 0.042688355
000020 69 f2 52 3e 5d 09 b5 3e cc 19 84 bc 46 98 9e 3d
       0.20600285 0.35358706 -0.016125582 0.077438876
000030 5e bf 0b 3f 96 22 15 be 12 fd a6 3e be bc eb bd
       0.5458888 -0.14563975 0.32614952 -0.11510609
000040 8a 18 e1 3d 72 9b c0 bd 6c aa b1 3b 45 e8 04 be
       0.109910086 -0.09404649 0.005421927 -0.12979229
000050 80 b2 09 3e d8 a5 56 3d 2d 5e 7c be 64 1d 8e 3e
       0.13446999 0.052404255 -0.246453 0.27756798
000060 c3 95 17 3d 3f 37 73 be 6b 89 1c 3d b8 47 82 bc
       0.03700806 -0.23751543 0.03821699 -0.015903339
000070 66 94 16 3e d0 a1 10 3d f4 56 1c 3d af d4 7d be
       0.14705047 0.035310566 0.038168862 -0.24788164
000080 dd 97 11 be de c8 35 3e d7 c7 f7 3d d9 93 99 bd
       -0.14218087 0.17752406 0.12098663 -0.07498903
000090 54 9e dd bc 9a d2 41 3d 77 ba 90 bd fe ef 1b be
       -0.027053036 0.047319986 -0.07066815 -0.15228269
0000a0 3b 95 e3 3d 5e 03 bd 3d 7e 73 c2 3d ea 71 8c be
       0.11112448 0.09229158 0.09494685 -0.2743066
0000b0 f3 a5 b9 bd d8 25 9e bc d3 1d bb bd 34 71 1a 3e
       -0.090648554 -0.019305155 -0.09136548 0.15082246
0000c0 89 68 62 bd 8b f0 6f be 37 d0 45 3e b3 2d 80 be
       -0.055275474 -0.23431604 0.19317709 -0.25034866
0000d0 0d 92 9d bd fa d8 b3 3d fe 14 14 be 18 7d 7d be
       -0.076938726 0.08781619 -0.14461133 -0.2475475
0000e0 b7 f2 86 3d d9 22 1c 3e 04 e6 29 be 54 45 23 3e
       0.06589263 0.15247668 -0.1659165 0.15944415
0000f0 24 56 38 3e d0 98 9a bd 33 b6 9c 3c 65 3b ee bd
       0.1800161 -0.07548678 0.019129848 -0.11632422
000100 91 4e 8a 3e 58 d6 21 be 5d 0a 0f 3d 02 a9 32 3e
       0.27013066 -0.15804422 0.034921993 0.17447284
000110 6b 16 a2 bc 6c 70 3a 3b 20 64 eb 3d 32 f3 df bd
       -0.01978608 0.0028448356 0.11493707 -0.10935058
000120 47 49 d1 3e 6d 9d d0 3d 1c 2d d0 3d ac 3d 82 3f
       0.4087622 0.101862766 0.10164854 1.0175071
000130 4c 1d 31 3e bf fc 81 bd c9 ae 8e be a3 d8 98 3e
       0.17296332 -0.063470356 -0.27867725 0.2985278
000140 3e ae 70 be 0b 5d 6f be 85 0c 7f 3c eb 73 5e be
       -0.23503968 -0.23375337 0.01556695 -0.21723907
000150 da c7 39 be 95 92 29 3e c9 6c d7 bd 1b 2b 4f be
       -0.18142644 0.16559823 -0.10518796 -0.20231287
000160 e7 98 4e 3e 6f 20 61 bc 89 b3 d5 bd f6 6c 25 3d
       0.20175515 -0.013740643 -0.10434634 0.040387116
000170 45 39 10 be 0b 64 3f be c4 2b 6a bd 82 45 5a 3d
       -0.14084347 -0.18690507 -0.057170644 0.053288944
000180 28 43 80 be a1 80 28 3e cd 4c a4 bd 5b 63 43 be
       -0.25051236 0.16455318 -0.08022461 -0.1908087
000190 b7 b2 46 bd bf b4 00 3e fe 36 d4 bd 2d c5 5e 3e
       -0.04851028 0.12568949 -0.103620514 0.21754904
0001a0 92 46 42 3d 53 b3 fe bd d4 30 39 bd 45 c1 9d bd
       0.047430582 -0.12436547 -0.04521258 -0.07702879
0001b0 77 2f 36 be fb 84 32 3d 4e 10 d0 bc 64 9a 2e be
       -0.17791544 0.04358385 -0.0253984 -0.17051083
0001c0 3d dd 9b 3d ba 63 70 bc 49 73 11 be cb eb 86 3e
       0.07610557 -0.014672214 -0.14204134 0.2635177
0001d0 a6 a1 59 bd 3b c8 fe bd 94 24 21 be 48 1b e8 bd
       -0.053132676 -0.12440535 -0.1573661 -0.113333285
0001e0 c8 d0 b3 bc 22 ea 39 be 8d ad af bd a4 56 bb 3d
       -0.02195014 -0.18155721 -0.08578024 0.09147385
0001f0 96 1f b6 be e2 2b f2 be 88 5a 11 be f4 45 55 3e
       -0.35570973 -0.47299105 -0.14194691 0.20827466
000200 f7 ae ab 3e d2 7b 67 3e 6c 93 7d 3d 3e 7f 82 3d
       0.33531925 0.22605827 0.06190817 0.06371926
000210 d9 8d ec 3c 1c e3 25 bb 66 6f 9e 3d b1 73 90 3e
       0.028876232 -0.002531237 0.07736091 0.28213266
000220 ee 5b 2d bc 9e f9 8b 3d bd 5a 65 3e 06 b5 86 bd
       -0.010581 0.0683472 0.22397895 -0.06577496
000230 d2 01 f1 3d 8f fa 1c 3e 0f 98 5d 3e 14 47 3f bd
       0.11767925 0.15329956 0.21640037 -0.046698645
000240 1e 00 85 3e f8 07 7a 3e a3 43 be bc 7e 9a 89 3e
       0.25976652 0.24417102 -0.023225611 0.2687568
000250 b6 3b d6 3d a3 23 b8 3c 55 c8 2e 3e 7e 05 da 3e
       0.10460608 0.02247793 0.17068608 0.42582315
000260 36 e5 13 3d 49 57 08 be b6 ba 11 3e f3 03 0a bd
       0.036107264 -0.13314547 0.14231381 -0.033695173
000270 cf c2 52 3e b8 f0 cb 3b 88 e2 fd 3d 45 b8 9c 3d
       0.20582126 0.0062237643 0.12396723 0.07652334
000280 15 8c bd 3d 7a ec a8 3d 83 e9 a3 bd 75 90 af 3d
       0.09255234 0.08248229 -0.08003523 0.08572475
000290 f6 33 03 3e 4e 09 ed bd 25 91 dd 3e 27 6d e5 3d
       0.1281279 -0.1157404 0.432748 0.1120246
0002a0 26 6b 1d be 32 70 99 3d 1d f0 e5 3c 22 cd 9c 3d
       -0.15372905 0.07492103 0.028068596 0.076563135
0002b0 dd da 64 bd ef 1d a2 bd a1 36 3f be 3f dd 37 3e
       -0.055872787 -0.07915866 -0.18673183 0.17955492
0002c0 8a 8c 47 3c f0 80 2b be e9 0c 92 3e 93 ec e3 3d
       0.012179503 -0.16748405 0.28525475 0.11129107
0002d0 b2 b9 09 be 10 26 f6 3b 68 ac 1d 3e 53 4b 49 be
       -0.13449743 0.0075118616 0.15397799 -0.1965764
0002e0 78 87 a6 bd 84 7d 15 3e 84 69 6f be 1b 9a 8b 3c
       -0.08131307 0.14598662 -0.23380095 0.017041257
0002f0 f8 4e ba 3d 97 88 63 3c 4c b9 f4 3e 41 e3 e4 3b
       0.09097093 0.013887546 0.4779762 0.0069850986
000300 71 e7 f3 3c c2 d6 4e 3e f3 43 20 be d2 04 a8 3d
       0.029773446 0.20199111 -0.1565092 0.082040444
000310 41 5a f8 bb 9a c8 84 3d 5e c8 e2 3e 7c 6c 6b be
       -0.0075791185 0.06483574 0.44293493 -0.22990602
000320 fc 83 16 bd be 47 d9 3e 1a f0 4a be 57 8d b2 bd
       -0.036746964 0.42437547 -0.19818154 -0.08718365
000330 7c ec e8 bd 43 6a b8 be 84 7d a5 3e 31 be 31 3e
       -0.11373231 -0.3601857 0.32322323 0.17357709
000340 7c 13 83 be 5b bb 7a 3d 78 03 69 3e 12 f0 60 be
       -0.25600803 0.061213832 0.2275523 -0.2196658
000350 c4 f4 ae bd e2 d5 b3 3e 66 ab 70 be 6a 77 ed bd
       -0.08542779 0.35124117 -0.23502883 -0.11595042
000360 80 0f 5b be fd cd 24 be 78 9a 58 3e a9 12 20 be
       -0.21392632 -0.16094203 0.21152675 -0.15632118
000370 c8 04 11 bf 7c ae a1 bc 81 3c 30 be 4a 9c b4 be
       -0.5664792 -0.019736521 -0.1721058 -0.3527549
000380 1f 5d 28 bd aa b1 03 be 7b 2f 0a 3d 25 32 8e 3e
       -0.041104432 -0.12860742 0.033736687 0.27772632
000390 70 2f b1 be 7e ff dc bd 2e 7d 2c 3e 2a a1 2b be
       -0.34606504 -0.10790919 0.16844627 -0.16760698
0003a0 3d 2a b3 be b0 32 48 3d ed d9 ac bd 0d 34 35 be
       -0.34993163 0.048876464 -0.084400035 -0.17695637
0003b0 cd 65 9a 3d 92 e2 68 bb 18 e3 ce 3d 57 98 67 3d
       0.07538948 -0.0035535437 0.101019084 0.056541767
0003c0 8f fe a2 bd 34 9a c4 bd cb ba 84 bc b5 49 89 be
       -0.079587094 -0.095997244 -0.016202351 -0.26814047
0003d0 fa f4 63 bd 88 a4 bd bd fe 00 c5 bd 9e 64 e8 bc
       -0.05565355 -0.092598975 -0.0961933 -0.02836829
0003e0 9b 6b 09 3d 1b 1c 67 be 68 57 00 be ea da 30 bc
       0.033549886 -0.22569315 -0.12533343 -0.010794381
0003f0 26 37 16 be 8f 8f 38 be 87 2e 27 bf 73 49 0d be
       -0.14669475 -0.18023513 -0.6530537 -0.1379755

sequential_1/dense_5/MatMul f4 [37, 32]
000000 48 1f c0 3c 97 3b 2e 3e 9b c3 e6 be 5b e9 34 bf
       0.023452416 0.17014919 -0.4507111 -0.7066857
000010 34 67 14 3e ec 12 47 bf 18 6d 01 bf 31 0e b0 be
       0.14492494 -0.7776325 -0.5055709 -0.34385827
000020 a3 4c d7 3e f2 49 26 be 75 9d a1 be 68 95 85 3e
       0.42050657 -0.16239145 -0.31565443 0.2609055
000030 8f 5b ce 3d 5d 8c 3c bf 91 3f e9 be 2f 38 5a 3e
       0.10076057 -0.7365168 -0.4555631 0.21310495
000040 4c 72 b2 3e 81 4f fa be e5 e4 a2 3e 07 50 23 bf
       0.34852827 -0.48888782 0.31815258 -0.6379399
000050 ff e5 03 bf 68 43 e3 3d 75 68 a1 bd 8e 01 a5 3e
       -0.5152282 0.11096841 -0.07881252 0.3222775
000060 80 38 41 3d 39 a0 c5 bd 69 43 80 3d a1 eb 49 bf
       0.047173023 -0.09649701 0.062628575 -0.78875166
000070 8b 36 d4 be 57 49 37 bf cb 93 81 3e 40 78 e2 3e
       -0.41447863 -0.7159628 0.2530807 0.44232368
000080 1e 51 d8 3d 75 0e 30 be b8 ac 47 bd 77 05 38 bf
       0.10562347 -0.17193015 -0.0487487 -0.7188334
000090 a4 4c 1a 3e d1 f1 d5 3c 19 da f3 be e7 74 71 3e
       0.15068299 0.026116284 -0.47627333 0.23579751
0000a0 f5 f0 e0 3e eb 5e 25 bc b1 bf 97 3d 70 07 85 bd
       0.43933836 -0.010093431 0.07409609 -0.06495559
0000b0 6c fe 1d bf 37 78 10 be 3d aa 0c 3f 5e c8 ff be
       -0.6171634 -0.14108358 0.54947263 -0.49957556
0000c0 66 32 92 bd e5 06 10 bf e3 22 39 3e a7 1a 19 bf
       -0.07138519 -0.5626052 0.18079714 -0.59806293
0000d0 7f 4b 38 3e 4d 23 60 bf 34 21 09 bf 1c 31 71 be
       0.1799755 -0.87553865 -0.5356629 -0.2355389
0000e0 e9 5c cd be a4 56 65 be e6 cb 8b bd 06 09 52 bf
       -0.40109947 -0.22396332 -0.06826 -0.8204502
0000f0 5b 77 0e 3f e1 85 30 be f6 97 e1 bd 25 1b 57 bd
       0.5565087 -0.17238571 -0.110153124 -0.05251612
000100 10 b9 67 3e 8e 01 81 3d 35 eb fb 3d 21 67 00 3f
       0.2262919 0.06299125 0.123007216 0.5015736
000110 aa 34 1e 3f 43 b7 aa be 02 6e cb be c8 74 e9 3e
       0.6179911 -0.33342943 -0.39732367 0.4559691
000120 f9 f5 6c 3e 7d 41 0c bf b9 7b 21 be 7c 8a c2 be
       0.23140706 -0.5478743 -0.15769853 -0.3799628
000130 dd 6c 09 bf 25 46 9c bd 63 4c 1c be 4c f1 00 bf
       -0.5368174 -0.076305665 -0.15263514 -0.5036819
000140 50 74 16 be b2 0c 3e be 92 6b 27 3e 20 4f 5a be
       -0.14692807 -0.1855953 0.16349629 -0.21319246
000150 95 08 b6 be a6 96 55 be 27 84 46 3e 99 be 8a be
       -0.35553423 -0.20858249 0.1938635 -0.2709854
000160 53 95 5b bd 65 f6 bb 3e e1 bf 3d 3e ad 3f 83 3d
       -0.053609204 0.36711422 0.18530227 0.064086296
000170 e0 52 1d be 58 15 dc be 2d 6b 47 bd 04 90 b7 be
       -0.15363646 -0.42985034 -0.048686195 -0.35852063
000180 7b d8 20 3f 3b f4 01 be 80 ba dc 3e 5b 7e b6 be
       0.62830323 -0.12690823 0.43111038 -0.35643277
000190 bc e8 57 bf ba 33 a6 3d b6 b4 9d 3c 0b 1b 3a 3d
       -0.843395 0.08115335 0.019251209 0.045435946
0001a0 c5 13 c9 3e bd a0 06 bf b5 93 43 3e de f5 77 bd
       0.39272895 -0.5258902 0.19099315 -0.06053721
0001b0 dc 6e 3f bf 7a cf 1d 3e 26 2f f8 3c 63 5b 5d bf
       -0.74778533 0.15411177 0.03029592 -0.8646757
0001c0 07 e1 de be 67 42 85 bf 97 e4 22 3f 0b 51 20 3e
       -0.43531057 -1.0410889 0.6363005 0.15655915
0001d0 5a 1c b9 bd 00 23 9a bf fe 0f 6c be ff 51 17 bf
       -0.09038611 -1.2041931 -0.23052976 -0.5910949
0001e0 ba 02 59 bf 22 95 80 be 25 e1 51 bf 77 80 03 bf
       -0.84769785 -0.2511378 -0.8198417 -0.51367897
0001f0 60 15 9b be 0d 25 da 3e 03 ed 26 bf 09 2e 15 bf
       -0.30289745 0.42606393 -0.652054 -0.5827337
000200 c3 94 17 bf 9a 17 52 bf e0 f8 a3 be 33 dd f8 3e
       -0.5921137 -0.82067263 -0.32025814 0.48606262
000210 81 61 49 be 90 6e 04 bc 12 53 f3 be f9 10 80 be
       -0.19666101 -0.008083001 -0.47524315 -0.2501295
000220 63 a7 cb 3d ac 78 de 3e eb e5 03 bf 41 67 90 3e
       0.09944036 0.4345144 -0.515227 0.28203776
000230 24 bf be bd 9d f3 de be 56 4a 13 be d4 f6 4a bf
       -0.09313801 -0.43545237 -0.14383826 -0.7928288
000240 3b 03 51 bf f5 03 a9 be 00 4c 04 be 9f b4 85 3e
       -0.81645554 -0.3301083 -0.12919617 0.26114365
000250 ac 5d 49 be 11 d8 c7 3c 41 85 b7 bd 0e 81 3c 3f
       -0.19664639 0.02439502 -0.08960963 0.7363442
000260 d0 78 c0 3e 1c ea b3 be 1e fe 59 3d 33 12 b1 bd
       0.37592173 -0.3513955 0.05322086 -0.08646049
000270 c1 fe 71 be 32 65 bb 3d 3d 5e b8 3e 8c 5a 14 be
       -0.23632337 0.09150161 0.36009398 -0.14487666
000280 7f 20 c3 be a1 26 84 be d0 c7 ac be 59 f4 a8 be
       -0.3811073 -0.25810722 -0.33746195 -0.32998922
000290 cc fa 11 bd 24 1c 85 bd 64 c6 e1 bd 52 3d d4 be
       -0.03563957 -0.06499508 -0.11024168 -0.41453034
0002a0 0e ae 02 bf d5 b0 29 3e 7b e5 fc be c6 06 b4 3e
       -0.51046836 0.16571362 -0.4939383 0.35161418
0002b0 91 d2 e2 3e 84 56 ea be 3a 2b 10 be 77 64 41 3e
       0.44301274 -0.4576913 -0.1407899 0.1888598
0002c0 91 36 79 bf 70 79 82 3e 9b af 0f 3e 22 0e 60 bf
       -0.97348887 0.25483274 0.14031832 -0.87521565
0002d0 c8 cd 23 bf 13 c7 9a bd 62 a1 09 3d a1 94 42 bf
       -0.6398587 -0.07557502 0.033601172 -0.7600804
0002e0 32 7c 3f 3d c3 4b 13 3e a7 80 eb 3e 56 89 55 bf
       0.0467493 0.1438437 0.4599659 -0.83412683
0002f0 fe 15 21 3e cf dd 6c 3d 35 72 c0 3e ac 4f 41 be
       0.15731046 0.05782872 0.37587133 -0.18878049
000300 9d fb 67 3d a6 31 71 be e5 86 e3 3d b1 d6 1c bf
       0.05663644 -0.23554096 0.111097135 -0.61265093
000310 cb 5d 6a be b5 23 11 bf 4e 86 7a bf 92 c5 11 bf
       -0.22887342 -0.5669511 -0.9786118 -0.56942093
000320 72 f0 ff 3d c9 fb 66 be 54 d5 69 bf 30 d7 fe be
       0.12497033 -0.22556986 -0.9134114 -0.4977355
000330 dc 83 76 be 0e 41 c2 3e 50 29 18 3d 78 ee 90 3e
       -0.24073738 0.37940258 0.037148774 0.28306937
000340 40 ae 5d be 66 70 d5 bc 33 f2 60 3d 51 47 fc be
       -0.21648502 -0.026054572 0.05491848 -0.4927316
000350 64 7a 32 be b2 84 60 3e 3f 23 e0 3e fb e6 d5 3e
       -0.17429501 0.21925619 0.4377689 0.41777787
000360 1d 0e 0a bd 2d 72 82 ba d2 53 23 3d b8 a3 9f 3d
       -0.033704866 -0.000995224 0.03987486 0.07794899
000370 fc 59 21 3c 33 91 06 be 0f bc b4 3d 08 41 5e 3b
       0.009848114 -0.13141327 0.08824932 0.0033913273
000380 14 9f 8c be cd 88 10 bf bf 94 77 bf f6 de 76 bf
       -0.27465117 -0.5645874 -0.96711344 -0.9643396
000390 dd 0b 1d bf e1 7b 06 be 39 26 73 be f7 10 87 3d
       -0.61346227 -0.13133194 -0.2374505 0.06595033
0003a0 84 b9 b2 3d 7a 0b 5f bf 1a 7b 47 bf ae 62 98 3e
       0.087267905 -0.87126887 -0.77922213 0.29762787
0003b0 45 01 67 bf bf b5 03 be 55 cd c5 be 68 04 fa be
       -0.9023631 -0.128623 -0.38633218 -0.48831487
0003c0 f1 df a6 3e 85 fc 68 be 28 97 61 3d 10 05 d6 3e
       0.3259273 -0.22752579 0.055075794 0.41800737
0003d0 9b 96 0a 3f f4 07 1e be 2f 98 a0 be 4e 8c 3f bf
       0.54136056 -0.15432721 -0.31366107 -0.7482346
0003e0 51 31 bd bd a0 ab ce bb 01 42 d9 3e fe b3 d2 3d
       -0.09237922 -0.0063070804 0.4243317 0.10288237
0003f0 c4 35 2d 3e d8 e6 50 be 98 05 fd be 47 ef e8 3e
       0.16915041 -0.2040056 -0.4941833 0.45495054
