model.tflite (tflite, 16944 bytes, 8 tensors)

sequential/normalization/truediv;sequential/normalization/Sqrt f4 [1, 20]
000000 89 e0 60 40 3e 7e 64 40 67 6b 5f 40 d1 ef 5f 40
       3.5137045 3.5702052 3.4909303 3.4990122
000010 bf 4f 5b 40 2c bf 5d 40 5f 21 5b 40 fa 7c 61 40
       3.4267423 3.4647932 3.4239118 3.523253
000020 1d a5 5b 40 2a be 5a 40 9d f1 59 40 4f 19 5d 40
       3.4319527 3.4178567 3.405372 3.4546697
000030 70 f9 5e 40 b1 34 62 40 d9 26 63 40 3c 65 5a 40
       3.4839745 3.534466 3.549246 3.4124289
000040 2f 79 5a 40 36 51 59 40 f4 76 5a 40 0a 53 5c 40
       3.4136465 3.3955817 3.4135103 3.4425683

Const_1 f4 [1, 20]
000000 4c a8 05 3f fa 93 02 3f 81 75 fd 3e 35 b6 fc 3e
       0.52209926 0.51007044 0.4950371 0.49357763
000010 a2 43 03 3f bf 21 02 3f cc d2 03 3f 40 1c 01 3f
       0.51275074 0.5083274 0.51493526 0.5043373
000020 40 4c 03 3f ef 4c f9 3e 27 c9 f7 3e bd 31 f9 3e
       0.51288223 0.48691508 0.48395655 0.4867076
000030 12 68 03 3f c3 66 00 3f d4 0f 00 3f 68 cd f8 3e
       0.51330674 0.501568 0.5002415 0.48594213
000040 01 cf ff 3e 85 a0 f6 3e 11 a8 01 3f 09 75 fd 3e
       0.4996262 0.48169342 0.50647074 0.49503353

sequential/dense_1/BiasAdd/ReadVariableOp f4 [32]
000000 23 24 3e 3b d8 c1 71 3c 4a 85 eb 3a 19 d4 2f 3a
       0.0029013238 0.014755689 0.00179688 0.0006707325
000010 1d d5 28 3c e6 7a 75 3b e5 a5 2c bc 13 7c 73 3b
       0.010304716 0.0037457286 -0.010537599 0.0037152811
000020 53 3a 81 3b 7b f9 1a 3d 35 1a 09 bc b4 e8 ee ba
       0.0039437204 0.03783558 -0.008368065 -0.001822731
000030 41 00 86 bc 36 1c c5 3c 06 d3 2b 3d b7 79 b1 3c
       -0.016357543 0.024061304 0.041949295 0.021664483
000040 00 4c 4a bc f6 c8 a7 bc a9 86 bf 3c e9 c0 9e 39
       -0.012347221 -0.020481568 0.02337964 0.00030279838
000050 91 c3 58 bc 85 4c 96 bc 0f ab e3 3b 93 f0 8e 3c
       -0.01323022 -0.018347034 0.006947882 0.0174487
000060 78 24 bd 3b d0 c5 11 3c e6 e4 5e 3c 7b 68 c5 bc
       0.0057721697 0.00889726 0.013604378 -0.024097672
000070 99 67 4b bb 5d 52 23 bc 2a 50 95 bc 06 5f d3 bb
       -0.003103709 -0.009968367 -0.018226702 -0.0064505367

sequential/dense_2/BiasAdd/ReadVariableOp f4 [3]
000000 0c d5 8b bb f2 7c 85 bc 98 47 b2 3c
       -0.0042673405 -0.01629493 0.021762654

sequential/dense/BiasAdd/ReadVariableOp f4 [64]
000000 b1 ed 30 bc bc b0 cf 3b 17 23 b9 3c 1f da eb bb
       -0.010798858 0.006338207 0.02259974 -0.007197633
000010 7a 53 ca bc c9 b2 61 bc cf 48 5c bb 6b 55 d5 3b
       -0.024698008 -0.013775536 -0.0033612733 0.0065104268
000020 fe 75 b0 bc 30 f2 de 3c 6d 28 cd 3c 0a ee 1e bc
       -0.021540638 0.027215093 0.02504369 -0.009700308
000030 b9 e3 35 bc c0 01 c1 bc 4d 33 ed 3a ec ec b2 bc
       -0.011101657 -0.023560405 0.0018096954 -0.021841489
000040 5f 60 50 bb 64 c8 81 bc 99 ca b8 3b 35 71 68 bc
       -0.0031795723 -0.015842624 0.005639386 -0.014187147
000050 43 29 87 bc d4 f7 f8 bc 17 79 03 bc 9b 49 09 bd
       -0.016499167 -0.030391611 -0.008024476 -0.03351746
000060 9d aa d9 3c c6 06 9c bc 2a e2 c6 bc e8 d9 c4 bc
       0.026570613 -0.019046199 -0.024277765 -0.024029687
000070 e6 df 22 bc d2 9a b2 bc 9e c0 7f bc f9 7c 07 3c
       -0.009941077 -0.02180234 -0.015609888 0.008269542
000080 d5 8d 8d bc 08 78 87 bc 09 2d ca 3c a9 70 22 3c
       -0.017279545 -0.016536728 0.024679678 0.009914556
000090 0a 26 c3 3b 6a 3a 0a 3a ff bc d6 3c f9 52 4e bc
       0.0059554623 0.00052729866 0.026213167 -0.012593024
0000a0 88 ba 4e bc 1b 05 a8 bc 86 a6 91 3c 66 8f 94 3c
       -0.012617715 -0.020510247 0.0177796 0.018134784
0000b0 88 5c f7 bb 2e 98 ef bb b0 b5 08 3c 16 07 5b 3c
       -0.0075488724 -0.0073118424 0.008344099 0.013368389
0000c0 e4 dc e8 3b 99 b8 f8 ba cd 69 5f 3c 99 67 3b bb
       0.0071064103 -0.0018975913 0.013636065 -0.0028595685
0000d0 94 d8 ae 3c d3 f9 84 bc 04 c4 07 bd 21 8e 18 3c
       0.021343507 -0.016232407 -0.03314592 0.00931123
0000e0 e3 7c bb bc d6 c8 71 bc 52 cb 7f 3c 61 e7 f0 bb
       -0.022886699 -0.014757356 0.01561244 -0.0073518013
0000f0 00 5a 80 3c 48 2e af bb cb d8 02 3d 1d 49 48 bc
       0.015667915 -0.0053460933 0.03194503 -0.012224463

sequential/dense/MatMul f4 [64, 20]
000000 f3 00 e4 bb 52 1e 43 3d ad 61 83 3d 34 33 10 be
       -0.006958121 0.047636338 0.064151146 -0.14082032
000010 45 7e d1 3d 49 c3 19 3e 11 5a 71 be 48 ae 98 bd
       0.10229162 0.15015902 -0.23569514 -0.074551165
000020 b5 6b 40 bd b5 85 15 3e b7 52 12 3e e9 14 3a be
       -0.046977717 0.14601786 0.14289366 -0.18172039
000030 e5 3a b3 bb 5d 3c 19 bd ac 50 8b be 78 25 c6 bd
       -0.0054696673 -0.037411083 -0.27209985 -0.09675115
000040 f1 c2 c7 bd 35 5d 3e be b7 7b e7 bc df f3 c1 bc
       -0.09753979 -0.18590243 -0.028257234 -0.023675857
000050 aa 58 eb bc 99 6c 27 be 53 04 cd bc 8f f6 36 be
       -0.028728802 -0.1635002 -0.025026476 -0.17867492
000060 5d 96 74 3d a3 e5 c9 3d ba 7a cc bc 9d c4 3b 3e
       0.05971371 0.09858253 -0.024960864 0.18336721
000070 5a 63 a0 bc ec 43 53 be d8 df a0 3d 93 98 41 be
       -0.019578625 -0.20631379 0.07855195 -0.18905859
000080 e8 3e 09 3e 59 ec 32 3e 69 76 7e be c5 8d f0 bd
       0.13402903 0.17472972 -0.24849857 -0.117457904
000090 5a fd 7c 3e 51 ab 34 3e 71 8b c8 bd 85 c7 cb 3b
       0.24706021 0.17643477 -0.09792221 0.006218853
0000a0 17 5d 5f be fa 44 65 3e b5 e1 56 3b 46 4b 74 be
       -0.21812855 0.22389594 0.003278834 -0.2385684
0000b0 cc 02 71 3e 51 1b a1 3d db e8 88 3c c4 1f 9c 3c
       0.23536223 0.07866538 0.016712597 0.019058116
0000c0 f8 83 69 3d 96 6e 21 3d a3 0b ea bd 01 9b 94 bd
       0.05701062 0.039412104 -0.11428001 -0.07256127
0000d0 39 72 80 be c8 0d 2d be 05 12 5b 3e dc 13 08 3c
       -0.25087145 -0.16899788 0.21393593 0.008305516
0000e0 be 9e 80 3e e4 4d 2e be a3 ff 98 3d a2 01 43 be
       0.2512111 -0.170219 0.07470634 -0.19043592
0000f0 07 02 33 be cc c7 a3 bd 86 bf 85 3e 7b 56 55 be
       -0.17481242 -0.079970926 0.26122683 -0.20833771
000100 98 ce 27 be ab 44 26 3e 1c c5 2f be 50 84 62 3e
       -0.16387403 0.16237132 -0.17165035 0.22120786
000110 76 8a 14 3e 2e f2 8e be f1 ee 8b bd 6a 1a 11 be
       0.14505944 -0.27919143 -0.06832684 -0.14170232
000120 9e 60 5e be cf 44 c7 3d 08 ab 33 3e 66 ec 4a 3e
       -0.21716544 0.09729921 0.17545712 0.19816741
000130 39 c8 9c bd 3c 6c c6 3b 1f 05 81 be a9 6c 13 3e
       -0.07655377 0.006055383 -0.2519922 0.1439692
000140 bc 52 20 be 21 b8 62 3d a3 a5 fd 3d 44 3e 0f bd
       -0.1565656 0.05535138 0.12385108 -0.03497149
000150 c7 37 2b bd 29 ef 4d 3d 4b c5 57 be fd 14 4f 3e
       -0.04180124 0.05027691 -0.21071355 0.2022285
000160 47 ea d9 bd d1 c2 2e 3e a2 19 0b 3c ac e0 30 3e
       -0.10640388 0.17066504 0.008489998 0.17273206
000170 36 08 bb bc 00 7b 18 3d ec 35 61 3e 15 8a 14 bd
       -0.022831064 0.037226677 0.21993226 -0.036264498
000180 6f a7 04 3d 25 8a c4 bd 4a 47 87 bb f6 c2 04 be
       0.03238624 -0.095966615 -0.0041283714 -0.12964997
000190 8b ef fc 3d 01 5f 5a be 9b 6d 32 be 39 9f 0b 3e
       0.12350377 -0.21325304 -0.17424624 0.13634957
0001a0 2a a5 b8 bd 79 a5 4f be af 69 26 bd 83 1a 4a be
       -0.090158775 -0.20277967 -0.04062813 -0.19736676
0001b0 c1 86 0f 3c 49 13 76 be 5d 45 ca bc ee 4f 83 3e
       0.008760155 -0.24030794 -0.024691278 0.2564692
0001c0 b6 5a 98 bd 29 5d cf 3d 62 12 4e be 65 1a 5e bd
       -0.07439177 0.10125191 -0.201242 -0.05422439
0001d0 ec dc 07 be fe b7 31 be 93 ea 0c 3d 6c 3e 59 be
       -0.13267869 -0.17355344 0.034403395 -0.21215218
0001e0 77 34 2b 3d 3b a5 4d 3e 16 fa 89 3d f7 83 6a 3c
       0.04179808 0.20082562 0.06737153 0.014313689
0001f0 80 de 2e 3b 73 38 47 be bc c6 4a 3e 80 3e f4 bd
       0.0026682913 -0.19455127 0.19802374 -0.119259834
000200 69 d4 05 3e 8d be 68 be 21 e3 a0 bc 9f 2d 45 be
       0.1306931 -0.2272894 -0.019639554 -0.19255684
000210 12 d4 17 3e 14 82 91 bd 2c dd 46 3e 0f 78 f7 bc
       0.14826992 -0.071048886 0.19420308 -0.030208616
000220 9a 46 5d be 15 f2 38 3e fb 39 c4 3b 4c ef 41 be
       -0.21608964 0.18061097 0.005988357 -0.18938941
000230 24 c3 44 be 7a 3a d3 3d 29 06 4e be cf e6 28 3e
       -0.19215065 0.10313888 -0.20119537 0.16494296
000240 c6 57 9d bd e0 49 06 be d6 0e 5b bd dc 8b 54 be
       -0.07682757 -0.13114119 -0.053480946 -0.20756477
000250 4e 79 a3 3a 9e e9 f1 bd 08 ab 9a bd 42 79 46 3e
       0.0012472065 -0.11812137 -0.07552153 0.19382194
000260 c4 f7 ff bd 6e ff 0e 3e c7 24 2a bc e2 23 db bd
       -0.124984294 0.13964626 -0.010384745 -0.107002035
000270 9c 23 9c 3d f4 f3 c5 bb 4e 62 2d be a8 c5 59 3d
       0.076239794 -0.0060410444 -0.16932032 0.053167015
000280 b4 ce 67 3e ac aa 9d 3d fb 5e 59 3e f0 19 62 3d
       0.22637445 0.07698569 0.21227638 0.055200517
000290 17 2b 83 bd 48 e3 c3 3d 74 c4 75 3d e7 43 6c 3d
       -0.06404703 0.09564835 0.060001805 0.057681944
0002a0 76 f6 81 3d ae 6f e5 bb 64 99 9a bd 69 18 1d be
       0.06345837 -0.0070018386 -0.07548788 -0.15341343
0002b0 2e 81 7e 3d 2c 28 a3 bd c0 b5 3d 3e a9 f3 86 be
       0.062134914 -0.079666466 0.18526363 -0.26357773
0002c0 f8 ff 9a bd 22 04 ab 3d 91 d2 e2 3d dd 5e 03 3e
       -0.075683534 0.08350398 0.110753186 0.12829156
0002d0 03 06 08 3e 01 0c 21 be 1d c5 2c 3e f4 19 82 3c
       0.13283543 -0.15727235 0.16872068 0.015881516
0002e0 f0 8a 84 3b ea a3 18 bd 23 2a 02 3e ac 43 07 3e
       0.004044883 -0.037265696 0.12711386 0.13209409
0002f0 da e3 8f bd 9c d7 70 3d 4d 6c 51 be 19 7a 0b 3e
       -0.07025881 0.05879937 -0.2045147 0.13620795
000300 b4 57 54 3d d0 b5 d3 bd 4f 70 13 3e f9 7b d6 3c
       0.051841453 -0.10337412 0.14398311 0.026182162
000310 e5 c9 a0 bd ab ec 7e 3e f8 ec 50 3d 3c 89 85 3e
       -0.07851008 0.24894969 0.05100724 0.26081264
000320 d5 18 29 3d bd 92 ad bd 1d 3a 8c be 85 72 96 3d
       0.041283447 -0.08475254 -0.27388087 0.073460616
000330 c0 62 0e bd 20 7e 7b 3e 1f 9f a1 3d 32 6a 10 be
       -0.034762144 0.24559832 0.07891678 -0.1410301
000340 b3 a9 b5 bd 8e b6 6c 3d 9f 06 4b be d2 98 ee b8
       -0.08870258 0.057791285 -0.19826744 -0.000113771894
000350 86 2c 16 bc b9 65 2e 3d 6f 00 21 3e f7 9e 48 3e
       -0.009165889 0.04257748 0.15722822 0.1959189
000360 09 80 6c be 74 3b 26 3e 62 b4 e0 bc 20 22 2f 3e
       -0.23095717 0.16233617 -0.027429763 0.17102861
000370 90 ba 52 ba d1 3f 4a 3e 4a 64 df 3d c2 d4 7d be
       -0.0008038664 0.19750907 0.109078005 -0.24788192
000380 6a 27 72 3e ea a8 0a bc ca 37 1a 3d 38 25 76 be
       0.23647848 -0.008463124 0.03765086 -0.24037635
000390 f0 45 de 37 66 ec a7 3d 9b 66 de bd 89 d2 04 3e
       2.649703e-05 0.08199386 -0.10859414 0.12970938
0003a0 1e 2d 5b be 39 62 61 be 7b 3a 12 3e 4a cd 20 bd
       -0.2140393 -0.22010125 0.14280121 -0.03925828
0003b0 a9 9f 17 be 02 9e e6 3d e3 ae a3 3d 91 7d 2e 3c
       -0.14807 0.11260606 0.07992341 0.010650055
0003c0 1f 73 82 be 0b cd 1d 3e 9c d9 71 bd a5 ef 78 bd
       -0.25478455 0.15410249 -0.05904542 -0.060775418
0003d0 ad a0 c5 3c 58 86 2b bd c1 2c 3b 3e 05 c7 83 3e
       0.024124468 -0.041876167 0.18278791 0.25737777
0003e0 92 fb 5a be e7 65 56 3e 2d 9c 4a 3e 80 84 3d bd
       -0.21385029 0.2093731 0.19786139 -0.04626894
0003f0 a2 e6 3a be 06 08 2f be 7b 53 e2 bd d6 a1 a3 bd
       -0.18252042 -0.17092904 -0.11051079 -0.07989852

sequential/dense_1/MatMul f4 [32, 64]
000000 9b 18 d7 bd a3 04 19 3e 6e a9 e2 bd 56 9e 85 bd
       -0.1050274 0.14943175 -0.110674724 -0.06524341
000010 69 16 33 3e b3 c6 3f 3e 70 ed 51 3e 2e 12 64 be
       0.17489018 0.18728141 0.20500731 -0.2227256
000020 46 09 80 3c 78 58 bd 3d 33 9c 2e be b8 78 59 be
       0.015629422 0.0924539 -0.17051773 -0.21237457
000030 ef 59 12 be 12 1f 4d 3d 24 da 30 3a 9a e6 54 3e
       -0.1429212 0.05007846 0.00067463727 0.20791093
000040 6b 97 0c 3e f0 60 d1 bc 68 7f 14 be c3 28 4e 3e
       0.13729636 -0.025558919 -0.14501727 0.20132737
000050 4a 4a 42 3d f7 cb 30 bd 95 92 28 be 76 43 aa 3d
       0.04743413 -0.043163266 -0.16462167 0.083136484
000060 fc 36 84 be 52 0c 18 3d b3 3e 5d be ee 1a 9f 3d
       -0.258232 0.037121125 -0.21605949 0.07768808
000070 37 2c 37 be e9 1a d3 bd 66 85 02 bd ab 73 49 3e
       -0.1788796 -0.10307867 -0.0318655 0.1967303
000080 28 12 4b bd 4a 55 f3 3c fd 1d 47 3d e5 57 6d be
       -0.049577862 0.029703755 0.048612583 -0.2317806
000090 36 36 18 3e 5b f2 1e be 99 03 d2 3d 73 ae 09 bc
       0.1486443 -0.15522139 0.102545924 -0.008403408
0000a0 46 c3 44 bc 91 60 36 be 1d 8a 08 3e 13 94 42 3d
       -0.012009447 -0.17810275 0.13333936 0.047504496
0000b0 68 80 ed 3d 75 90 f8 bd 99 c4 a7 bd e3 90 20 3e
       0.11596757 -0.12136928 -0.08191795 0.1568027
0000c0 0a 37 65 3c 21 1a 60 3e 57 de 80 be 7f 73 16 bd
       0.013990173 0.21884967 -0.25169632 -0.03673124
0000d0 ab 9f 0b 3e aa f3 1c 3e a7 58 7c be f7 47 0c 3e
       0.13635127 0.15327325 -0.24643193 0.13699327
0000e0 d1 76 6e 3d 67 25 73 be 46 8f 7a be a9 b6 38 3e
       0.05821878 -0.23744737 -0.24468717 0.1803843
0000f0 cc 2f 7a 3d fc 02 b3 bd 83 91 83 bd 32 05 2a be
       0.06108074 -0.087408036 -0.064242385 -0.16603544
000100 c4 18 1b be 90 bb b3 3c d7 67 e9 3d 92 bc ce bd
       -0.15146166 0.021940023 0.11396759 -0.10094561
000110 c2 32 41 3e c2 e0 43 be 01 dd 1c bc 03 a7 4e 3e
       0.18867019 -0.19128707 -0.009574176 0.20180897
000120 29 33 a5 bd 68 41 20 3c 1d 2b db bd 7f 12 d7 3d
       -0.08066399 0.009781219 -0.107015826 0.10501575
000130 47 be 3b be 60 93 4b be 4f 52 91 bd af 76 4b be
       -0.18334304 -0.19880438 -0.07095777 -0.19869493
000140 06 4d 99 bd 00 e2 af 3c c5 6d 33 3e 87 c7 b9 3c
       -0.07485394 0.02147007 0.17522343 0.02267815
000150 f7 45 84 be 7a 7f 2c be 31 97 71 3e f6 ca 07 bc
       -0.2583463 -0.16845503 0.23592831 -0.008288136
000160 61 d3 34 3e 91 0b 6e 3d d6 4f ca bd 3d 25 39 3d
       0.1765876 0.0581165 -0.09878509 0.04520153
000170 b5 9d ba 3d 9a c1 b4 3d 9a 6d 34 3d b7 f2 9e 3d
       0.091121115 0.08825989 0.044049837 0.07761138
000180 bb 41 07 be 61 f8 fe bc 26 5b 53 3e 90 50 07 be
       -0.13208668 -0.031124296 0.20640239 -0.13214326
000190 62 a0 e7 bc 56 4a 4a be f3 dc 54 be 32 d8 cd 3c
       -0.028274719 -0.1975492 -0.2078741 0.025127504
0001a0 60 86 2b 3e ae 6b a4 3d de 8b 22 3e e0 34 ee bd
       0.16750479 0.08028351 0.15873668 -0.11631179
0001b0 60 43 9b bd 18 71 41 3e 29 7b a4 bd b6 b9 00 3e
       -0.0758121 0.18890798 -0.080313034 0.12570843
0001c0 d6 3c 68 be 02 12 39 3e d0 d7 9b 3d da 1c a0 3c
       -0.22679457 0.18073276 0.07609522 0.019545007
0001d0 b5 0e 5a 3e 79 bb 77 3c 5f b3 4f 3d be 6c 8a 3d
       0.21294673 0.015120381 0.05070817 0.06759022
0001e0 3f 31 60 be 72 09 33 3d 84 f2 c4 3d 9d fc 28 bd
       -0.21893786 0.04371018 0.09616569 -0.041256536
0001f0 1e 73 ae 3c d6 ec 36 be bb f4 a2 3d 5e 31 e0 3c
       0.021295127 -0.17863783 0.07956835 0.02736729
000200 6f f3 fd bd 66 d8 ab 3d 90 36 e7 bd 98 a9 29 be
       -0.12399947 0.08390884 -0.11289704 -0.16568601
000210 0b e6 80 be 8b 6e e3 bc cc 6c 68 bd 68 15 f6 bd
       -0.2517551 -0.027762672 -0.05674438 -0.12015802
000220 60 8e eb bd 0f e8 7d 3e bf 09 7b bd 75 92 13 be
       -0.11501765 0.24795555 -0.06128859 -0.14411338
000230 e7 8b 75 be 61 9e e0 3d d1 3d 7c be fd 37 56 3e
       -0.2397915 0.109677084 -0.24632956 0.20919795
000240 d4 e0 1d be da fa 25 3e 47 4e 34 be 22 06 4d bd
       -0.15417796 0.16208974 -0.17607985 -0.050054677
000250 f5 02 00 3e b2 7c 6c 3e 86 2f 98 3c a3 4d 10 3e
       0.12501128 0.23094442 0.018577348 0.14092116
000260 4a fb eb 3d 40 8f 83 be d0 ea 90 bd 71 01 ac 3b
       0.11522539 -0.2569523 -0.07076037 0.0052491953
000270 09 cb c5 bd 99 4a 36 3d ec b7 6a 3e 18 cc 3e be
       -0.096578665 0.044504736 0.22921723 -0.18632543
000280 1a 2b 83 3e 0a 67 c2 bd 3c 96 c1 bd 21 58 01 be
       0.2561882 -0.094923094 -0.09452483 -0.12631275
000290 fe ec 2c 3d 4f 9d f8 3d 52 ef 75 3e ec 08 51 be
       0.0422182 0.12139379 0.24017075 -0.2041356
0002a0 64 7d ac 3c ef e9 d2 3d d1 52 77 3c f2 b8 4b 3e
       0.021055885 0.102985255 0.015095429 0.1989477
0002b0 a7 f5 88 bd 61 5f 98 bd e1 ec 08 be 0b 75 41 3e
       -0.066874795 -0.07440067 -0.13371612 0.18892305
0002c0 24 65 5a be 25 9a 80 3e ea 8e 33 3c 02 40 2e be
       -0.21327645 0.25117603 0.010959366 -0.17016605
0002d0 5c 9b 37 3e 43 a5 ac ba 9d ff 85 3d a9 00 00 3d
       0.17930359 -0.001317181 0.06542895 0.03125063
0002e0 98 bc af 3d 6a c3 83 3d 25 ab 4c be b3 54 ab 3d
       0.08580893 0.06433757 -0.19987161 0.083657645
0002f0 be 58 ef 3c 88 d2 e9 bc ec c5 eb 3d 61 f7 4b 3e
       0.02921712 -0.028542772 0.1151236 0.19918586
000300 0d cf de 3d 75 63 3d be 9c 95 66 3e 68 b0 f4 3c
       0.108793356 -0.18494971 0.22518009 0.029869273
000310 c0 7e 62 be 74 50 aa bc 74 45 3c be b7 55 93 3d
       -0.22118664 -0.020790316 -0.1838587 0.07194083
000320 4f 54 0f 3e d6 f6 6a bb 13 df 69 be 20 76 bf 3d
       0.13997005 -0.0035852692 -0.22839002 0.093487024
000330 45 08 29 3e 5e c6 d5 3d fb 5c 60 3e 0a bd 42 bd
       0.16507061 0.10438226 0.21910469 -0.047543563
000340 ef 81 5f be 8e db 4f bc bb d3 cc 3d de 20 1a be
       -0.2182691 -0.012686623 0.10001322 -0.150516
000350 9d a8 fe bd ff f5 53 bd 59 a4 e9 3d e6 1e 8e be
       -0.12434504 -0.051748272 0.114083 -0.2775795
000360 2c 61 7c be 8a 2b 18 be 17 8c 4e be 7f 32 85 3e
       -0.24646443 -0.14860359 -0.20170628 0.26015088
000370 e8 ff 0c 3d 18 90 a9 bd 00 fb 33 be 9e 58 d1 3d
       0.03442374 -0.08279437 -0.17576218 0.102219805
000380 c8 3c 6b be a8 24 72 3e d8 e9 ac bd 03 a7 07 3e
       -0.22972405 0.23646796 -0.0844304 0.13247304
000390 87 60 30 be a0 86 72 bb cf 44 71 be cd 79 05 be
       -0.17224322 -0.0037006512 -0.23561405 -0.13034745
0003a0 11 1f 59 be dd 57 50 be ab ff f4 3d 3b 0f 7b 3e
       -0.21203257 -0.20346017 0.11962827 0.24517529
0003b0 9b 6d 50 3e b2 79 44 bd 09 54 89 bd 77 2e 3b be
       0.20354311 -0.04796762 -0.067054816 -0.18279444
0003c0 c3 13 db 3d 5e 51 fe 3d e7 b1 2d 3e aa 5a 40 3e
       0.106971286 0.12417863 0.16962396 0.18784586
0003d0 9c 83 45 3e dd 4c b6 bd 57 12 46 be cd 14 9f bd
       0.19288486 -0.08901379 -0.19342934 -0.07767639
0003e0 a7 fa 3e be 27 3c 52 be 94 ad 9d bc 92 13 b9 3c
       -0.18650304 -0.20530759 -0.019247808 0.02259234
0003f0 7b ca 34 be dc 7b b3 bd 7f af 2c 3e dc af b0 bd
       -0.17655365 -0.08763859 0.16863821 -0.086272925

sequential/dense_2/MatMul f4 [3, 32]
000000 c6 68 d2 be 5c df bd 3e 4e 58 1b 3e de a5 58 bd
       -0.4109556 0.37084472 0.15170404 -0.05289256
000010 0b 02 19 3e e0 52 c0 3d 25 a2 70 3e 9d 74 01 3e
       0.14942186 0.09390807 0.23499353 0.1264214
000020 72 fe 46 3e c8 29 1e be 36 fe fb 3d 99 6b 68 3e
       0.19433 -0.15445626 0.12304346 0.22697295
000030 82 5f cb be 63 d4 8f be b6 bb 3c bd 10 7b 20 bc
       -0.39721304 -0.28091726 -0.046077453 -0.009794965
000040 6f 33 7d 3e 25 46 e6 bd 7b a7 6b be 4b 15 d5 3d
       0.24726652 -0.11243848 -0.23013107 0.10404452
000050 35 46 bf 3e bf 7f a1 be 9e da 83 3e 6e 85 11 be
       0.3735825 -0.31542775 0.2575273 -0.14211056
000060 95 df ba 3e d6 1c dc 3d 45 6d 84 3d 76 0c 15 3c
       0.36498705 0.107476875 0.06466154 0.009097209
000070 27 31 8a 3e da e3 9c be 08 32 20 3e cd 65 57 3e
       0.26990625 -0.30642587 0.15644085 0.21034928
000080 ec 56 16 be 70 6e 31 be fc dd 80 bd 3d 15 b5 be
       -0.14681596 -0.17327285 -0.0629234 -0.35367766
000090 49 de d4 be 2b c0 e3 bd c3 4b b6 3e ee 4b b3 3e
       -0.4157584 -0.111206375 0.35604677 0.35018867
0000a0 c5 f8 26 3e 0b 89 36 be f6 11 87 be b8 cc c8 3e
       0.16305836 -0.17825715 -0.2638089 0.39218688
0000b0 98 61 bf 3e 3e b6 96 be 4a 3f e9 bd 5b b1 d2 bd
       0.37379146 -0.29435915 -0.113890246 -0.10287734
0000c0 d6 0b 4f 3d 59 6b 2c bd 32 84 22 be 1c 8b 8b 3d
       0.050548397 -0.042094562 -0.15870741 0.068136424
0000d0 e4 63 96 3e 70 30 95 3e 92 bd e7 bd f1 75 22 be
       0.29373085 0.29138517 -0.113154545 -0.15865304
0000e0 35 38 ac be 10 95 6a 3e 26 61 a1 3e cb 05 83 3d
       -0.33636633 0.22908425 0.3151943 0.06397589
0000f0 b5 3d 41 3c af 79 c0 3e 7c 9d c0 3e c0 e5 b6 3d
       0.011794497 0.37592837 0.3762015 0.0893054
000100 1d 7e a6 3c 5d e8 b2 bc 46 1e 38 be 4d 17 29 be
       0.020323807 -0.021839315 -0.17980298 -0.16512795
000110 c5 2e 33 3d 8e c3 4c ba 74 9c 96 3e 93 67 ce be
       0.043745775 -0.00078111223 0.2941624 -0.40313396
000120 9a ab ce 3e 6f 7d 06 bd 25 d8 bb be 4c 09 7f 3e
       0.40365297 -0.032834467 -0.36688343 0.2490589
000130 cd 34 15 be 07 0e 5d 3c 81 90 9e 3e c8 2d 0b 3d
       -0.14570923 0.013492114 0.30969623 0.033979207
000140 6f 3c 42 be 3f 6e 72 be 45 b0 3a 3d cb 31 b1 be
       -0.18968366 -0.23674868 0.04557826 -0.34608302
000150 88 9e 22 3e 4d 02 02 bd b6 3d cc 3d fb 7c f3 bd
       0.15880787 -0.031740475 0.09972708 -0.118890725
000160 1f 7a bb bd 7c 75 b1 3e 93 c6 ff 3d d5 2a 8b be
       -0.09154152 0.34659946 0.12489047 -0.27181116
000170 20 12 0f 3e 1c a8 6f bd e6 94 b5 3d 6c c6 01 be
       0.13971758 -0.05850993 0.08866291 -0.12673348
