model-bundling-scaleNclassification.tflite (tflite, 36720 bytes, 8 tensors)

sequential_13/normalization_4/truediv;sequential_13/normalization_4/Sqrt f4 [1, 63]
00000000: 3cbc c140 9884 d940 ce1c 4b4a e0e3 d640
00000010: 10eb d840 145c 9542 edb7 ea40 4862 d840
00000020: 900a 4142 f730 f340 2baa d440 1ae2 1342
00000030: 2114 f040 b7d8 ce40 9b50 ec41 84ea dc40
00000040: 9552 d540 cdd3 2842 eda9 e740 b531 d140
00000050: 4d10 f341 cc04 e940 0321 cd40 10e5 ce41
00000060: eb6e e540 fdd3 c740 58d4 bb41 ae18 d440
00000070: 3630 d240 c26e 2e42 7327 e740 c954 cb40
00000080: d614 e941 7200 ed40 1adc c340 c099 d341
00000090: 0c55 eb40 78d7 bc40 4f72 ca41 d267 cb40
000000a0: 783d cf40 3751 2742 c43e dd40 6eb6 c840
000000b0: 1900 e541 a3a5 e240 c0fa c140 8515 e641
000000c0: 032f e240 1fa9 bb40 cfbf e741 2b71 c340
000000d0: 40f3 cc40 526b 1442 ae46 cf40 2cff c840
000000e0: f580 e641 975d d340 1a15 c540 7e08 e941
000000f0: 4626 d340 b7a2 c040 813c eb41
6.054228 6.7974358 3.3277955e+06 6.715317 6.778694 74.67984 7.334952 6.761997
48.260315 7.599727 6.6457725 36.970802 7.502457 6.4639544 29.539358 6.9036274
6.666331 42.206837 7.239493 6.5373178 30.38296 7.2818356 6.4102798 25.861847
7.16979 6.2446275 23.478683 6.6280127 6.568385 43.608162 7.2235656 6.3540998
29.135174 7.4063044 6.120618 26.450073 7.3541317 5.9013023 25.305815 6.3564234
6.4762535 41.82931 6.913912 6.2722692 28.625048 7.0827193 6.061859 28.760508
7.0682387 5.8643947 28.968657 6.1075644 6.4046936 37.104805 6.477378 6.281149
28.812967 6.6051745 6.158826 29.129147 6.598422 6.0198627 29.404543

Const_1 f4 [1, 63]
00000000: 02d3 e73e 2b73 253f 10b6 8d33 fa27 ea3e
00000010: 80fd 1e3f 4fc5 fbbb 210d ec3e 3b66 173f
00000020: 7122 81bc 1262 ed3e dee7 123f 0f75 c7bc
00000030: 35ac ed3e 0231 103f 82c7 05bd 6b7c e93e
00000040: 3143 0e3f 91a7 8bbc f9d8 eb3e 088b 073f
00000050: f0fc 04bd 1291 ec3e 23a7 043f 6c8f 2dbd
00000060: 9ed3 ec3e e751 023f a1d1 46bd 4e8d e83e
00000070: 2b23 103f 83d4 b4bc 7d4b ec3e 9d30 0c3f
00000080: 728d 1bbd f5e1 ec3e 3291 0c3f f6fe 31bd
00000090: e782 ec3e d5da 0b3f a40e 3bbd 68dd e73e
000000a0: 0bbb 133f 759e e4bc 888e eb3e ddef 103f
000000b0: 2b77 2fbd d5e0 eb3e c3ad 113f 63a6 2cbd
000000c0: 9140 eb3e ba37 113f dfc8 21bd be46 e73e
000000d0: c933 183f 4b1c 0dbd b12c ea3e 8396 153f
000000e0: eb6f 36bd 3399 ea3e ba5a 153f a151 2dbd
000000f0: 4332 ea3e 0787 143f 497d 1fbd
0.45278174 0.6462886 6.598941e-08 0.45733625 0.6210556 -0.007683433 0.46103767 0.59140366
-0.015763493 0.46363884 0.5738505 -0.02434781 0.46420446 0.5632478 -0.03266097 0.45602736
0.55571276 -0.017047675 0.46063974 0.5294652 -0.032467782 0.4620443 0.5181753 -0.042373106
0.462552 0.50906223 -0.04853976 0.45420307 0.5630366 -0.02207399 0.46151343 0.5476168
-0.03797669 0.46266142 0.5490905 -0.04345604 0.4619362 0.54630786 -0.04566826 0.45286107
0.5770728 -0.02790759 0.4600718 0.56616 -0.042838257 0.4606997 0.56905764 -0.042150866
0.45947698 0.56725657 -0.039498206 0.4517116 0.5945402 -0.03445081 0.45737222 0.5843279
-0.044540327 0.45820007 0.5834156 -0.042314176 0.45741472 0.58018535 -0.03893784

sequential_13/dense_38/BiasAdd/ReadVariableOp f4 [64]
00000000: 700e 863e 47ad 9e3f 978f ab3e d404 203f
00000010: 2ccb 823e bb47 df3e 8344 8e3d b65e d33e
00000020: f9b9 adbd 54d9 413e e237 9bbe 5e2e 713d
00000030: 98ea 4d3e cf1c efbe 5649 9f3f df66 393f
00000040: a573 463e 1318 2d3e b8b1 fd3e a3da 393f
00000050: 317f 45be fe44 333f ce04 de3e 17e2 5a3f
00000060: c372 6ebb e1d2 dabe 5430 59be cf8d 26be
00000070: 2202 2a3d 4c2f 843f 28f6 373f 864a 38be
00000080: a3e6 57be 9548 a83e bd17 463f 26f8 e33e
00000090: fcd9 073f e9b4 44bd 5375 8a3e 0e8d 2fbe
000000a0: 79ec 91bc c84e d13e deed 80be e31b 273f
000000b0: 06aa 3fbd e301 293f 98ae e03e 507f 623e
000000c0: 493a 583f 1f8e 843e 6792 073f 2316 02bf
000000d0: 01d6 813d abc4 963e b1aa 4bbd ade2 c03e
000000e0: 3e2e 993d cbf3 093f e3b0 963e 0edd 13bf
000000f0: fe68 543f c039 b23c 4ef9 d73e 6d26 13be
0.2618289 1.239663 0.33507988 0.6250737 0.25545633 0.43609414 0.06946661 0.41283196
-0.08482737 0.1893056 -0.30316073 0.05888211 0.20109022 -0.46701667 1.2444255 0.72422594
0.19380052 0.16903715 0.4954965 0.7259924 -0.19286801 0.7002715 0.4336304 0.85501236
-0.0036384321 -0.42739013 -0.21209842 -0.16265033 0.04150594 1.0326934 0.7185998 -0.17997178
-0.21084075 0.32867876 0.7737997 0.4452526 0.5306699 -0.048024092 0.27042636 -0.17143652
-0.017812954 0.40880418 -0.25181478 0.65276927 -0.046793006 0.66018504 0.43883204 0.22118878
0.84463936 0.2588968 0.5295777 -0.5081503 0.06339646 0.2944692 -0.04972333 0.3767294
0.07479523 0.53887624 0.2943183 -0.5775918 0.82972705 0.021756053 0.42182392 -0.14370127

sequential_13/dense_39/BiasAdd/ReadVariableOp f4 [32]
00000000: c1fb d0bd 6ed4 d9bd 2376 5d3e 026b 8e3d
00000010: e708 20be 9d20 bf3d 2803 ef3e 6f90 c4bd
00000020: 8fed 62be 8491 6e3e 90bd bdbe a7b9 123f
00000030: afcf e73d db35 353f 2cac 103e bc6a e03d
00000040: ca99 0cbe 826d f43e bb20 fb3e 5b4a 4d3f
00000050: fffd 173f f910 3b3e d7de d53e 61b7 713d
00000060: 9622 4b3e b6b9 d7be e7c7 57be 5943 dcbd
00000070: 3f4b 82be 0940 423f 7c62 32bc 281e 0d3e
-0.10204268 -0.10636221 0.21627097 0.06954004 -0.15628396 0.09332392 0.46682096 -0.09597861
-0.22160934 0.23297697 -0.37058687 0.57314533 0.113189094 0.707853 0.14128178 0.10957858
-0.13730541 0.47739798 0.4904841 0.8019158 0.5937194 0.18268193 0.41771576 0.059012774
0.19837412 -0.42133874 -0.2107235 -0.10755033 -0.25448033 0.7587896 -0.010887738 0.13781035

sequential_13/dense_40/BiasAdd/ReadVariableOp f4 [66]
00000000: d071 863d d97f 38bc 4063 abbd cb06 03be
00000010: f455 15be f10c c9be d3a1 913f ce32 953e
00000020: 35cc 69be df0a aabd d5cc 013f aec2 163f
00000030: d772 cb3e 5b02 ffbe 7f71 b03e 213d 63bf
00000040: 4dc1 193e d3f7 acbe b2f8 83be 7849 f4be
00000050: 7773 f93e d498 2dbf 9085 913e c6c2 9a3e
00000060: 32c3 26bf 5fab 163e 6f13 de3e 1af6 113e
00000070: 535a 163f a64c 3fbe 6419 483e c281 51bd
00000080: e40e 2cbf 6dd0 93bd 9c4e 8d3e bf5a 39be
00000090: 6381 f73e 95af 24be f844 29bf 0d10 22be
000000a0: b845 313e af0d 8fbe c7ca 1cbf c6ee 073f
000000b0: 4f4c fa3d 3f58 9bbe 4675 39be 7abe b3bd
000000c0: 690d acbd 4b9e 5ebe 138a 2d3f b9fd c93b
000000d0: 39c8 99bd f327 953e 7441 a63e cdee 813e
000000e0: bd6f 623d e1c4 eabc b64e 993d ef06 323d
000000f0: f8b7 6abe 967a ed3e 99ff 113e 9e44 50be
00000100: fff2 b0bd 88af 0dbf
0.06564677 -0.01126095 -0.0836854 -0.1279556 -0.1458357 -0.39267686 1.137751 0.29140323
-0.22831805 -0.08302855 0.50703174 0.5889081 0.39736053 -0.49806485 0.3446159 -0.8876515
0.15015145 -0.33782825 -0.25775677 -0.47712302 0.48720905 -0.6781132 0.28422213 0.30226725
-0.65141594 0.1471381 0.43374202 0.14254037 0.58731574 -0.18681583 0.19540936 -0.051149137
-0.6721022 -0.072174884 0.27599037 -0.18101023 0.48340902 -0.16082604 -0.6612086 -0.15826435
0.17311752 -0.27940127 -0.61246914 0.53098714 0.12221586 -0.30340764 -0.18111143 -0.08776565
-0.08400995 -0.21740071 0.6778881 0.0061642793 -0.075088926 0.2913204 0.32471812 0.25377503
0.055282343 -0.028658332 0.07485716 0.043463644 -0.22921741 0.46382588 0.14257659 -0.20338675
-0.08640098 -0.55345964

sequential_13/dense_38/MatMul f4 [64, 63]
00000000: c69b fc3d 1ae7 0abf 9162 763e 8d6b 0dbe
00000010: ded3 efbe 78be 90bd 9b65 81be 889f d4bd
00000020: 8a40 363e 16be 2ebe ec39 573e 6955 273f
00000030: 3bb1 81be e934 523e 0da1 0f3f 0bb7 59be
00000040: 80fc 373e 4e4e 83bf 549e 09bf f00c 803e
00000050: 9fba dabe 0854 dbbe aa57 f63e be24 163e
00000060: b37f 48bf 56cd 183f 4b28 193f 93dd 5e3e
00000070: fc4a 943e 1587 2fbf fbb2 87be fc8b c73d
00000080: 1722 5a3e bcce 6abe a55e 2d3e b11d 80bc
00000090: 3470 3dbe 0a78 813e b76f 90bd b7b3 903e
000000a0: ce27 89bd d792 ebbd 2016 033e 6d66 8d3e
000000b0: 7bd0 993e 92ca e7bd c748 11be 89ff a4be
000000c0: 2747 b53c 2d85 78be 1b63 02bf 52a0 b43e
000000d0: 2ce7 fd3d 7e76 623f 1ffd 893d e956 b6be
000000e0: cb83 353f ce71 883e cfaa 73be 0d91 453e
000000f0: f9d4 023e 39b3 98be fc9f cdbe 6dc0 0b3e
00000100: 2e4a df3e ec80 583e f4bd 04be 7377 f53e
00000110: a6cb 9cbd b6c5 acbe 04be a33e 51a8 41be
00000120: 5f5d 32bf 6b7d 0f3f 5a96 16bd cccb 85bf
00000130: 5253 923f 9a0e 603e 2ca5 973e 380c a13c
00000140: f4d6 e5bd 5dd2 51bd a9a1 493e 9d34 84be
00000150: a21c 00be 1d83 c8bd 9a46 da3d 5416 47be
00000160: 45ff 893e 1401 00bd 6acd b93e b94a 26be
00000170: 3e0e 84be 465c 7d3e c80e 92be 3d11 b13e
00000180: 1c49 783e 3b09 06bf 0089 203f a95f 403e
00000190: 8e5e 41bf 1f1e 093f c125 dc3e de4f 58bd
000001a0: d3a8 2cbd ff4c 9b3e 7c31 25bd ff92 2b3e
000001b0: 3991 0d3e d01c eebe 5635 2c3e b45f 06be
000001c0: 042e 80bf da80 a5be 4c88 153f 6446 cfbc
000001d0: 6590 a63e e19f f23c a8b9 4fbe 4d8e 0f3d
000001e0: 17cb b53c c916 3bbe 81b1 78be a3a2 713e
000001f0: d72d 0cbf 6df0 bebe ab25 573e 23aa 503e
00000200: 806b a83e 1713 423e 7215 72be f0ea 9a3c
00000210: 4b91 703e a9b8 68be 0602 96be 2fef 323e
00000220: 0767 43bb ab0b 02bf 9e57 023e f133 28be
00000230: da61 0bbf 6592 b93c 5a36 d2bd f31e 75be
00000240: 6b86 843e 200a e73d 03a0 b6bc edf8 febd
00000250: 067a 413f 452a f83d b7be 9bbe 3d4a 953f
00000260: 1f9e 013f d352 843e 4270 003f 1e1e 15be
00000270: 313d c03d 1a09 33be 2135 ac3e 9169 eabd
00000280: bbc1 8c3c cab9 c33e 4785 103e db3d 43bd
00000290: 23f2 1c3f 0ede f0bd 1029 b83e 2995 3c3e
000002a0: 59c6 9cbe 276b 4f3c 71d5 8e3e 2be7 59be
000002b0: 2054 cc3d addd 663c c596 0ebe 9506 093e
000002c0: 5f39 a0be aaa5 0e3e eb1a f93e 3a39 1c3e
000002d0: 0997 19be a5f6 f93e 3f9b b03e f01a 833e
000002e0: 2d5f f73d 4ccf e9be d361 123f dad7 e9bd
000002f0: 4f1a 15bf 6204 31bd ccf7 4fbe 5860 893e
00000300: 24a5 b3be cc33 393e 7ca2 323e 9ed9 a6be
00000310: 19c9 eabc 6323 8c3e 205c 443e 4e68 1b3e
00000320: 3207 b5bd 76ba 1d3e 6802 5d3f 4ba1 733e
00000330: f8fa e9be c51c a0be d540 8fbe 537e 6abe
00000340: 10bf 5f3d 4d46 5dbe 986a a63e afe3 0fbe
00000350: da84 e2bd 6a29 5d3e b31f 1f3e dc4a 7bbe
00000360: 3eb8 bebe b7b9 72be 9e2a 3bbe c5d6 173e
00000370: dc41 12ba b741 b3be 1a40 d0be a4c4 d83e
00000380: 891e 82be 2ef4 bdbe aa45 2a3f fe71 753e
00000390: 054e 90be f9cc ccbe 54c7 8cbe 2e91 4c3e
000003a0: 82f2 84be e16b 3bbe 8a5f 5b3e cf92 ec3c
000003b0: d555 0c3d 5790 46be 4110 23bd d365 423f
000003c0: 81ce fc3d 4c09 efbe 76ed 543d e22d e03e
000003d0: 125a 04bf 61e7 44be a583 023f 69b3 7f3d
000003e0: 9250 d3bd e7a8 633e 80b0 da3d 42ba 513e
000003f0: 6634 73be ac70 dc3e 02f6 8f3f 2488 05bc
0.12334399 -0.54258883 0.24061038 -0.13810559 -0.4684133 -0.07067579 -0.2527283 -0.10381991
0.17798057 -0.170647 0.21018189 0.653647 -0.2533053 0.20527996 0.5610512 -0.21261232
0.17967415 -1.0258272 -0.53757215 0.2500987 -0.42720506 -0.42837548 0.48113757 0.14662454
-0.78319854 0.5968832 0.5982711 0.21764211 0.2896346 -0.68565494 -0.2650374 0.09743497
0.21302067 -0.22930425 0.16930635 -0.015639158 -0.18499833 0.25286895 -0.07052558 0.28262112
-0.06697045 -0.11502617 0.12801409 0.27617207 0.3004187 -0.11317934 -0.14187919 -0.32226208
0.022128655 -0.24269553 -0.5093247 0.35278565 0.12397608 0.88462055 0.06737732 -0.35613182
0.70904225 0.26649326 -0.23795627 0.19293614 0.12776555 -0.29824236 -0.4016112 0.13647623
0.43611282 0.2114293 -0.12963086 0.47942695 -0.0765603 -0.3374459 0.31980908 -0.18911864
-0.69673723 0.5605075 -0.03676448 -1.0452819 1.1431677 0.2188057 0.29618204 0.019659147
-0.1122264 -0.05122601 0.19690575 -0.2582139 -0.12510923 -0.09790633 0.106579974 -0.19442111
0.26952568 -0.03125103 0.3628953 -0.16239442 -0.25792116 0.24742231 -0.28526902 0.34583464
0.24246639 -0.52357835 0.62709045 0.18786491 -0.75534904 0.53561586 0.42997554 -0.052810542
-0.04215319 0.3033218 -0.040330395 0.16755293 0.1382493 -0.46506357 0.16817221 -0.13122445
-1.0014043 -0.32324868 0.584111 -0.02530212 0.3253204 0.029617252 -0.20285666 0.035047818
0.022191567 -0.1827041 -0.24286462 0.23597197 -0.54757446 -0.37292805 0.21010463 0.20377402
0.32894516 0.18952595 -0.23640993 0.018910855 0.23492925 -0.22726692 -0.2929842 0.17474054
-0.0029816048 -0.50799054 0.12728736 -0.16426064 -0.54446185 0.022652814 -0.10264273 -0.23937587
0.25883803 0.11281228 -0.022293096 -0.124498226 0.7557682 0.12117437 -0.3041894 1.1663281
0.506319 0.2584444 0.5017129 -0.1456227 0.09386671 -0.1748394 0.33634284 -0.114459164
0.017182222 0.38227683 0.14113341 -0.04766641 0.6130697 -0.117611036 0.35968828 0.18416275
-0.30620077 0.012659824 0.27897218 -0.2127959 0.09976983 0.014090938 -0.13924702 0.13381417
-0.3129377 0.13930383 0.4865335 0.15256205 -0.14999022 0.48820987 0.34493443 0.2560649
0.120787 -0.45665967 0.5718052 -0.114181235 -0.5824327 -0.04321707 -0.20309371 0.26831317
-0.3508693 0.18086165 0.17444795 -0.32587904 -0.028660344 0.27370748 0.19175768 0.15176508
-0.08839263 0.1540316 0.86331797 0.23791997 -0.45699286 -0.3127195 -0.2797915 -0.22899751
0.05462557 -0.21608849 0.325032 -0.14051698 -0.11060496 0.2159783 0.15539436 -0.24540275
-0.3724994 -0.23703657 -0.18277976 0.14828022 -0.0005579272 -0.35011074 -0.40673906 0.42337525
-0.2541392 -0.37100357 0.6651255 0.23969266 -0.28184524 -0.40000132 -0.27495825 0.19977257
-0.2596627 -0.18302871 0.21423164 0.028878598 0.034261543 -0.19390999 -0.039810423 0.7593662
0.12344075 -0.4668678 0.051984273 0.43785006 -0.51699936 -0.19228889 0.50982124 0.06242696
-0.10318102 0.222324 0.10678196 0.20481208 -0.23750457 0.43054712 1.1246951 -0.008150134

sequential_13/dense_39/MatMul f4 [32, 64]
00000000: 64fc a63e b8b8 f93e 172f 003e a70c aebe
00000010: 7597 4dbc 2289 773e adb6 22be aca6 043e
00000020: fff8 15bf fc50 afbe 0f13 453d fe97 be3d
00000030: eb31 6e39 331f 5fbc ac26 1dbf 6260 9b3e
00000040: ddcc 8fbe b9b8 a0bd 50d5 1c3e 79a8 063e
00000050: c416 303f bc7a c53e 3a23 a13e 8eec a2be
00000060: b468 923d de71 f93d 5854 ae3e a601 d13e
00000070: 7e42 6e3e 9663 5ebe eead 023f aa40 203f
00000080: 0b35 9bbc a476 0dbf f7cd 9ebb 0be4 ad3e
00000090: 6cff 073f 586c b1be 6d4f 8b3e fac9 963e
000000a0: 4203 2abf fff6 d13e 8fc3 3b3f 7f1e 8abe
000000b0: 4974 afbe 92a6 ce3b cbba 99be 0e49 5d3e
000000c0: 4b0d adbe b627 e63d 72d4 e3bd d320 babe
000000d0: cc4c 1fbf e725 053f 4224 febe 58f9 2c3d
000000e0: 9eb7 1bbe bfa7 2d3f 9439 73be 5415 1d3e
000000f0: 199d b7bd 0299 143e e4a8 5e3e 63c7 50bc
00000100: fff4 843e 8698 51bf 725f 2f3e 7d4e 93be
00000110: 3440 a7be 5dce cd3d 1f3e e93b 2a50 243f
00000120: f4a1 e83e 6766 a6be 6871 b83e 35aa b83d
00000130: 3790 4c3f 7ada 573f 2897 153e 7039 6ebe
00000140: fba6 673e a638 643f be23 2a3f a747 07bf
00000150: c524 c33e 1caa 4c3f 4bfa 623e 470b 253f
00000160: 95ac 1ebf 801c 31be 2467 c63d f1f7 6fbe
00000170: 81f0 4f3f 79a1 2a3f fea5 9b3e 5ef3 073f
00000180: 7578 91be 8cc5 cc3e dacd f33d 2ddb dabd
00000190: 9f0b b9be 542e afbd 52b5 7dbe cd6c 193c
000001a0: 76a1 73be a833 96be 6afc d8be d9d4 0c3e
000001b0: 3033 ecbe d9b7 853d 57a5 633e 855e a5be
000001c0: 2782 cc3e 5f14 a23d 6a19 3bbf 3ed2 813e
000001d0: db9e c03e bb1c dabe e904 a93d 636d 213e
000001e0: e000 223c 09b5 313e fbad ecbd 940d dabe
000001f0: ba58 7c3f 0b18 b6be c1f3 373f 5896 853d
00000200: 505d fc3e 7088 28bf 49ab ef3e a30d 423d
00000210: 588f 1b3e 2739 213f dfb4 5e3e 33b8 0d3f
00000220: 639a 983d 2907 c9be f9a9 b13e 1e8e 9b3d
00000230: e75d 833e b6b9 903e d03e 0d3e e1ea acbe
00000240: b203 1dbe f86c 92be 9807 d93d ea6b 06bf
00000250: 869b 31bd 0d0e ffbe b8bb 923e ead7 dd3f
00000260: 0149 8dbe 93cf 3abf f493 a13d 5173 35bc
00000270: 5fca 543f e19a e93e 0e8f 1c3f 1af9 c63e
00000280: 9c97 4cbd de6f bbbc 040b 6b3f 7e8a 2f3f
00000290: 2d37 143e c142 2dbe 60fe 8ebe 87b5 143e
000002a0: 9928 9ebe 4b74 593d 6ca0 c23d 9af9 b13a
000002b0: 81d2 093e f895 84be d172 a4be 2b0c bb3d
000002c0: c0a0 633f 854c 90bd 7596 fcbe c481 8cbe
000002d0: 5b8c 633c ad82 c73e 700f 393d 2160 bfbe
000002e0: 7c7d 39bf a758 fdbc 32b2 96bd 994c 35be
000002f0: e99b f1be 1457 92be d935 7b3e 920b 0a3e
00000300: cd5c 12be 54bf ca3e f747 33be aa94 3f3e
00000310: 1c60 39be 396e 55be 1da1 a3be e920 b93e
00000320: 338a a2be 2d65 eebd 92f0 9bbe d41c 233e
00000330: 6df0 98be ee1b 303e 9cba 373f c035 5bbe
00000340: 7fd0 003f 75e0 10bf 9f02 bb3d c386 22bf
00000350: 57ad 01bf 0598 883d 9d82 4d3e da5a cbbf
00000360: 8f4a e13e 19b8 81bc f00f d83d 16b4 883e
00000370: d224 823d 45cd 353f b1e8 d03d e657 33be
00000380: e40b d5bd 729d 23be 63c5 76be bc5d 73bf
00000390: 5dfa 913e 38f9 0cbe 1098 093e e431 97be
000003a0: efc3 743e 1a76 983e 4a30 953e a5cd 6d3e
000003b0: cc5f 883e 8539 d8bc c43d 083f 454f 2ebe
000003c0: 9715 efbe 8a8b c63e ba17 9b3e 51a5 d23e
000003d0: a778 61bd 4bb1 e43e a39c 18bf 8cb1 853f
000003e0: 2683 183f 150f c2bc 9b45 883e d2de 333e
000003f0: 1e19 5abd 437a b73e 18dd 1a3f 04cd e43e
0.32614434 0.48773742 0.12517963 -0.33994028 -0.012548317 0.24173406 -0.15889998 0.12954205
-0.5858306 -0.34241474 0.04811388 0.09306334 0.00022716045 -0.013618278 -0.61387134 0.30346972
-0.28085986 -0.07847733 0.15315747 0.13150205 0.6878474 0.385702 0.31472188 -0.31821102
0.07148877 0.121799216 0.34048724 0.4082157 0.23267552 -0.21717677 0.51046646 0.6259867
-0.018946191 -0.55259156 -0.0048463303 0.33963045 0.5312412 -0.34652972 0.27209035 0.2945097
-0.6641122 0.41008756 0.73345274 -0.26976392 -0.34268406 0.006306478 -0.30025324 0.216099
-0.33799204 0.11238043 -0.11124505 -0.36353168 -0.6222656 0.5201096 -0.49637038 0.04222998
-0.15206763 0.67834085 -0.23752433 0.15340167 -0.08965511 0.14511493 0.21744114 -0.01274285
0.25968167 -0.8187336 0.17126253 -0.2877082 -0.3266617 0.10049126 0.007118001 0.6418482
0.4543606 -0.32500002 0.36024022 0.090168394 0.79907554 0.84317744 0.14608443 -0.23264098
0.22622292 0.8914894 0.6646079 -0.5284371 0.3811399 0.79947066 0.22165792 0.6447033
-0.6198209 -0.17296028 0.09687641 -0.23434426 0.81226355 0.6665264 0.3040008 0.53105724
-0.28412214 0.39994466 0.119044974 -0.10686336 -0.3614168 -0.08553758 -0.247762 0.009364319
-0.23792061 -0.29336286 -0.42380077 0.1375307 -0.46132803 0.06529207 0.22231041 -0.32298675
0.39943048 0.07914042 -0.73085654 0.25355715 0.37621197 -0.42600045 0.0825289 0.15764384
0.009887904 0.17354216 -0.11556622 -0.42588484 0.98572886 -0.35565218 0.71856314 0.065228164
0.49289942 -0.6583319 0.46810368 0.047376286 0.151914 0.6297783 0.21748684 0.5535919
0.07451322 -0.39263275 0.3469999 0.07595466 0.2565758 0.28266686 0.13793492 -0.33772948
-0.15333441 -0.28598762 0.105971515 -0.52508414 -0.04336121 -0.49815407 0.28658843 1.7331517
-0.2759476 -0.72972983 0.07889548 -0.011074857 0.83121294 0.45625976 0.61155784 0.38861924
-0.049949273 -0.02288049 0.91813684 0.685707 0.14474173 -0.16919996 -0.27928448 0.14522372
-0.3089035 0.05308942 0.09503254 0.0013578415 0.13459207 -0.25895667 -0.32118848 0.0913318
0.8891716 -0.07045845 -0.4933354 -0.27442753 0.013888444 0.38966885 0.045180738 -0.37378028
-0.724571 -0.030926062 -0.07358207 -0.17705001 -0.47189263 -0.2858206 0.2453226 0.13480976
-0.14293213 0.39599097 -0.17507921 0.18709055 -0.18103069 -0.20842828 -0.31958857 0.3615792
-0.31746063 -0.116403915 -0.30456978 0.15928966 -0.2987093 0.17198154 0.7176912 -0.21407223
0.5031814 -0.56592494 0.09131359 -0.6348688 -0.5065512 0.066696204 0.20069356 -1.5887101
0.44002196 -0.015834855 0.10549915 0.26699895 0.06354679 0.7101634 0.10200632 -0.17514
-0.104026586 -0.1597803 -0.24098735 -0.950649 0.28511325 -0.13766944 0.13436913 -0.2953025
0.23902868 0.29777604 0.29138404 0.23222978 0.26635587 -0.026394615 0.53219247 -0.17022426
-0.4669616 0.38778335 0.3029154 0.4114175 -0.055046704 0.44666514 -0.5961401 1.0444808
0.59575117 -0.023688832 0.26615605 0.17565468 -0.05324661 0.35835466 0.6049361 0.44687665

sequential_13/dense_40/MatMul f4 [66, 32]
00000000: ea72 a6bc 4d62 8abd 460a 81bf 71c9 003f
00000010: 8a51 453e 69be dabc 35bb c03e d893 bb3d
00000020: 1eaa b23b e835 4dbf a8d9 b8bd d57c 0d3e
00000030: 61d9 39be 6005 8d3d 2c98 a43e d22f 9ebe
00000040: e4d0 8abe 2e1c 30bd 6348 0b3e cec4 01bf
00000050: e60a 16bf b5f3 053f 27e5 61bf 9002 7f3e
00000060: 3818 ba3d 118f 99bd de1d 813e 9f19 15bf
00000070: 92e4 a4be 63c8 84bb 0fe9 b0be 8f2a 0e3e
00000080: 68e5 fb3c e0c6 32bf 4912 f9bd 415e c9be
00000090: c4d7 373d 0e65 eb3d cd3c 723c 6096 bfbb
000000a0: 7155 79bf a7ed a4be 4859 3b3e 9155 a03e
000000b0: 31c3 e43d 5d8b 29be 9b60 043f 6e99 2abf
000000c0: 300e 68bd 396c ea3d 17a9 053f aa47 e33e
000000d0: 0bf8 29be 4766 6fbf d5d6 e8be 9b1c 07c0
000000e0: 7ff0 883d d179 48bd 57ae 96bd f929 0bbf
000000f0: 6573 fc3d 5508 843e 6deb eebd fff6 3dbe
00000100: 0489 293e 0631 803e 884c 353d 9abb d43e
00000110: e8b8 febe 6723 16be cb23 61bf b490 bbbe
00000120: 7412 143e 60b9 0dbe e082 983e 23f7 71bf
00000130: 4c82 1ebb 29f3 6abf 8944 f8be 1c76 a3bf
00000140: 5d77 2fbd 5445 8f3e 579e 26be 20f7 7d3b
00000150: 507e 4a3e d539 1cbf dedc c1bd 05e3 773e
00000160: 0f7d 683e 4d6e debd d3d2 f53d cf38 f5bc
00000170: f38f 313e 96b4 be3e bcc4 a2bf 84de 61be
00000180: d0dd d73d dc19 ae3e 756e ebbe fba9 633e
00000190: 26e6 733d 2a75 d93d 4985 b23d 491c e3bc
000001a0: 1ece a8bd f56d 1c3f 4fe9 87be 40ab a9bd
000001b0: 0d9d 433d 4549 b63e 31f6 563d f303 e2be
000001c0: 2ef8 00be 0449 f7bd f327 f5bd e5e8 51be
000001d0: 4bf9 4e3e 81c6 93bd 7385 48bf 7c5d 0dbe
000001e0: 2fed 6b3c 27cd a4bd 4272 db3d 8a0d 05bc
000001f0: 3967 3cbf 4ac2 213d 96f0 b23c d0f2 34be
00000200: 09e8 653e c3f9 4abe 06ec af3e 76af cfbf
00000210: 5926 e43e 0085 a03e 78ac a0bf 4885 5e3e
00000220: 33d3 153e a7fc 883e af5a 133e 4cde 29bf
00000230: f607 bb3d 4f39 96bf c9c0 5ebe 2b5e 14be
00000240: 049b 09bf cbdd fd3e 31a5 8fbf ef2f 41be
00000250: 2d32 56bf dc99 853e 9aef 12bf 3219 bcbf
00000260: a300 6dbf fbdf 46bf aa66 fcbe e6dd fb3e
00000270: c77c 953d 033f a7bf f2b5 3fbf 4e93 ffbe
00000280: cee3 133e 0cbc 153f 01fd c33e 02e4 d6be
00000290: 05b1 c1bf 1056 f23d 8cca b7bf 7f99 d8be
000002a0: 716e ce3b 03c1 1dbd cc31 e13e ea98 6fbf
000002b0: 7fb6 75bf 5f19 9fbf f245 60bf f5f5 c1be
000002c0: 3a5f 033c 5375 ffbd a86e 93bb ee1f b2be
000002d0: a018 ab3e 3abe bdbe df42 fabe 623b bc3c
000002e0: 6b18 1abd b812 df3c fae9 acbf 3549 2cbf
000002f0: 76f2 f93e cfff 35be 0cee 7cbf 97d2 6ebe
00000300: 5ea9 90be 8cba eebd 08ff 14bf 4167 053e
00000310: 4312 c13c 5a03 dc3e 4128 833c 747e 5bbd
00000320: c4dc 9fbf b008 b73e ed2d 09bf a061 87be
00000330: eb7c cebe 6475 3e3f bfe0 a53e d2ab e83b
00000340: fe07 e43e 4488 71bf b815 263e 0750 0b3f
00000350: 9b3e 103f ceb1 8a3e 13a1 bdbf ed62 9fbf
00000360: fe18 58bf a24e aebe 2d3d 06bf f0bf cbbf
00000370: 71c0 7bbe f724 063e c55b babc e947 09c0
00000380: dadf cfbc 9f9d b6bd 4935 f93e 2f94 973e
00000390: 9ed5 7abf 6737 f1bf a54c c8be 43ae 7f3e
000003a0: 7c5d b0be 0773 fbbe 00fe e6bc 377d d0be
000003b0: d6a5 0b3e 52ce 14bf dd58 23bf d4e4 513e
000003c0: 7bd8 97be cb5e 483e 561b f23a 7d00 473c
000003d0: 6285 f53e a991 a6be a48f 763e a56d d6bd
000003e0: 7770 9cbe 847c 50be c448 023f 0afe e33d
000003f0: b979 7cbf 1026 f4bd 8e80 71bf abd1 ae3d
-0.020318467 -0.06757031 -1.008126 0.50307375 0.19269386 -0.026702123 0.37642828 0.09159058
0.0054524085 -0.8016038 -0.0902589 0.13817151 -0.1814933 0.06885791 0.32147348 -0.3089586
-0.27112496 -0.042995624 0.13601832 -0.50690925 -0.5861038 0.5232499 -0.88240284 0.24903321
0.090866506 -0.07497991 0.252181 -0.5824222 -0.32205635 -0.0040522083 -0.3455281 0.13883422
0.030749038 -0.6983471 -0.12161691 -0.39329723 0.044883505 0.11493884 0.014785004 -0.0058467835
-0.97396 -0.32212564 0.18295777 0.31315282 0.11170042 -0.16557069 0.5170991 -0.66640365
-0.056654155 0.11446423 0.52211136 0.44390613 -0.16598527 -0.9351544 -0.45476404 -2.111121
0.06686496 -0.0489443 -0.073574714 -0.5436092 0.12326697 0.25787607 -0.11665998 -0.18551253
0.16556174 0.25037402 0.04426244 0.4154938 -0.49750447 -0.14661942 -0.8794524 -0.36633837
0.14460164 -0.13840246 0.2978735 -0.94517726 -0.002418655 -0.9177728 -0.48489788 -1.2770419
-0.042838443 0.2798258 -0.1627134 0.0038752034 0.19774747 -0.61025745 -0.09465955 0.24207695
0.22703956 -0.10860882 0.12003102 -0.029934315 0.17340069 0.3724715 -1.2716289 -0.22057539
0.10540354 0.34004104 -0.4598271 0.22232811 0.05954566 0.106180504 0.087168284 -0.027723448
-0.08242439 0.6110528 -0.26545188 -0.082846165 0.047757197 0.35602775 0.05248088 -0.44143638
-0.12594673 -0.120744735 -0.1197051 -0.20498998 0.20212285 -0.07215596 -0.7832863 -0.13805193
0.014399811 -0.08046942 0.10715152 -0.008120904 -0.73595005 0.03949193 0.021843236 -0.1767075
0.22451796 -0.19821839 0.3435976 -1.6225421 0.44560507 0.3135147 -1.2552633 0.2173053
0.14631347 0.26755258 0.14390062 -0.66354823 0.09132378 -1.1736239 -0.21753229 -0.14489047
-0.5375216 0.49583277 -1.1222287 -0.18865941 -0.8367031 0.26093948 -0.5739685 -1.4695189
-0.92579097 -0.7768552 -0.49297076 0.49192733 0.0729919 -1.3066105 -0.74887 -0.49917072
0.1444237 0.5849006 0.38278964 -0.4197083 -1.5132147 0.11832821 -1.4358687 -0.42304608
0.0062997867 -0.03851415 0.43983305 -0.93592703 -0.9598159 -1.2429618 -0.8760673 -0.37882963
0.008018309 -0.1247355 -0.0044992752 -0.34789985 0.33417225 -0.37059194 -0.48879144 0.022977535
-0.037620943 0.027230605 -1.3508904 -0.67299205 0.48817796 -0.17773364 -0.9880073 -0.23322521
-0.28254217 -0.11656675 -0.58201647 0.1302767 0.023568278 0.42971307 0.016010405 -0.053587392
-1.2489247 0.35748816 -0.535857 -0.2644167 -0.4032968 0.74397874 0.3239803 0.0071005607
0.44537348 -0.9434855 0.16219223 0.5441899 0.5634553 0.2708878 -1.4814781 -1.2452065
-0.84413135 -0.34044367 -0.52437097 -1.591795 -0.2458513 0.13100038 -0.022748837 -2.145014
-0.025375295 -0.089167826 0.48673466 0.29605243 -0.97982204 -1.8845032 -0.39120975 0.2496882
-0.34446323 -0.49111196 -0.028197289 -0.4072053 0.1363748 -0.5812732 -0.6380747 0.20497447
-0.2965735 0.1956741 0.0018471282 0.0121461125 0.47953326 -0.32533005 0.24078232 -0.10470132
-0.30554554 -0.20359999 0.5089228 0.111324385 -0.98623234 -0.11921322 -0.94336784 0.08536085
