model_with_preprocessing.tflite (tflite, 93228 bytes, 7 tensors)

truediv;truediv/y;sequential_2/dense_6/MatMul;sequential_2/dense_6/Relu;sequential_2/dense_6/BiasAdd f4 [128, 126]
000000 ed ae 05 bf 92 3d 9b 3f 3a fc a3 c8 1c 4f 34 bd
       -0.5222004 1.2128165 -335841.8 -0.044020757
000010 00 c2 63 3f d0 c6 cc 40 ab c7 1c bf 2a aa a2 3f
       0.88967896 6.399269 -0.6124217 1.270818
000020 52 e9 98 bf 87 f9 78 bf d2 67 53 bf e9 26 0c c0
       -1.1946204 -0.9725575 -0.8258029 -2.189875
000030 58 6b ca 3e fd d1 8d be 40 2f 9a 40 55 56 32 3f
       0.39535022 -0.2769927 4.818268 0.6966298
000040 0a 23 5d 3f 05 4d 6f bf 82 70 60 3f d4 82 35 bf
       0.8638159 -0.934769 0.87671673 -0.7090275
000050 bb 33 b8 3e b2 da ac be a7 c4 45 bf b9 a8 cb 3f
       0.35976967 -0.337606 -0.7725319 1.5910865
000060 49 cb 56 be 38 13 14 c0 29 2e 8c 40 d6 73 3b bf
       -0.20975985 -2.313673 4.380635 -0.73223627
000070 24 e4 49 3f 0f 9a 95 c0 06 5b 11 3f bf 55 a4 bd
       0.7886374 -4.675056 0.56779516 -0.08024167
000080 0c 26 5a 40 28 9e 7d 3f d8 51 97 bf c9 46 e5 bf
       3.4085722 0.9906945 -1.1821852 -1.7912227
000090 6e c1 3b 3f b6 4d 66 bf f2 0e df bf 90 76 75 3f
       0.73342025 -0.8996233 -1.7426436 0.95884037
0000a0 b0 e5 cb 3e e1 37 a6 be d4 b7 db be 72 0c 9a bf
       0.39823675 -0.32464507 -0.42913687 -1.2035048
0000b0 35 c2 7c c0 d1 a9 8f bf c7 8f 8e bf 34 5f 7e 40
       -3.9493535 -1.1223699 -1.1137627 3.9745607
0000c0 a3 f0 32 3f 17 77 81 bf 7c 59 8b 40 2b cf 0c 3f
       0.6989843 -1.0114468 4.3546734 0.55003613
0000d0 86 8a 0e 3f 4a 7f b4 40 bb c2 9d bd 76 6e 6b bf
       0.5568012 5.640538 -0.077031575 -0.91965425
0000e0 7c 66 35 c0 dd 64 0f 3f 77 f3 00 3f 51 e2 e0 bf
       -2.8343801 0.5601328 0.503715 -1.7569066
0000f0 0f 08 25 bf d3 a7 ad 3e 1b 05 00 c0 7a d2 b3 3d
       -0.6446542 0.33917102 -2.0003116 0.087803796
000100 99 67 81 3f 0a 78 39 c7 b3 96 b8 3e f0 9a 25 40
       1.010974 -47480.04 0.36052474 2.5875816
000110 a4 ea 57 c0 a2 8a 42 bf e3 f0 25 be ac 7f a0 c0
       -3.3736963 -0.75992787 -0.16205172 -5.015585
000120 2b f7 95 3f 09 70 8a 3e ef aa 0c c0 75 62 a1 3f
       1.1716055 0.270386 -2.197933 1.2608172
000130 32 c5 b6 3d bf e0 0f c0 1b ff 8e be 42 60 94 3f
       0.08924331 -2.2480924 -0.27929005 1.1591876
000140 11 12 dc c0 2c f9 d1 3e b9 78 11 3d 36 3d 87 40
       -6.8772054 0.41010416 0.03551552 4.226222
000150 3b ab 21 3f 0f fd 8a bf 03 6f 32 40 f3 d4 eb 3d
       0.631519 -1.0858477 2.7880256 0.11515226
000160 34 f3 3a c0 f1 62 2e bf e5 c6 8a bf 4d 70 f5 3d
       -2.921094 -0.6811972 -1.0841948 0.1198431
000170 1d fb d1 bf dc 01 76 3e 76 7f 92 bf 48 06 5d c0
       -1.6404759 0.24024147 -1.1445148 -3.4535084
000180 a9 03 a7 bf 07 40 0f 3f d5 9c 8f 3e 40 95 1a 3f
       -1.3047992 0.5595707 0.2804934 0.6038399
000190 32 3f 1f be ea 3b 7a be 0a 4c e4 be 8f 8b f8 3f
       -0.15551451 -0.24436918 -0.44589263 1.941759
0001a0 13 4e a3 40 4f 94 08 bf 16 5f 5e bf ff cc bc 3f
       5.1032805 -0.533513 -0.8686384 1.475006
0001b0 99 2b 96 bf 16 39 86 ba a9 3d ad 40 3d 67 cb bf
       -1.1732055 -0.0010240402 5.413777 -1.5890881
0001c0 f9 5a 73 bf 9d f0 16 40 63 1d 85 bb b9 fe d6 3f
       -0.9506069 2.3584359 -0.004062341 1.6796485
0001d0 d6 00 32 40 28 89 11 3f ee 61 6f bf 40 d4 90 c0
       2.781301 0.5684991 -0.93508804 -4.5259094
0001e0 c6 18 f2 3e e7 f3 7f bf c1 e0 bf 3f d9 8f 22 bf
       0.47284526 -0.9998154 1.4990464 -0.63500744
0001f0 66 01 b8 3e 9e fc 84 c0 eb 55 39 3e 2f 1d f0 3e
       0.35938567 -4.155837 0.18099181 0.46897265
000200 e0 5e 8e c8 05 7e 30 bf 74 5e cf be f3 c2 26 41
       -291575.0 -0.6894229 -0.4050175 10.422595
000210 dc bd 5c 3f a8 9c fa 3d 21 c5 08 bf 47 dc aa 3f
       0.862272 0.12236911 -0.53425795 1.3348473
000220 ea 6d 5a bf 81 d8 aa 40 9d d0 57 3f a2 71 d1 be
       -0.85323966 5.3389287 0.84302694 -0.40907007
000230 42 79 c2 bf ea 93 40 3e b1 8b 54 3f b5 34 00 41
       -1.5193255 0.18806425 0.8302565 8.012868
000240 a0 01 af 3f 43 62 82 3f 6e 72 94 40 be 5f 87 be
       1.3672371 1.0186237 4.6389685 -0.26440233
000250 f2 a3 1c bf e7 9b 30 40 f2 79 bf 3d 34 72 81 3f
       -0.6118766 2.7595155 0.09349431 1.0112977
000260 a7 7a 1f 40 34 59 62 3f a3 1b 9a 3f ab 9f b6 3f
       2.491861 0.88417363 1.2039684 1.4267477
000270 8c e5 cd bc f7 5b 49 bf 2e 9f 34 c0 43 fa c9 be
       -0.02513387 -0.7865595 -2.8222156 -0.39448747
000280 e0 75 39 3f 55 81 49 c0 aa f6 96 bf 49 ea 36 bf
       0.7244549 -3.1485188 -1.1794026 -0.7145124
000290 6a 44 7e 3f 65 52 22 3f 8c 76 5c 3f 8f 96 e1 c0
       0.9932314 0.63406974 0.8611839 -7.0496287
0002a0 6d 83 c0 be a3 3f 19 bf 67 46 55 c0 7e b6 7f 3f
       -0.3760027 -0.59862727 -3.332422 0.99887836
0002b0 de 4b 00 3f f1 a2 ed 3f 79 6f 16 3d 57 84 8d 3f
       0.50115764 1.8565351 0.036727402 1.1056012
0002c0 c9 ee 63 3f 62 c0 13 3f 0c 3c 25 be 9d 2c 01 c1
       0.8903623 0.5771543 -0.16136187 -8.073392
0002d0 68 bb 64 3f 19 1e 53 bf 2e d7 6a c0 79 49 0a 3e
       0.8934846 -0.824678 -3.6693835 0.1350459
0002e0 ad 85 5b bf f8 b2 45 40 5b ae 1c 3f 56 76 ef be
       -0.8575085 3.0890484 0.61203545 -0.4676997
0002f0 e9 76 ab 3d 89 b3 51 3f 75 8e b1 3f a6 67 0c 49
       0.0837229 0.81914574 1.38716 575098.4
000300 a6 7e 08 be 43 23 08 3e d0 c1 da 40 a8 75 f4 bb
       -0.13329563 0.13294701 6.8361588 -0.007460315
000310 cc bc 07 3f 8c 08 81 40 f1 d6 16 3f fe f5 ce be
       0.53022456 4.0322933 0.58921725 -0.40422052
000320 4f b7 77 3f 3e df cf 3e a4 63 80 bf a1 7a 66 40
       0.9676408 0.40600008 -1.0030408 3.6012347
000330 4c eb 19 bf d7 d0 71 3f 79 57 60 41 a1 6a 00 bf
       -0.6012466 0.9445929 14.021356 -0.501627
000340 a0 67 a2 3f 3a f0 ec 3e 56 95 e6 bf 4a ab 9b 3f
       1.2687874 0.46277028 -1.8014324 1.2161648
000350 6f a4 12 40 1b 22 a2 bf 8e 33 01 be 46 1e 68 c0
       2.2912862 -1.2666658 -0.12617323 -3.6268477
000360 a1 3e 23 be 95 d9 5e 3f 7b 87 bc 40 0e 6e 8b be
       -0.1594186 0.87050754 5.891538 -0.27232403
000370 0c 4b 8b 3e c4 0a 1f 40 df 5f 3a bf 49 b7 78 bf
       0.27205694 2.485032 -0.7280254 -0.9715467
000380 12 4a c0 3f 22 f4 f1 be 75 94 5f bf 70 43 3f c0
       1.5022604 -0.4725657 -0.873359 -2.988491
000390 89 ad 5e bf 43 01 1d 3f 10 1e 3d 3f da 92 40 be
       -0.86983544 0.6133005 0.73873997 -0.1880602
0003a0 42 3d cf be c5 d5 c9 c0 9a bc de 3e a1 d1 ce 3e
       -0.40476424 -6.307345 0.43503267 0.4039431
0003b0 02 ed 6a c0 ec fe 94 be 3d aa 4f be 4b c6 9d bf
       -3.6707158 -0.2910074 -0.20279785 -1.2326139
0003c0 6d b5 50 3e 3e b2 2e bf 17 6a 10 c1 3d 0b 52 bf
       0.20381708 -0.68240726 -9.025901 -0.820484
0003d0 09 14 af be 85 17 81 c0 26 21 6f bf 54 60 c7 bd
       -0.34194973 -4.034121 -0.93409956 -0.0973517
0003e0 75 60 79 3f 88 3b 92 bf 77 71 7f bf 57 1c 5a 40
       0.97412807 -1.1424417 -0.9978251 3.4079797
0003f0 52 da 6d 3f e9 68 ae be 6d e4 96 c8 c4 f6 01 3e
       0.92911255 -0.34064415 -309027.4 0.1269179

sequential_2/dense_7/MatMul;sequential_2/dense_7/Relu;sequential_2/dense_7/BiasAdd f4 [32]
000000 a4 b4 a1 bf 13 56 8e be 12 f3 69 40 c9 23 9e 40
       -1.2633252 -0.27800044 3.6554608 4.9418683
000010 87 c9 9c 40 6d 75 af 40 06 e5 c8 40 37 e0 2d bf
       4.8996005 5.483084 6.277957 -0.6792025
000020 d7 cf b7 40 8c aa 00 41 1b 80 c0 40 8a 7f 01 41
       5.744121 8.041637 6.015638 8.093637
000030 76 db a9 40 b6 2c ee 40 21 d0 e9 40 5a ac 82 40
       5.3080397 7.442958 7.3066564 4.083539
000040 7d 21 05 c0 76 ad 09 41 ac ec 4e 41 4a 5a 14 40
       -2.080169 8.604849 12.932781 2.3180108
000050 43 52 13 3e 7a 1a 06 40 59 b3 9f 3f a8 89 36 40
       0.14386849 2.095366 1.2476608 2.8521519
000060 f3 54 1c 41 ba b8 bb 40 8c 19 d0 bf 92 f0 47 40
       9.77074 5.8662996 -1.6257796 3.1240582
000070 72 bd 20 40 b7 58 32 3f 27 44 8f 40 a1 dc 41 41
       2.5115628 0.6966662 4.4770694 12.1163645

sequential_2/batch_normalization_2/batchnorm/mul_1;sequential_2/batch_normalization_2/batchnorm/add_1;sequential_2/dense_7/MatMul;sequential_2/dense_7/Relu;sequential_2/dense_7/BiasAdd f4 [32, 128]
000000 46 34 a3 be 2b f4 82 3f f3 33 09 3f f2 80 1b bf
       -0.3187582 1.0230764 0.53594893 -0.6074363
000010 ba 19 cc bd 19 cf 39 be ae a8 29 3f bd 6f 93 bf
       -0.099658445 -0.18145408 0.6627301 -1.1518475
000020 47 17 ff be 9b ec 91 be 8f d2 da 3f a7 56 80 3d
       -0.49822447 -0.28500828 1.7095507 0.062665276
000030 95 06 1d 3f 9f 4f ca 3e a8 23 2f 3f cf d3 13 3f
       0.6133817 0.3951387 0.6841378 0.5774507
000040 2f 2c 5b 3f fa fe 3c be 96 f4 7a 3e d2 b0 fb 3e
       0.85614294 -0.18456641 0.24507365 0.4915834
000050 10 27 85 3e 28 cc 17 3f e4 14 92 be 62 51 e0 be
       0.26006365 0.5929589 -0.28531563 -0.4381209
000060 7f a5 0d 3f 43 4e f0 3e c8 39 46 3e 87 52 42 be
       0.5533065 0.4693471 0.1935798 -0.18976794
000070 33 e4 2c bf 7d e5 49 3f ef e6 63 be d0 78 a0 3e
       -0.67535704 0.78865796 -0.22256063 0.31342173
000080 c4 8b f1 3a 26 92 98 3e 7e ce 46 be 9e 00 9b 3e
       0.0018428494 0.29799002 -0.19414708 0.30273908
000090 a0 8b 66 3f 25 b0 f3 3e 2b 62 9d be a1 6e 92 be
       0.900568 0.47595325 -0.3073896 -0.28600028
0000a0 13 32 e7 3e 85 0f 35 bd 76 23 fa 3e 79 c1 7f bf
       0.4515539 -0.044204254 0.4885518 -0.9990459
0000b0 08 b8 39 3f 94 ce 91 3e 21 96 ae bd ea 2b 62 be
       0.72546434 0.2847792 -0.085247286 -0.22087064
0000c0 16 3f 97 be 81 68 12 bf d1 b7 a0 be 51 4b cc be
       -0.29540318 -0.5719071 -0.3139024 -0.39901212
0000d0 d6 f7 3b 3e cb 95 97 3c 29 99 bf bc 90 02 49 be
       0.1835626 0.018504044 -0.023388462 -0.19629884
0000e0 63 18 ec 3e 83 97 80 3e 14 6c 60 3e 06 ca a3 bc
       0.46112356 0.25115594 0.21916229 -0.019993793
0000f0 23 a3 d9 bd 86 b1 96 bf 2b 5b 08 bf 83 8c 91 bf
       -0.10626819 -1.1772926 -0.5326411 -1.1371006
000100 92 aa 87 3e f2 dc 46 bf 56 e5 0b bf cb 66 7f be
       0.26497322 -0.77680886 -0.54646814 -0.24941556
000110 cb f0 5e bd f0 01 81 bd 2b c9 c1 3f a7 ff 02 be
       -0.054428857 -0.06299198 1.5139517 -0.12792836
000120 d8 b5 26 3e 0b b6 da 3d 93 06 1a bf 46 8a 14 bf
       0.16280305 0.10679253 -0.6016628 -0.5802349
000130 95 1a 9d be ac d9 b5 3e fe cb eb bf e8 33 ad 3f
       -0.30684343 0.35517633 -1.8421628 1.3531466
000140 86 a7 c9 3e 99 7e 8c 3e 90 ca ee be ba c4 31 3d
       0.39385623 0.27440336 -0.46638918 0.043400504
000150 26 6e 57 3e 16 74 dc 3e bb 59 45 3f 82 b1 be be
       0.21038112 0.43057317 0.7709004 -0.37244803
000160 69 5c 3e bf 67 f0 82 3e a5 c8 28 3f 1b 94 d3 be
       -0.74359757 0.25574037 0.6593116 -0.41323933
000170 b3 71 20 3f 7e ef 7c 3e 7f 66 75 3e d1 e9 80 3d
       0.6267349 0.24700734 0.2396488 0.06294597
000180 ac fc 10 bf 19 0f 30 3e 4e a0 01 bc ba c2 c7 3d
       -0.56635547 0.1719326 -0.007911755 0.09753938
000190 af 9f 0b 3f 2d c4 f9 3e 24 c3 a9 3e 97 26 e1 be
       0.5454053 0.48782483 0.33156693 -0.43974754
0001a0 bd 2a f0 3e 01 a9 48 bf 2a 40 43 bf 35 fc 40 3f
       0.46907607 -0.7838288 -0.7626978 0.7538484
0001b0 58 1c f6 be f9 e1 e3 3e eb b7 c4 3d 52 c5 e5 3d
       -0.480685 0.4450834 0.09605392 0.112192765
0001c0 a8 63 2c bf c0 08 f3 3c b8 e7 93 3e b9 2c 4e 3e
       -0.67339563 0.029667258 0.28887725 0.20134248
0001d0 53 5c 36 40 1c d5 07 3e 01 48 40 3f 9c 96 2f bf
       2.849385 0.13264889 0.7510987 -0.68589187
0001e0 e4 3a c4 be 96 4c 15 bd 9b 49 d4 3e ec 75 56 be
       -0.3832618 -0.03644999 0.41462407 -0.20943421
0001f0 7b 05 29 be 5c b6 2e bd 4e e2 01 3f a7 c9 90 3e
       -0.16505997 -0.04265438 0.5073594 0.2827885
000200 df b0 ae bc c3 1b da 3e bc ef 0c bf 0d a0 df 3e
       -0.021324573 0.42599306 -0.55053306 0.43676797
000210 47 9a a6 be f2 07 72 3e 99 da 86 3d 4d 17 2a bd
       -0.3253958 0.23635843 0.06584663 -0.041526128
000220 1d a3 9a bf 29 d2 78 3e c9 f3 74 bf 69 53 75 3f
       -1.2081028 0.2429892 -0.95684487 0.958304
000230 be 8e 01 3c 4a 0c 79 bd 77 31 c1 bd 06 95 60 3d
       0.007907568 -0.060802735 -0.09433263 0.05482962
000240 c4 8d 07 bb ac 2e 6e 3f 4b ec 7f be 72 f4 5a 3f
       -0.0020683864 0.93039966 -0.24992482 0.85529244
000250 9e c3 a7 3e 17 b4 d6 be 2b b4 a0 bf 9f 48 c4 3d
       0.32766432 -0.41934273 -1.2554983 0.09584164
000260 9c be 24 be 04 57 28 3d c3 66 31 3d c7 dd 31 3e
       -0.16088337 0.04109861 0.04331089 0.17369758
000270 98 6d 08 3f 42 3e d4 be 39 b8 92 be 0d 14 34 bf
       0.53292227 -0.4145375 -0.28656176 -0.70343095
000280 4c c3 67 ba b7 8b 72 3f 09 53 92 3d 6c 60 cc be
       -0.0008841052 0.9474444 0.07144744 -0.39917314
000290 ae 78 74 be 24 36 f5 bd 9a a0 21 3f fa dc 41 3f
       -0.2387416 -0.11973217 0.63135684 0.7572781
0002a0 ea 95 0c be dd 32 5a 3e 8c 28 75 be cd e0 65 bf
       -0.13729063 0.21308465 -0.23941249 -0.89796144
0002b0 96 28 bd be 25 fa ad be 9a 10 58 3e c2 2b 69 3f
       -0.36945027 -0.33979908 0.21100083 0.91082394
0002c0 6d 34 6c 3e b1 4d 1c 3c 81 4e 92 bf ee a9 56 3e
       0.23066874 0.009540007 -1.1430207 0.2096326
0002d0 e1 ff da 3f 68 c0 9d 3a 16 19 cb 3e a1 f8 06 3e
       1.7109338 0.0012035491 0.39667577 0.13180782
0002e0 97 d0 3d 3e 4f fe 8a 3e 2a 1f 17 be d3 7b 00 be
       0.18536602 0.27147147 -0.14757982 -0.12547235
0002f0 94 f6 32 3b 75 70 1e c0 fc e8 c7 3e 55 3a d1 be
       0.0027307617 -2.4756138 0.3904494 -0.40864816
000300 86 15 3b 3e 79 20 ec 3e ba c5 72 be c1 dc 7c 3e
       0.1826993 0.46118525 -0.23708239 0.24693586
000310 01 8b bc 3e 99 70 d3 bf f8 dd 9a 3d 53 4d 2e be
       0.36824802 -1.6518737 0.075618684 -0.17021684
000320 95 67 ac be 52 b4 20 3e 27 d0 a6 3d 94 ed 26 be
       -0.33672777 0.15693787 0.08145171 -0.16301566
000330 24 3f 02 3e a7 47 35 bf bd 19 54 3e ba 98 22 bf
       0.12719399 -0.7081246 0.20712943 -0.6351429
000340 ef d0 c1 3e bd 9d ff bd 11 57 ab 3d 21 61 a3 be
       0.37854716 -0.12481258 0.08366216 -0.3191004
000350 e3 cb 25 3f a3 50 6d 3f 5e 2a 82 3e 9f d4 f2 bd
       0.6476423 0.92701167 0.2542295 -0.118569605
000360 46 30 9e be 0d 5f 0a 3f e3 aa b7 be 7f 05 07 40
       -0.30896205 0.54051286 -0.35872564 2.1097105
000370 f4 66 78 3d e6 c7 49 bf 29 9e 8a be e2 1f e4 3d
       0.06064506 -0.78820646 -0.27073792 0.11138894
000380 be 22 16 bf 04 61 9d be c7 86 aa 3d 73 6f f6 3d
       -0.5864676 -0.3073808 0.08326488 0.12032976
000390 0f 9d eb 3e de 18 9f 3e fc c3 83 3e bc aa d3 be
       0.46018264 0.3107366 0.25735462 -0.41341197
0003a0 a0 6a 3d 3f cb 09 d4 be 9f 25 32 3f 58 93 c7 be
       0.7399082 -0.4141372 0.69588655 -0.38979602
0003b0 32 12 29 bf f9 2e 00 bf 07 ce f9 3e 0b 13 2d 3e
       -0.6604339 -0.50071675 0.4879 0.16901796
0003c0 7a 6c b0 3e 63 3a 6e be ad ae 4e 3d 42 14 65 3f
       0.3445776 -0.2326446 0.050459553 0.89484036
0003d0 84 e4 ce 3d 03 41 f6 bd ac 2b a2 3f 2f 8f a7 be
       0.1010218 -0.12024119 1.2669578 -0.32726428
0003e0 a9 8f ad 3c 9c 6d 38 be fd 9b 48 be 14 8a 85 be
       0.021186667 -0.18010563 -0.19590755 -0.26081908
0003f0 2c c5 8f 3e de 61 4e 3e 2b 08 86 bd 46 c3 0c bf
       0.28080118 0.20154521 -0.06544527 -0.54985464

sub/y f4 [126]
000000 92 21 e6 3e 16 1c 26 3f 8d 5e a1 33 cf 0d e8 3e
       0.44947487 0.64886606 7.5143454e-08 0.45323035
000010 72 af 1f 3f 47 98 02 bc 7a e1 e9 3e 3b 41 18 3f
       0.62377083 -0.007970876 0.45679837 0.59474534
000020 c6 de 83 bc 9f 3f eb 3e de dc 13 3f d9 b2 c9 bc
       -0.016097438 0.45946977 0.5775889 -0.024621414
000030 8b 7e eb 3e 69 34 11 3f e2 ce 06 bd bf d8 e7 3e
       0.45994982 0.56720597 -0.032912143 0.45282552
000040 a5 d5 0f 3f 03 20 8e bc 99 a5 e9 3e c3 63 09 3f
       0.5618537 -0.017349249 0.45634153 0.5366785
000050 45 87 05 bd 24 5e ea 3e 9e 72 06 3f 56 e1 2d bd
       -0.032599706 0.4577495 0.5251864 -0.042451225
000060 b2 c7 ea 3e 81 1c 04 3f 88 f5 46 bd 19 12 e7 3e
       0.4585548 0.51605994 -0.048574 0.45130995
000070 04 c8 11 3f 52 51 b5 bc 0b 43 ea 3e a9 f0 0d 3f
       0.56945825 -0.022133503 0.45754275 0.55445343
000080 90 f4 1a bd 4d 1f eb 3e 6b 2e 0e 3f 34 f3 31 bd
       -0.03783089 0.45922318 0.5553958 -0.043444827
000090 f9 19 eb 3e 9c 7b 0d 3f 2f 83 3b bd 08 77 e6 3e
       0.45918253 0.5526674 -0.045779403 0.4501269
0000a0 77 56 15 3f 5e e9 e2 bc af b3 e9 3e 4f 91 12 3f
       0.5833506 -0.027699169 0.456449 0.57252973
0000b0 aa 12 2e bd 3d 4c ea 3e d2 27 13 3f 4e 57 2c bd
       -0.04249827 0.4576129 0.57482636 -0.042075448
0000c0 a5 fa e9 3e fc af 12 3f 29 42 22 bd de e5 e5 3e
       0.4569904 0.5729978 -0.039613876 0.44901937
0000d0 08 b7 19 3f 4a 27 0b bd 50 76 e8 3e 17 22 17 3f
       0.6004491 -0.033973016 0.45402765 0.5903639
0000e0 0d 6a 34 bd 0a 1c e9 3e 38 d0 16 3f 33 e4 2b bd
       -0.04404645 0.45529205 0.58911467 -0.041965675
0000f0 6d 00 e9 3e 28 ff 15 3f 15 75 1e bd 36 a9 df 3e
       0.45508137 0.5859246 -0.038685877 0.43683785
000100 63 e1 26 3f 89 dd a6 33 61 3f e2 3e 5a 4f 20 3f
       0.6518766 7.7702744e-08 0.4418898 0.6262108
000110 41 4a fd bb 21 26 e5 3e 9e dc 18 3f b3 9c 81 bc
       -0.007729799 0.44755653 0.59711635 -0.01582179
000120 0c 6f e7 3e ed 82 14 3f 05 3e c7 bc 73 43 e8 3e
       0.4520191 0.58012277 -0.024321565 0.4536396
000130 d0 ea 11 3f 87 7d 05 bd 71 30 e3 3e 76 a6 10 3f
       0.5699892 -0.032590415 0.44372895 0.56504
000140 86 75 90 bc 84 1c e6 3e d5 1e 0a 3f 0c 28 07 bd
       -0.017634165 0.4494363 0.53953296 -0.032997176
000150 3b 58 e7 3e ef 19 07 3f a2 9c 2f bd 90 0e e8 3e
       0.45184502 0.52773947 -0.042873986 0.4532361
000160 99 b7 04 3f e0 9e 48 bd 13 53 e2 3e b7 be 12 3f
       0.5184265 -0.04897964 0.44204006 0.5732226
000170 77 70 b8 bc 91 d4 e6 3e b2 07 0f 3f 1b f1 1c bd
       -0.022514565 0.4508405 0.5587112 -0.038315874
000180 4b 2a e8 3e bc 50 0f 3f 2f dd 33 bd f1 64 e8 3e
       0.45344767 0.55982566 -0.04391211 0.45389512
000190 a0 ae 0e 3f 4c 4b 3d bd 79 8d e1 3e 14 6f 16 3f
       0.55735207 -0.046214387 0.44053248 0.5876324
0001a0 50 44 e6 bc 70 f5 e5 3e c0 d0 13 3f ec ec 2f bd
       -0.028108746 0.44913816 0.577404 -0.042950556
0001b0 92 e7 e6 3e 51 6b 14 3f 07 b5 2d bd a5 bd e6 3e
       0.4509855 0.5797625 -0.04240897 0.45066562
0001c0 03 fa 13 3f b3 1d 23 bd 7c c0 e0 3e 81 e6 1a 3f
       0.5780336 -0.039823245 0.43896854 0.6050797
0001d0 7b d2 0c bd d2 1e e4 3e a2 6b 18 3f c5 ca 35 bd
       -0.034380417 0.44554764 0.59539235 -0.04438283
0001e0 21 0a e5 3e 29 2a 18 3f b5 92 2c bd 48 12 e5 3e
       0.4473429 0.5943933 -0.0421321 0.4474051
0001f0 f8 6a 17 3f 89 8f 1e bd
       0.59147596 -0.038711105

sequential_2/dense_8/BiasAdd/ReadVariableOp/resource f4 [65]
000000 3e 99 32 bb 12 29 0c 3d 21 76 3d 3d 1e 6b 38 3d
       -0.0027251984 0.034218855 0.046255235 0.04502403
000010 2d db 21 be 73 54 33 bd 81 e6 c6 3b 39 94 db 3c
       -0.15806265 -0.04378171 0.0060699587 0.026804077
000020 3e b8 b0 3b 1f 88 57 bd 14 55 85 3d 0b 08 59 3d
       0.005393057 -0.05262005 0.06510368 0.052986186
000030 57 05 87 bd c7 c3 1e be ab 3b 66 3d 05 f7 4e bd
       -0.06592815 -0.1550437 0.056209248 -0.050528545
000040 39 15 85 3c e0 2f ba 3a 75 44 59 3d 58 3d 2f bd
       0.016245471 0.0014204942 0.0530438 -0.04278311
000050 64 68 36 3d af 52 0c 3e d7 f2 fb bd 8c 84 15 bd
       0.04453315 0.13703416 -0.123021774 -0.03650336
000060 80 ae 6d 3d 40 dd 98 3d e2 11 53 bd 0a 56 a5 bd
       0.058027744 0.07464075 -0.051530726 -0.08073051
000070 fd c5 07 3d a9 a3 3f bd 02 db f3 bd af 9a 5c bc
       0.0331478 -0.046786938 -0.11907007 -0.013464614
000080 82 9e a8 bd fd 15 92 39 cc 75 c3 bc 8f 49 9e bd
       -0.08233358 0.00027863673 -0.02385988 -0.07728874
000090 11 9f a3 3d 0c 77 e8 3b 70 1b 42 bd 91 b2 48 bd
       0.07989324 0.0070942696 -0.047389448 -0.04899842
0000a0 5d 3f cf bd 12 73 a3 bd d6 3f 4a 3d 0c d1 c8 bd
       -0.101195075 -0.07980932 0.049377285 -0.098054975
0000b0 e3 0f 43 3d 0a 06 76 bc c4 d0 bd 3c c0 09 45 3b
       0.047622573 -0.015016088 0.023170836 0.0030065626
0000c0 b0 5f d1 3d 4f fe 8e bd 8d 85 69 3d 21 db 0b 3d
       0.10223329 -0.06982099 0.05701213 0.034144524
0000d0 e0 a9 86 bc ba 64 98 3c 3b b3 35 bb 62 64 16 3d
       -0.016438425 0.018602718 -0.0027725238 0.036716826
0000e0 3a 36 c6 3d e3 b6 9b bd eb 9e 5a 3d 19 03 10 3c
       0.09678312 -0.07603242 0.053374212 0.008789801
0000f0 6d c6 b0 bd a1 c7 af 3c e5 87 3a 3e 1f 41 5b bd
       -0.08631597 0.021457495 0.18215902 -0.0535289
000100 ad a4 d2 bd
       -0.10285316

sequential_2/dense_6/BiasAdd/ReadVariableOp/resource f4 [128]
000000 67 cf b4 3b a9 d5 8d 3d a4 ac 05 be d8 0e 37 be
       0.0055178883 0.06925518 -0.13054138 -0.17876756
000010 23 51 3c bc 7d 3d 69 bd 75 0c 0a be 1c 9a f5 bd
       -0.011493954 -0.056943405 -0.13481314 -0.11992285
000020 04 66 2e be 6b 62 ea be e4 b7 d3 be bc a4 44 bd
       -0.17031103 -0.45778212 -0.41351235 -0.048008665
000030 f9 03 91 be 99 28 0f be 3f d5 55 be f0 67 96 be
       -0.28323343 -0.1398033 -0.20882128 -0.29376173
000040 09 1f 37 bd 06 c7 01 3c 27 01 8a 3d 87 79 77 be
       -0.04470733 0.007920986 0.06738501 -0.24167453
000050 d1 8a 74 3d f1 f4 01 be 7f ab 9a bd a9 c1 46 be
       0.0597027 -0.12691094 -0.075522415 -0.19409813
000060 c6 5a ad bd d6 38 76 bb b1 ad 28 3d 35 d5 e3 bd
       -0.08464579 -0.0037570498 0.04118127 -0.111246504
000070 38 57 6e ba ec a5 bf be 8e ed 8a bd 4b 15 e1 bd
       -0.0009091976 -0.37431276 -0.06783591 -0.109903894
000080 7e 31 da bb 5f 24 3e be 05 37 b1 be 96 d0 41 3a
       -0.006658732 -0.18568562 -0.3461229 0.00073934474
000090 ad f5 b6 bc e6 36 f0 bd f6 e0 25 be d8 96 2b be
       -0.022333944 -0.11729221 -0.16199097 -0.16756761
0000a0 85 c7 bd be 3d 2f ac bd 28 2d 02 3e 9f 9c a1 be
       -0.37066284 -0.084074475 0.12712538 -0.31564805
0000b0 d6 00 35 be f6 aa 81 bd 0a 8a 86 3d 69 0c a4 be
       -0.176761 -0.06331436 0.065692976 -0.32040718
0000c0 d4 2a ea bb fb 2f bd bc c4 d8 82 be 5c b9 a1 be
       -0.007146219 -0.023094168 -0.25556004 -0.3158673
0000d0 f9 d6 71 be bb da a5 be 09 74 b9 be f5 1c 38 bd
       -0.23617162 -0.3239344 -0.3622134 -0.04494949
0000e0 a2 cf 7d be 45 f6 b8 3d e6 69 dd 3d b8 84 cd bd
       -0.24786237 0.09031347 0.10811214 -0.1003508
0000f0 bf 51 2c be 2b 65 2e be 4f 87 d2 3e 8d 03 c7 3c
       -0.16828059 -0.1703078 0.41118857 0.024293685
000100 02 21 a9 bd 7c e9 13 be 96 ac 8c be 7a 97 f6 bd
       -0.08258249 -0.14444536 -0.27475423 -0.120406106
000110 37 fd 14 3e 4c 37 97 be e4 84 85 be 75 7e 90 bb
       0.14549719 -0.29534376 -0.2607795 -0.004409606
000120 48 b5 4f 3d 73 72 03 3e e5 17 a3 3c ad 95 85 bd
       0.050709993 0.12836628 0.019908855 -0.06522689
000130 48 76 88 3c cf ea 53 3d 0a 26 39 be 63 63 f1 3d
       0.016657963 0.051737603 -0.18080917 0.11786535
000140 db 3b 2e be 65 78 a9 be c1 65 97 3d f4 4e 06 bd
       -0.1701502 -0.33099666 0.07392455 -0.03279014
000150 9a e4 3d be a6 61 b0 bd 0f 62 9d be fd f5 bc 3c
       -0.18544236 -0.08612375 -0.30738875 0.023066515
000160 c8 5c 89 be 70 39 0a 3e 35 f5 4c be ff 84 25 be
       -0.268286 0.13498473 -0.20015414 -0.16164015
000170 e4 0e 08 be 14 4c c8 3d 42 a3 93 3d 66 31 21 be
       -0.1328693 0.09780136 0.07208873 -0.157415
000180 4e 27 39 be e3 d7 6b be 47 50 14 be 71 aa 3e 3e
       -0.180814 -0.23031573 -0.14483748 0.18619706
000190 7c 16 55 3c 9f 2d dc bd 23 a0 ee bd d9 1c 6a be
       0.013005849 -0.10750889 -0.116516374 -0.22862567
0001a0 fc d8 29 be 1f bf 9a 3d c5 24 80 be 0b 05 21 be
       -0.16586679 0.07555985 -0.25028053 -0.1572458
0001b0 87 6d 6a 3d a0 8c c1 3d 91 2a e3 3d 1f 23 7d 3d
       0.05723336 0.0945065 0.11092103 0.061801072
0001c0 5b 32 de 3b b3 80 12 be 43 af 54 be 1a 93 3c be
       0.006780905 -0.14306907 -0.20769982 -0.1841549
0001d0 6c a0 d6 bd 28 bc e3 bd 38 6a 9f bd 7f 78 a5 bd
       -0.10479817 -0.11119872 -0.077839315 -0.080796234
0001e0 57 ae 5c be fa 3d 04 3e 12 87 ba bd d3 fc e3 bd
       -0.2155088 0.12914267 -0.09107794 -0.11132207
0001f0 e4 6c d4 bd b8 58 70 3e cc cc 67 be 3b c7 13 3e
       -0.10372332 0.23471344 -0.22636718 0.14431469

sequential_2/dense_8/MatMul f4 [65, 32]
000000 b5 40 8f 3d a8 3a 04 be 86 c3 e1 be 7c eb 31 be
       0.06994764 -0.12913 -0.44094485 -0.17374986
000010 12 ba 49 3d 95 45 8f 3e 01 7f 3a bd 53 3b 2c bf
       0.049249716 0.27982774 -0.045531277 -0.6727802
000020 15 49 90 3d 6c 5d 78 be 2e 49 3a 3d 5d e5 be 3e
       0.07045189 -0.24254388 0.045479946 0.37284365
000030 e0 58 40 3e d9 c7 40 be 36 56 31 be 49 00 ae be
       0.18783903 -0.18826236 -0.17318043 -0.33984593
000040 a1 39 58 3e ea de b1 3e 62 b1 ca be 62 a8 87 3e
       0.21115734 0.34740382 -0.39588457 0.26495653
000050 69 ef 8b 3c 9e 25 a5 be a8 19 3d bc c8 c1 53 bf
       0.017081933 -0.32255262 -0.011541761 -0.8271756
000060 d0 58 1a 3d 2f 31 bf be ce 70 e0 3d f9 f1 73 bd
       0.037682354 -0.37342212 0.10959016 -0.059556935
000070 68 19 49 bd f8 08 27 3d b8 bd 9d be c4 91 08 bf
       -0.049096495 0.040780038 -0.30808806 -0.5334742
000080 6c af 81 be d9 0b 8b 3e bd 80 02 bf b1 63 48 bf
       -0.2532915 0.27157477 -0.5097769 -0.78277117
000090 50 b8 33 bd 4d 8e 48 be 1e 4b 6a 3b eb 3d 7d bd
       -0.043876946 -0.19585533 0.003575034 -0.061826628
0000a0 2b ca b5 be 0a 8c 32 bc 09 80 e0 3e 07 84 95 be
       -0.35505804 -0.010897646 0.43847683 -0.2920229
0000b0 81 43 c8 be 30 f4 b5 bd 9f f2 86 3e ea 87 c1 be
       -0.39114 -0.08884466 0.2635698 -0.37799007
0000c0 88 f2 00 bf cb a5 85 be f9 00 a3 3c 1f eb a1 be
       -0.50370073 -0.26103052 0.019897925 -0.31624696
0000d0 ab bc 9e 3e e3 fe d2 bd 22 4b 20 3e dd 6f c5 be
       0.31003317 -0.10302522 0.15653661 -0.38561907
0000e0 15 88 56 be 16 97 d6 3d 61 ed 74 3e 08 e3 2b 3e
       -0.20950349 0.10478036 0.23918678 0.16785824
0000f0 79 69 1c 3e 39 d4 ee be 99 2b da 3d df 2e 42 bc
       0.1527461 -0.46646288 0.10652847 -0.011851995
000100 60 de 3c 3e 20 a9 a8 be 1a fd 41 be b1 50 90 be
       0.18444204 -0.32941532 -0.18944207 -0.28186563
000110 f3 d9 82 be cf a1 be 3c 79 60 2c bf 5b 35 f4 bd
       -0.25556907 0.023270516 -0.67334706 -0.11924239
000120 a2 2a 8d 3e 37 4a 8f be bc 13 cc be 4a 55 f3 be
       0.2757159 -0.2798631 -0.39858806 -0.47526008
000130 eb 70 39 bc c1 65 a5 3d f9 01 20 be b5 e9 34 3e
       -0.011318426 0.08076049 -0.15625753 0.17667277
000140 6e 47 f8 be 66 9a ed 3c 9b a3 38 bf cc 02 d9 3d
       -0.48491997 0.029004287 -0.7212464 0.105962366
000150 bd 58 7e 3e 95 23 62 3e 47 4e f0 3e de 86 44 3d
       0.24838538 0.22083886 0.4693472 0.047980182
000160 37 28 94 be 88 e0 ca be a1 32 32 3e 83 a9 f8 be
       -0.28936931 -0.3962443 0.17402126 -0.48566827
000170 50 0b 97 bd cd da 0a be ee 85 40 3e 76 f4 65 3c
       -0.073752046 -0.13560028 0.1880109 0.014035335
000180 64 b4 ad 3d 1e 72 d2 3d 81 57 33 bd 27 24 4b 3e
       0.084816724 0.102756724 -0.043784622 0.1983801
000190 d4 2b 32 3e 62 30 f3 bd 33 ae d2 bd 93 d5 94 3e
       0.17399532 -0.11874463 -0.10287132 0.29069194
0001a0 07 ec db bd c4 36 dc be 70 0f c0 bd 87 74 8d be
       -0.10738378 -0.43010533 -0.093779445 -0.27627966
0001b0 8c 24 96 be 26 c7 b7 3e 71 7b d8 be 7a 15 34 bd
       -0.29324758 0.35894126 -0.42281678 -0.043965794
0001c0 94 17 a0 3d f5 2e 56 3e 8c 57 0e be aa 4d e9 3c
       0.07816997 0.2091635 -0.13900584 0.028479416
0001d0 d6 35 2f be fc d8 c5 bd 46 95 4a bd 3f 17 f5 be
       -0.1711038 -0.09660527 -0.049458764 -0.47869298
0001e0 c7 16 9b bd 3f 90 0b bf 29 52 86 be ed 95 6d 3d
       -0.07572704 -0.5451698 -0.26234558 0.05800431
0001f0 a5 22 99 bc b1 b3 45 3c 28 be e4 3d d0 ed 4d bd
       -0.018693278 0.012066768 0.11169082 -0.050275624
000200 41 5d 94 3d 9a 5f 54 be 73 28 e6 be b3 e4 9f bd
       0.07244349 -0.20739594 -0.44952735 -0.07807293
000210 b9 aa 40 be 12 bb ea 3e f7 e6 85 be 6e bc eb 3e
       -0.18815126 0.45845848 -0.26152775 0.46042198
000220 12 bf 8c 3e b4 4c 17 bf 62 15 78 be b1 ec 6f be
       0.27489525 -0.59101415 -0.24226907 -0.23430134
000230 21 da d9 bd fd 65 7c be 0d 39 f7 be e7 34 b0 3e
       -0.10637308 -0.2464828 -0.48285714 0.3441536
000240 6b 73 83 be ae 9c 07 bf f3 a7 a5 be 95 32 bb 3c
       -0.25673994 -0.5297345 -0.32354698 0.022851268
000250 d5 03 94 bd b0 b1 ef be 02 10 e0 be 60 f8 81 3e
       -0.072272934 -0.46815252 -0.43762213 0.25384808
000260 f8 c3 a8 bd 43 85 b7 be 0c f5 98 be d2 cf b3 be
       -0.08240503 -0.35843858 -0.29874456 -0.35119492
000270 49 a6 cf 3d e1 ac e9 be fe d9 e9 be 92 ad c6 be
       0.10139138 -0.4563971 -0.45674127 -0.388043
000280 09 4b f0 3e c2 0a 2e be a0 23 86 3e 86 75 a1 3d
       0.46932247 -0.16996291 0.26199055 0.07883744
000290 e0 12 15 bf ff 50 81 be b3 0e 7d be a9 2d 8b be
       -0.58231926 -0.25257108 -0.24712639 -0.27183273
0002a0 fe d7 c2 3a e6 3a 0b be 93 b9 da 3d bb cf 44 bf
       0.0014865396 -0.13596687 0.10679927 -0.7687947
0002b0 0d bf e6 be c0 14 4c 3d 46 38 85 be 0d 51 a7 3e
       -0.45067635 0.049824476 -0.26019496 0.32679024
0002c0 ff ad 07 bf 19 e6 e6 be da 0c 84 be 4b c3 b8 3d
       -0.5299987 -0.45097426 -0.25791055 0.09021624
0002d0 4b 2d 3a 3d 1a 02 26 bf b1 cf e0 3e 92 2f ba be
       0.04545335 -0.64846957 0.43908456 -0.36364418
0002e0 b0 33 dc be 13 a3 32 be 4e 34 47 be 2c 78 23 be
       -0.43008184 -0.1744502 -0.19453546 -0.1596381
0002f0 96 ec 38 be ac 47 64 3e 0f 6d 7d 3d bf 66 67 be
       -0.18059 0.22292966 0.061871585 -0.22597788
000300 b2 51 81 be 22 6e 0e 3e f3 4b eb be c1 84 7e be
       -0.2525764 0.139092 -0.45956382 -0.24855329
000310 af b6 42 be 88 ac 88 be 59 89 b9 be 11 39 7f be
       -0.19015001 -0.2669413 -0.362376 -0.24924113
000320 75 dc 44 bf 92 62 94 3e d0 22 a8 3d 7a 19 c0 3e
       -0.7689889 0.28981453 0.08209765 0.37519437
000330 5b d9 44 be 91 9b 98 3e 78 27 8b 3e 72 d3 1f be
       -0.1922354 0.29806188 0.2717855 -0.15608004
000340 b9 73 05 bf ac a7 ad 3d 46 1f c2 bd d9 67 3d bd
       -0.52129704 0.084792465 -0.09478621 -0.046241615
000350 51 d5 a4 3d 34 bc 22 3e 61 13 aa be 36 f9 5e be
       0.080484994 0.15892106 -0.3321791 -0.21774754
000360 2a d1 a2 be e8 c3 cc 3c 4a 0e ea be 6d f8 3d bd
       -0.31800205 0.02499576 -0.45714027 -0.046379495
000370 c4 a6 c7 bd 90 d9 86 be f7 cb 77 be 7f bb 04 3e
       -0.09748605 -0.26337862 -0.241989 0.12962149
000380 c6 da bd be 7e a2 05 be 76 66 6b 3e 0e 1c 2a bf
       -0.37080973 -0.13050267 0.22988304 -0.6644906
000390 3c 18 d2 bc 97 04 5f 3d 7c 12 3b 3d 80 94 c5 3d
       -0.025646321 0.054447737 0.045671925 0.09647465
0003a0 ef b4 9d 3e 55 c2 bc be b9 c3 0b bf 6b cc a4 be
       0.30802104 -0.36867014 -0.54595524 -0.3218721
0003b0 38 d6 b5 3d b0 0d a8 3d 3c 30 fc bd 4f 6a 5e be
       0.088787496 0.08205736 -0.123138875 -0.21720241
0003c0 25 99 15 bf f8 ec d8 3d b0 a8 0f be 32 bb 1b be
       -0.58436805 0.10592073 -0.14029193 -0.15208128
0003d0 63 67 2f bf 77 3a 2f be 06 6d 91 be ea 9a f1 3d
       -0.6851713 -0.17112146 -0.2840349 0.11797126
0003e0 5b 8a c3 be 90 79 77 be 96 e9 ef 3d 31 13 83 be
       -0.38191494 -0.24167466 0.11714475 -0.2560058
0003f0 90 ad 32 3e 2a 64 b7 3e ab fb a0 3e e7 de be 3d
       0.17449021 0.35818607 0.31442007 0.09319859
