model_with_preprocessing.tflite (tflite, 89532 bytes, 7 tensors)

truediv;truediv/y;sequential_1/dense_3/MatMul;sequential_1/dense_3/Relu;sequential_1/dense_3/BiasAdd f4 [128, 126]
-2.420717 1.0249393 -83068.47 -2.4149146 1.28075 -1.6036474 -0.56592286 0.26943865
9.867286 2.971566 -0.10014901 2.7897348 4.4495535 -0.8793432 9.249566 -0.88851583
0.7240964 -4.2412753 0.043345843 -0.85833603 4.170746 0.4140648 -1.611414 7.108228
0.28304183 -1.5141834 0.8745937 -0.115808256 0.9628022 1.5619558 0.29862913 -1.5634458
-4.0788136 1.3667947 0.71938413 -1.9133583 -0.19970883 0.2684496 -1.7017767 -1.0467957
0.7166673 3.6989846 0.70480186 -1.6991551 -2.4583135 -0.14336361 -0.5357684 4.0233946
-0.4012227 -1.3153005 5.0857663 -1.6287726 -0.4876308 3.0202184 -0.9916694 -1.5371351
1.7643479 1.0468075 -0.99665624 4.3052945 1.2139205 -0.4386105 0.51918364 -0.7398487
1.6974646 -530030.6 0.25176403 1.0922451 -1.4703126 0.022625573 0.72217476 -5.2538147
3.3574147 0.62949413 3.6505332 8.162397 1.0389986 -1.7900825 -2.079481 1.9517472
-10.376168 -1.8259937 0.10248706 -6.5714917 -1.4154308 1.0796473 -2.6331975 -1.5409935
1.2840433 -0.30794418 -0.7357963 0.26135945 -6.043864 -1.4501872 -0.35560855 1.4856156
-1.9106538 0.96767336 -2.0005405 -1.3888729 -0.27287972 2.9737856 -0.6934836 1.3816649
1.8468528 -0.91921 -0.27548397 -2.043429 -1.3163006 0.25259855 -0.6678356 -1.2295823
0.42409596 -0.38489163 -0.90678483 1.6402088 -1.786704 -0.85504305 -0.9579282 -2.9827938
-0.15190129 -1.0712388 -2.2824278 0.6223898 -2.0360107 -12.712556 -0.92559767 1.3232613
1.0991854e+06 1.6771356 0.3900913 4.6832943 0.23647393 -0.01597656 3.7054937 2.371059
-0.06571402 2.4622073 1.8256582 -0.39713585 3.3373713 1.1833351 1.4256629 -2.105999
2.0767152 1.6147399 -0.7203698 2.1235437 0.68395877 0.5756365 1.3054266 2.714663
0.8263128 -0.9695665 0.9317892 -1.4904991 1.6103238 0.039254695 3.5563097 0.58916914
0.55031437 2.1045504 -0.5908299 0.48632252 3.0854788 -0.795603 2.7908912 4.489871
-1.1411492 0.46408814 0.76119703 0.56857187 -0.32763878 -2.111665 -1.3554121 1.0079066
0.32064936 -1.0896541 1.8079193 3.827578 -0.9223136 0.04664457 4.1229305 -1.3495681
-0.48844558 3.9419158 -1.5766132 0.099016994 2.468949 0.088327974 3.003538 23425.824
0.21464649 1.2645166 -11.63027 0.65248483 -0.04762126 3.1150725 3.6380963 -1.4207791
-1.3197043 3.4043217 -1.1904856 -2.458879 -0.8486669 -2.354861 14.269159 1.3559191
-1.6854625 1.8517213 1.77529 -1.4321505 -2.1385362 2.6753628 -1.4958092 -2.598587
-1.5084974 -1.0415133 9.07702 -1.2128884 -3.5235715 -0.55022454 -1.3126482 -2.0744145
-1.0250107 -0.9361175 0.18977539 6.5709434 -2.3160515 -0.68533665 6.5589633 -1.2388166
-2.132162 1.2966007 -0.6244305 -1.0255846 1.9823209 -0.025625201 0.56292576 1.4832426
-0.50808007 -0.59751403 -0.54484 -1.8429404 -0.33877757 -2.437092 -0.6656853 -0.16738093
0.89269036 -1.5356205 -0.71738327 -0.29012 -0.9565571 -1.1451137 -2.1407272e+06 -1.0236459
00000000: 07ed 1ac0 3631 833f 3c3e a2c7 f68d 1ac0
00000010: 9eef a33f 5144 cdbf 52e0 10bf ddf3 893e
00000020: 67e0 1d41 232e 3e40 ed1a cdbd 048b 3240
00000030: be62 8e40 a31c 61bf 39fe 1341 c675 63bf
00000040: 625e 393f 87b8 87c0 698b 313d e9bb 5bbf
00000050: c076 8540 4d00 d43e d042 cebf 9b76 e340
00000060: dcea 903e c3d0 c1bf 5fe5 5f3f e12c edbd
00000070: 347a 763f 2bee c73f ebe5 983e fe1e c8bf
00000080: a485 82c0 21f3 ae3f 8f29 383f ede8 f4bf
00000090: 7980 4cbe 3a72 893e d2d3 d9bf 67fd 85bf
000000a0: 8277 373f 2abc 6c40 e56d 343f ea7d d9bf
000000b0: 0255 1dc0 e9cd 12be 1e28 09bf a6bf 8040
000000c0: 106d cdbe c45b a8bf 99be a240 9f7b d0bf
000000d0: bfaa f9be 424b 4140 0cde 7dbf d8c0 c4bf
000000e0: 27d6 e13f cafd 853f dd24 7fbf f9c4 8940
000000f0: bf61 9b3f 8e91 e0be 38e9 043f b966 3dbf
00000100: 8546 d93f ea66 01c9 37e7 803e b0ce 8b3f
00000110: 3433 bcbf 4459 b93c 72e0 383f 401f a8c0
00000120: e2df 5640 8726 213f 56a2 6940 2e99 0241
00000130: e8fd 843f 6c21 e5bf 3716 05c0 dad2 f93f
00000140: c904 26c1 29ba e9bf bce4 d13d a949 d2c0
00000150: d62c b5bf e231 8a3f 4f86 28c0 463f c5bf
00000160: 885b a43f dcaa 9dbe 255d 3cbf e8d0 853e
00000170: 5567 c1c0 bc9f b9bf 5312 b6be a728 be3f
00000180: 4e90 f4bf 71b9 773f db08 00c0 96c6 b1bf
00000190: e4b6 8bbe 8152 3e40 2488 31bf 65da b03f
000001a0: ac65 ec3f 5951 6bbf 3c0c 8dbe 8ac7 02c0
000001b0: 8a7c a8bf 9954 813e 46f7 2abf f462 9dbf
000001c0: 1b23 d93e 8410 c5be 0d23 68bf 5df2 d13f
000001d0: b7b2 e4bf 1ae4 5abf c83a 75bf 18e6 3ec0
000001e0: 038c 1bbe 5a1e 89bf 4c13 12c0 f054 1f3f
000001f0: 004e 02c0 a166 4bc1 f8f3 6cbf a060 a93f
00000200: 8b2d 8649 61ac d63f 0cba c73e 8cdd 9540
00000210: 3926 723e 46e1 82bc cf26 6d40 6ebf 1740
00000220: 1295 86bd ce94 1d40 2baf e93f 6455 cbbe
00000230: 7e97 5540 8677 973f 1f7c b63f b0c8 06c0
00000240: e7e8 0440 ccaf ce3f 286a 38bf 24e8 0740
00000250: ec17 2f3f ea5c 133f 3818 a73f 0abd 2d40
00000260: 3c89 533f 8335 78bf bd89 6e3f adc8 bebf
00000270: 171f ce3f 88c9 203d 949a 6340 cad3 163f
00000280: 67e1 0c3f f4b0 0640 a140 17bf 44ff f83e
00000290: 7c78 4540 a3ac 4bbf f69d 3240 06ad 8f40
000002a0: 2d11 92bf f69c ed3e cfdd 423f ed8d 113f
000002b0: 45c0 a7be 8525 07c0 257e adbf 1503 813f
000002c0: 272c a43e c979 8bbf e669 e73f 0af7 7440
000002d0: be1c 6cbf 600e 3f3d 0cef 8340 a6be acbf
000002e0: 8a15 fabe 5948 7c40 76ce c9bf 6cc9 ca3d
000002f0: 4303 1e40 4ce5 b43d f739 4040 a603 b746
00000300: 4acc 5b3e aedb a13f 9615 3ac1 3f09 273f
00000310: 830e 43bd 595d 4740 92d6 6840 17dc b5bf
00000320: 12ec a8bf 68e0 5940 d561 98bf 465e 1dc0
00000330: 3c42 59bf 0bb6 16c0 7a4e 6441 c28e ad3f
00000340: 3cbd d7bf 3405 ed3f b43c e33f b550 b7bf
00000350: c7dd 08c0 2539 2b40 ad76 bfbf 404f 26c0
00000360: 7116 c1bf 4f50 85bf 793b 1141 ed3f 9bbf
00000370: 3282 61c0 84db 0cbf db04 a8bf 35c3 04c0
00000380: 8d33 83bf 65a5 6fbf 7b54 423e 2b45 d240
00000390: 303a 14c0 3972 2fbf 07e3 d140 8b91 9ebf
000003a0: 5875 08c0 03f7 a53f adda 1fbf 5b46 83bf
000003b0: b1bc fd3f f1eb d1bc e71b 103f e5da bd3f
000003c0: 8911 02bf aef6 18bf a27a 0bbf 79e5 ebbf
000003d0: 4174 adbe 51f9 1bc0 5a6a 2abf e865 2bbe
000003e0: 5b87 643f 368f c4bf 6ea6 37bf 9c8a 94be
000003f0: ede0 74bf 1693 92bf dda8 02ca d406 83bf

sequential_1/dense_4/MatMul;sequential_1/dense_4/Relu;sequential_1/dense_4/BiasAdd f4 [32]
0.74197763 -4.33034 3.471335 4.550973 -5.1135874 -3.740159 2.7407994 9.68552
0.94407326 6.4205146 -1.114382 5.742188 5.8092294 2.1133394 -1.0404644 5.161993
6.5785723 5.411964 6.562289 7.594607 4.293577 5.893471 9.021586 2.9771457
-3.109789 10.058203 3.2946768 16.143087 0.9736515 3.0902987 1.7880753 11.613259
00000000: 3ff2 3d3f 2592 8ac0 5a2a 5e40 92a1 9140
00000010: 82a2 a3c0 c45e 6fc0 4269 2f40 e4f7 1a41
00000020: c9ae 713f db74 cd40 12a4 8ebf 01c0 b740
00000030: 35e5 b940 f440 0740 f02d 85bf 0c2f a540
00000040: aa83 d240 cf2e ad40 46fe d140 0507 f340
00000050: fc64 8940 5097 bc40 6b58 1041 8e89 3e40
00000060: c806 47c0 66ee 2041 fcdb 5240 0b25 8141
00000070: 3a41 793f 74c7 4540 a7df e43f e9cf 3941

sequential_1/batch_normalization_1/batchnorm/mul_1;sequential_1/batch_normalization_1/batchnorm/add_1;sequential_1/dense_4/MatMul;sequential_1/dense_4/Relu;sequential_1/dense_4/BiasAdd f4 [32, 128]
-0.4545013 0.15547411 0.13935435 0.060114354 -0.6375811 0.21885388 0.08366245 -0.52228767
-0.41367933 -1.291071 0.1164923 0.142659 0.0051171957 -0.051349167 0.37167847 -0.07923955
-0.11839269 0.07514114 -0.100677475 0.005895424 0.3045058 -0.083604746 -0.0030028988 0.3762214
-0.46851182 0.26184168 0.06890938 0.012508504 -0.15799308 -0.11095765 0.65596384 -0.0424643
0.083642475 -0.29230183 -0.03271758 0.2760538 0.059002902 -0.36015278 -1.1870753 -0.42636645
0.08045291 0.07038484 0.52362955 -0.87579036 0.8533977 0.014292839 -0.561589 0.3164886
-0.013438415 0.12466239 0.18307522 0.19741867 0.08791426 0.3685083 -0.23657005 0.73962665
-0.25041035 0.21462446 0.4443493 0.4089758 0.18333955 -0.14587912 -0.014519669 -0.20912515
0.033714544 0.32374063 0.32515422 -0.060354825 0.21996526 0.0392645 -0.24111216 -0.12517118
-0.15013899 0.41780964 -0.54795027 0.110536404 0.3960811 0.43678063 0.27906668 0.40981784
-0.03012006 -0.5379817 0.19023305 0.04074592 -0.14928009 -0.24645388 0.13680522 -0.4958094
-1.5739493 -0.10192984 -0.20261088 -0.5600199 0.11035281 -0.0851634 -0.017541297 0.12108323
0.019923326 -0.33766133 0.12878098 -0.59203553 -0.044812568 0.58774966 0.5061354 0.51428896
0.25268123 0.4761794 0.10950028 -0.28538063 -0.18173769 0.26279423 -0.4351104 0.3697353
0.59279215 -0.20364955 0.38102967 0.1611969 -0.16595027 -0.22452934 0.52594393 -0.050967436
0.1853118 -0.26964924 -0.0035020695 -0.13250595 -0.1962297 0.33619902 -0.23088208 0.63819855
0.733162 0.4424525 -0.1686803 0.24796742 0.5667875 -0.82527786 0.028715374 0.11060612
-0.101343155 0.8283531 -0.07218382 0.05347322 -0.06122437 0.10127826 0.66930574 -0.0113664875
-0.060893368 0.09394714 0.11195385 -0.18062842 -0.4989912 0.05805673 -0.030131305 0.008302862
0.105375014 0.0072957925 -0.18610246 -0.20002379 -0.17357549 -0.07512984 0.70317274 0.018044671
-0.25761345 -0.39113012 -0.10698314 -0.39803877 0.41810018 -0.11609474 -0.095595874 0.3111631
0.11371911 -0.46444777 0.43360212 0.5472832 -0.87540185 -0.16752036 0.6147459 0.46023485
0.1222622 -0.03423635 0.13176891 0.0054727234 -0.24653451 -0.036901012 0.15455893 -0.18512455
0.005104311 -0.039095204 -0.5955247 0.120429255 1.0696268 0.74007857 -0.02833676 0.12246543
0.20294829 -0.25130332 -0.02059638 -0.27212912 0.25534397 0.03020865 0.39402404 0.70938915
0.05362109 0.4664486 0.8493014 0.36527693 0.010706978 -0.11443447 -0.33308175 0.7477259
-0.19398278 0.25474688 -0.40065402 0.69661236 0.14784767 0.7157573 -0.07215953 -0.020329857
1.2709224 -0.009115316 0.08435362 0.56688225 -0.36808774 0.27198693 -0.020219302 -0.009994769
0.46000043 -0.0010814391 -0.15187767 -0.16476539 -0.010287202 0.6044732 0.15404178 0.2071247
0.23616898 -0.52037776 -0.13101952 0.64970213 0.27628893 -0.25730208 -0.021182062 0.9273873
0.47364753 -0.106544994 -0.46122125 0.15583976 -0.2795308 0.13067926 0.8386269 -0.10269812
-0.028200788 -0.36567768 0.18645401 0.19459797 -0.06294238 0.27281412 -0.12148087 -0.5455433
00000000: 65b4 e8be 9b34 1f3e e8b2 0e3e 783a 763d
00000010: 8438 23bf 3b1b 603e 3857 ab3d a5b4 05bf
00000020: c7cd d3be d141 a5bf 8493 ee3d 3315 123e
00000030: 26ae a73b 8153 52bd a44c be3e 5848 a2bd
00000040: de77 f2bd 99e3 993d fe2f cebd 672e c13b
00000050: 2fe8 9b3e f738 abbd 48cc 44bb 17a0 c03e
00000060: c8e0 efbe 1d10 863e 5c20 8d3d 78f0 4c3c
00000070: f0c8 21be c43d e3bd 3fed 273f 0cef 2dbd
00000080: bf4c ab3d 96a8 95be df02 06bd ec56 8d3e
00000090: 07ad 713d f265 b8be 15f2 97bf b44c dabe
000000a0: 7fc4 a43d ed25 903d 960c 063f cc33 60bf
000000b0: 4678 5a3f 832c 6a3c 4cc4 0fbf cb0a a23e
000000c0: cc2c 5cbc ff4e ff3d 1278 3b3e 1f28 4a3e
000000d0: 640c b43d 1fad bc3e 6b3f 72be 2c58 3d3f
000000e0: c935 80be 84c6 5b3e c081 e33e 4765 d13e
000000f0: 5dbd 3b3e 5661 15be e8e3 6dbc e724 56be
00000100: 4318 0a3d 55c1 a53e 9d7a a63e 9f36 77bd
00000110: 933e 613e d0d3 203d 1be6 76be e02c 00be
00000120: 09be 19be 25eb d53e 7846 0cbf e960 e23d
00000130: 24cb ca3e b6a1 df3e d4e1 8e3e a5d3 d13e
00000140: 58be f6bc 2bb9 09bf 74cc 423e 32e5 263d
00000150: e1dc 18be 685e 7cbe ab16 0c3e bbda fdbe
00000160: 2c77 c9bf 98c0 d0bd 3a79 4fbe 775d 0fbf
00000170: a700 e23d 266a aebd c4b2 8fbc 7cfa f73d
00000180: 3e36 a33c f2e1 acbe 29df 033e a48f 17bf
00000190: 628d 37bd c376 163f 1792 013f 71a8 033f
000001a0: 6f5f 813e c9cd f33e af41 e03d 691d 92be
000001b0: 7219 3abe f78c 863e cac6 debe f24d bd3e
000001c0: 3ac1 173f 8289 50be 5216 c33e cd10 253e
000001d0: deee 29be 05eb 65be 43a4 063f 3bc3 50bd
000001e0: 60c2 3d3e 770f 8abe fa82 65bb a4af 07be
000001f0: 70f0 48be 4722 ac3e 5a6c 6cbe fb60 233f
00000200: 81b0 3b3f 2289 e23e 87ba 2cbe 2ceb 7d3e
00000210: fc18 113f 6945 53bf 813c eb3c 7685 e23d
00000220: 008d cfbd f30e 543f 1cd5 93bd bc06 5b3d
00000230: 68c6 7abd fa6a cf3d 9f57 2b3f 813a 3abc
00000240: 536b 79bd 5c67 c03d 0f48 e53d a8f6 38be
00000250: c67b ffbe e5cc 6d3d edd5 f6bc ba08 083c
00000260: dbce d73d 8b11 ef3b a591 3ebe 09d3 4cbe
00000270: c6bd 31be acdd 99bd 2103 343f 6bd2 933c
00000280: e9e5 83be 3542 c8be fa19 dbbd bdcb cbbe
00000290: 3a11 d63e 14c3 edbd c5c7 c3bd c550 9f3e
000002a0: 91e5 e83d 19cc edbe 1901 de3e c01a 0c3f
000002b0: 561a 60bf 758a 2bbe fd5f 1d3f e7a3 eb3e
000002c0: 9b64 fa3d 6a3b 0cbd 6eee 063e 8854 b33b
000002d0: 8b73 7cbe 8425 17bd b244 1e3e 4a91 3dbe
000002e0: 1042 a73b 4b22 20bd 4f74 18bf 9da3 f63d
000002f0: 88e9 883f ca75 3d3f 7e22 e8bc 28cf fa3d
00000300: add1 4f3e d4aa 80be bdb9 a8bc 8254 8bbe
00000310: 72bc 823e 2178 f73c 85bd c93e 879a 353f
00000320: caa1 5b3d 5ad2 ee3e d16b 593f 9405 bb3e
00000330: 526c 2f3c 9f5c eabd b189 aabe f76a 3f3f
00000340: 6ca3 46be 2f6e 823e 8622 cdbe 3055 323f
00000350: 6165 173e df3b 373f 60c8 93bd cd8a a6bc
00000360: 96ad a23f 6858 15bc 97c1 ac3d 321f 113f
00000370: ff75 bcbe df41 8b3e f3a2 a5bc 19c1 23bc
00000380: 2d85 eb3e 13bf 8dba d285 1bbe 42b8 28be
00000390: a78b 28bc c1be 1a3f 21bd 1d3e 7f18 543e
000003a0: 48d6 713e 7a37 05bf fb29 06be e152 263f
000003b0: be75 8d3e 19bd 83be 0186 adbc 4169 6d3f
000003c0: ee81 f23e 4334 dabd 3125 ecbe 7594 1f3e
000003d0: a91e 8fbe c9d0 053e 41b0 563f 6453 d2bd
000003e0: 5705 e7bc 1b3a bbbe cded 3e3e b144 473e
000003f0: efe7 80bd 4bae 8b3e f6ca f8bd baa8 0bbf

sub/y f4 [126]
0.44408348 0.6122412 9.6604936e-08 0.44951293 0.5857173 -0.00894665 0.4551668 0.5552569
-0.018179547 0.45950252 0.5378205 -0.02773885 0.46106055 0.52783304 -0.03709046 0.45059153
0.51765126 -0.01973498 0.45683247 0.48792595 -0.03612076 0.46017146 0.47410023 -0.046406884
0.46256813 0.46315542 -0.052854568 0.44904408 0.5263089 -0.02461976 0.45821097 0.51222867
-0.042074215 0.46223688 0.517959 -0.04763895 0.46387878 0.5177034 -0.04954504 0.4476593
0.54229146 -0.030319199 0.45700276 0.5335098 -0.04693829 0.45997408 0.5407016 -0.045923438
0.46030453 0.5413914 -0.04263761 0.44628432 0.5617646 -0.036740668 0.45358738 0.55228055
-0.048072312 0.4564612 0.5535787 -0.045583032 0.4572204 0.55174685 -0.04178354 0.43715695
0.61793464 1.0059731e-07 0.4449781 0.5902942 -0.008804266 0.45362115 0.5595394 -0.01812587
0.4604604 0.54238486 -0.02769551 0.46379048 0.53280485 -0.037068624 0.44771284 0.52375644
-0.020836815 0.45578194 0.49334902 -0.03744534 0.4602399 0.47898328 -0.04774642 0.46326944
0.46760002 -0.0541512 0.44494268 0.5335491 -0.02570929 0.4565623 0.52025574 -0.04333885
0.461547 0.5263091 -0.04879169 0.4635706 0.5263408 -0.050626416 0.4422562 0.5505078
-0.031263422 0.45364344 0.5427897 -0.047936 0.45703655 0.55030686 -0.046644583 0.45736462
0.55120933 -0.043130632 0.4395637 0.5706088 -0.037501864 0.44805297 0.56178564 -0.048711922
0.45098972 0.5633731 -0.045938842 0.45150155 0.5617759 -0.041917153
00000000: e95e e33e d7bb 1c3f 2075 cf33 8f26 e63e
00000010: 92f1 153f f894 12bc 9f0b e93e 5125 0e3f
00000020: 46ed 94bc ea43 eb3e 9bae 093f 963c e3bc
00000030: 2110 ec3e 1120 073f 2bec 17bd efb3 e63e
00000040: cb84 043f 41ab a1bc f2e5 e93e 6ed1 f93e
00000050: 5df3 13bd 989b eb3e 44bd f23e 2515 3ebd
00000060: bbd5 ec3e b522 ed3e 087e 58bd 1be9 e53e
00000070: 2ebc 063f 61af c9bc a19a ea3e 6b21 033f
00000080: 0356 2cbd 50aa ec3e f698 043f 0f21 43bd
00000090: 8581 ed3e 3688 043f bdef 4abd 9a33 e53e
000000a0: 9dd3 0a3f f85f f8bc 44fc e93e 1994 083f
000000b0: 5d42 40bd b981 eb3e 6c6b 0a3f 371a 3cbd
000000c0: 09ad eb3e a098 0a3f c6a4 2ebd 617f e43e
000000d0: cecf 0f3f 627d 16bd 9b3c e83e 4262 0d3f
000000e0: 79e7 44bd 48b5 e93e 55b7 0d3f 46b5 3abd
000000f0: cb18 ea3e 483f 0d3f 3825 2bbd 09d3 df3e
00000100: f730 1e3f f507 d833 2bd4 e33e 851d 173f
00000110: c53f 10bc 0841 e83e f93d 0f3f b47c 94bc
00000120: 77c1 eb3e bcd9 0a3f b2e1 e2bc f275 ed3e
00000130: e665 083f 45d5 17bd 9e3a e53e e714 063f
00000140: f8b1 aabc 405c e93e 3e98 fc3e 4960 19bd
00000150: 90a4 eb3e 4c3d f53e c091 43bd a731 ed3e
00000160: 4569 ef3e a6cd 5dbd 87cf e33e ac96 083f
00000170: 4a9c d2bc 89c2 e93e 7b2f 053f 1484 31bd
00000180: e34f ec3e 31bc 063f ccd9 47bd 2059 ed3e
00000190: 45be 063f a55d 4fbd 686f e23e 14ee 0c3f
000001a0: 130e 00bd f443 e83e 44f4 0a3f 8a58 44bd
000001b0: b200 ea3e e9e0 0c3f 640e 3fbd b22b ea3e
000001c0: 0e1c 0d3f bfa9 30bd 7e0e e13e 6b13 123f
000001d0: 8e9b 19bd 3367 e53e 2fd1 0f3f 2786 47bd
000001e0: 20e8 e63e 3839 103f 5e2a 3cbd 362b e73e
000001f0: 8cd0 0f3f 52b1 2bbd

sequential_1/dense_5/BiasAdd/ReadVariableOp/resource f4 [37]
-0.054482434 0.07122713 -0.04920458 -0.068594255 0.11183865 -0.107339144 0.15983815 -0.016541785
-0.08993802 0.1995463 0.023682674 0.013051356 0.054874055 -0.13102727 -0.049209613 -0.17704943
-0.016718578 -0.1087853 -0.0035665126 0.06948526 -0.18429396 -0.042533673 0.050747465 0.04693478
-0.024766766 -0.065161824 0.10254722 0.19723909 -0.06813529 -0.23433535 0.047794785 0.013883885
-0.033263367 0.05906442 0.035216253 -0.026992554 -0.03502982
00000000: f928 5fbd 88df 913d be8a 49bd 257b 8cbd
00000010: aa0b e53d a0d4 dbbd 9dac 233e a382 87bc
00000020: 6d31 b8bd de55 4c3e 2b02 c23c 5bd5 553c
00000030: 9ec3 603d 032c 06be 0590 49bd 724c 35be
00000040: 66f5 88bc d4ca debd 27bc 69bb 4a4e 8e3d
00000050: 8eb7 3cbe ca37 2ebd 93dc 4f3d af3e 403d
00000060: ace3 cabc 9073 85bd 4704 d23d 0bf9 493e
00000070: 848a 8bbd 9bf5 6fbe 77c4 433d 3c79 633c
00000080: 2b3f 08bd 89ed 713d eb3e 103d 7d1f ddbc
00000090: 6e7b 0fbd

sequential_1/dense_3/BiasAdd/ReadVariableOp/resource f4 [128]
0.118367225 -0.09021026 -0.3624457 0.054011162 -0.30103195 0.24180993 -0.17089155 0.03012734
-0.44734922 -0.49493188 -0.29972282 -0.22133303 -0.5264146 -0.054596517 0.018377632 -0.45781308
-0.45357296 -0.20581706 -0.46898153 -0.20435454 -0.4154876 -0.3195419 -0.12376418 -0.21098502
-0.10712833 -0.53608495 0.09604875 -0.19434074 0.1625251 -0.35370052 -0.06233711 -0.8555635
0.49373484 0.0057405527 -0.56533295 -0.72835416 -0.038354997 -0.107521966 -0.6727241 -0.09731222
-0.3580224 -0.36353737 -0.24387887 -0.38857785 -0.47519606 -0.2842419 -0.73152864 -0.54377633
-0.3335252 -0.5338223 -0.31908935 -0.6326595 -0.07983072 -0.11744485 -0.24975346 0.06218923
0.3046818 0.6560972 0.00620634 -0.053334426 -0.40096557 -0.3036819 -0.26804364 0.20770516
0.1890641 0.067757934 -0.06566851 -0.39929888 -0.74285805 -0.46683663 -0.12372609 -0.333624
-0.36404762 -0.28926677 -0.29121327 -0.77066195 -0.23273501 -0.3988454 -0.5145954 -0.16232024
-0.14418149 0.110109515 0.46853957 -0.7090155 -0.2264 -0.4530749 -0.41314593 -0.1977839
-0.5242365 -0.24883229 -0.72644764 -0.14145546 -0.1981379 0.10436055 -0.2872345 -0.1451504
-0.3486537 -0.8184278 -0.12166655 0.16678622 -0.28226286 0.079021625 -0.75845414 -0.5805777
0.29666173 -0.15423773 -0.4367 -0.039539058 -0.19524272 0.39994502 0.2578034 -0.5867642
-0.8100743 -0.12595794 0.37182665 -0.4407894 0.14009325 0.13804759 -0.10805934 -0.04709212
-0.9681951 0.09485228 -0.31466755 0.23051892 -0.31463796 -0.5545359 -0.0526537 -0.14642885
00000000: 846a f23d 28c0 b8bd 7c92 b9be cf3a 5d3d
00000010: dc20 9abe 069d 773e 32fe 2ebe 9dcd f63c
00000020: f50a e5be b667 fdbe 4575 99be 20a5 62be
00000030: 1bc3 06bf 99a0 5fbd b08c 963c 7a66 eabe
00000040: b73a e8be b5c1 52be 591e f0be 5142 51be
00000050: caba d4be ff9a a3be 1378 fdbd 750c 58be
00000060: 1966 dbbd dd3c 09bf 35b5 c43d 4201 47be
00000070: fb6c 263e 3c18 b5be 3355 7fbd 3606 5bbf
00000080: d0ca fc3e 3f1b bc3b a9b9 10bf 6b75 3abf
00000090: 211a 1dbd 7a34 dcbd a637 2cbf a14b c7bd
000000a0: b64e b7be 9221 babe 62bb 79be adf3 c6be
000000b0: e64c f3be 2888 91be 7645 3bbf ed34 0bbf
000000c0: d1c3 aabe 94a8 08bf ae5f a3be f9f5 21bf
000000d0: 4a7e a3bd ed86 f0bd 5fbf 7fbe 22ba 7e3d
000000e0: 41ff 9b3e fcf5 273f 8e5e cb3b 3375 5abd
000000f0: 5c4b cdbe 327c 9bbe 043d 89be a9b0 543e
00000100: 059a 413e acc4 8a3d 367d 86bd e770 ccbe
00000110: f22b 3ebf 3605 efbe 1b64 fdbd c4d0 aabe
00000120: 7364 babe c61a 94be e819 95be 1a4a 45bf
00000130: 1652 6ebe 7735 ccbe 86bc 03bf 4737 26be
00000140: 50a4 13be 1981 e13d 6be4 ef3e 0a82 35bf
00000150: 67d5 67be 6ff9 e7be dd87 d3be dd87 4abe
00000160: 5d34 06bf e4cd 7ebe 79f8 39bf b3d9 10be
00000170: a9e4 4abe fcba d53d 6610 93be 4ea2 14be
00000180: bd82 b2be 7c84 51bf 502c f9bd 02ca 2a3e
00000190: c284 90be 17d6 a13d 0d2a 42bf bda0 14bf
000001a0: 0ce4 973e 7ff0 1dbe 2497 dfbe b5f3 21bd
000001b0: b5ed 47be 98c5 cc3e cffe 833e 2e36 16bf
000001c0: 0861 4fbf 1efb 00be 1060 be3e 26af e1be
000001d0: 9b74 0f3e 595c 0d3e 374e ddbd abe3 40bd
000001e0: a2db 77bf ea41 c23d 1b1c a1be 270d 6c3e
000001f0: 3a18 a1be 11f6 0dbf 68ab 57bd 72f1 15be

sequential_1/dense_5/MatMul f4 [37, 32]
0.023452416 0.17014919 -0.4507111 -0.7066857 0.14492494 -0.7776325 -0.5055709 -0.34385827
0.42050657 -0.16239145 -0.31565443 0.2609055 0.10076057 -0.7365168 -0.4555631 0.21310495
0.34852827 -0.48888782 0.31815258 -0.6379399 -0.5152282 0.11096841 -0.07881252 0.3222775
0.047173023 -0.09649701 0.062628575 -0.78875166 -0.41447863 -0.7159628 0.2530807 0.44232368
0.10562347 -0.17193015 -0.0487487 -0.7188334 0.15068299 0.026116284 -0.47627333 0.23579751
0.43933836 -0.010093431 0.07409609 -0.06495559 -0.6171634 -0.14108358 0.54947263 -0.49957556
-0.07138519 -0.5626052 0.18079714 -0.59806293 0.1799755 -0.87553865 -0.5356629 -0.2355389
-0.40109947 -0.22396332 -0.06826 -0.8204502 0.5565087 -0.17238571 -0.110153124 -0.05251612
0.2262919 0.06299125 0.123007216 0.5015736 0.6179911 -0.33342943 -0.39732367 0.4559691
0.23140706 -0.5478743 -0.15769853 -0.3799628 -0.5368174 -0.076305665 -0.15263514 -0.5036819
-0.14692807 -0.1855953 0.16349629 -0.21319246 -0.35553423 -0.20858249 0.1938635 -0.2709854
-0.053609204 0.36711422 0.18530227 0.064086296 -0.15363646 -0.42985034 -0.048686195 -0.35852063
0.62830323 -0.12690823 0.43111038 -0.35643277 -0.843395 0.08115335 0.019251209 0.045435946
0.39272895 -0.5258902 0.19099315 -0.06053721 -0.74778533 0.15411177 0.03029592 -0.8646757
-0.43531057 -1.0410889 0.6363005 0.15655915 -0.09038611 -1.2041931 -0.23052976 -0.5910949
-0.84769785 -0.2511378 -0.8198417 -0.51367897 -0.30289745 0.42606393 -0.652054 -0.5827337
-0.5921137 -0.82067263 -0.32025814 0.48606262 -0.19666101 -0.008083001 -0.47524315 -0.2501295
0.09944036 0.4345144 -0.515227 0.28203776 -0.09313801 -0.43545237 -0.14383826 -0.7928288
-0.81645554 -0.3301083 -0.12919617 0.26114365 -0.19664639 0.02439502 -0.08960963 0.7363442
0.37592173 -0.3513955 0.05322086 -0.08646049 -0.23632337 0.09150161 0.36009398 -0.14487666
-0.3811073 -0.25810722 -0.33746195 -0.32998922 -0.03563957 -0.06499508 -0.11024168 -0.41453034
-0.51046836 0.16571362 -0.4939383 0.35161418 0.44301274 -0.4576913 -0.1407899 0.1888598
-0.97348887 0.25483274 0.14031832 -0.87521565 -0.6398587 -0.07557502 0.033601172 -0.7600804
0.0467493 0.1438437 0.4599659 -0.83412683 0.15731046 0.05782872 0.37587133 -0.18878049
0.05663644 -0.23554096 0.111097135 -0.61265093 -0.22887342 -0.5669511 -0.9786118 -0.56942093
0.12497033 -0.22556986 -0.9134114 -0.4977355 -0.24073738 0.37940258 0.037148774 0.28306937
-0.21648502 -0.026054572 0.05491848 -0.4927316 -0.17429501 0.21925619 0.4377689 0.41777787
-0.033704866 -0.000995224 0.03987486 0.07794899 0.009848114 -0.13141327 0.08824932 0.0033913273
-0.27465117 -0.5645874 -0.96711344 -0.9643396 -0.61346227 -0.13133194 -0.2374505 0.06595033
0.087267905 -0.87126887 -0.77922213 0.29762787 -0.9023631 -0.128623 -0.38633218 -0.48831487
0.3259273 -0.22752579 0.055075794 0.41800737 0.54136056 -0.15432721 -0.31366107 -0.7482346
-0.09237922 -0.0063070804 0.4243317 0.10288237 0.16915041 -0.2040056 -0.4941833 0.45495054
00000000: 481f c03c 973b 2e3e 9bc3 e6be 5be9 34bf
00000010: 3467 143e ec12 47bf 186d 01bf 310e b0be
00000020: a34c d73e f249 26be 759d a1be 6895 853e
00000030: 8f5b ce3d 5d8c 3cbf 913f e9be 2f38 5a3e
00000040: 4c72 b23e 814f fabe e5e4 a23e 0750 23bf
00000050: ffe5 03bf 6843 e33d 7568 a1bd 8e01 a53e
00000060: 8038 413d 39a0 c5bd 6943 803d a1eb 49bf
00000070: 8b36 d4be 5749 37bf cb93 813e 4078 e23e
00000080: 1e51 d83d 750e 30be b8ac 47bd 7705 38bf
00000090: a44c 1a3e d1f1 d53c 19da f3be e774 713e
000000a0: f5f0 e03e eb5e 25bc b1bf 973d 7007 85bd
000000b0: 6cfe 1dbf 3778 10be 3daa 0c3f 5ec8 ffbe
000000c0: 6632 92bd e506 10bf e322 393e a71a 19bf
000000d0: 7f4b 383e 4d23 60bf 3421 09bf 1c31 71be
000000e0: e95c cdbe a456 65be e6cb 8bbd 0609 52bf
000000f0: 5b77 0e3f e185 30be f697 e1bd 251b 57bd
00000100: 10b9 673e 8e01 813d 35eb fb3d 2167 003f
00000110: aa34 1e3f 43b7 aabe 026e cbbe c874 e93e
00000120: f9f5 6c3e 7d41 0cbf b97b 21be 7c8a c2be
00000130: dd6c 09bf 2546 9cbd 634c 1cbe 4cf1 00bf
00000140: 5074 16be b20c 3ebe 926b 273e 204f 5abe
00000150: 9508 b6be a696 55be 2784 463e 99be 8abe
00000160: 5395 5bbd 65f6 bb3e e1bf 3d3e ad3f 833d
00000170: e052 1dbe 5815 dcbe 2d6b 47bd 0490 b7be
00000180: 7bd8 203f 3bf4 01be 80ba dc3e 5b7e b6be
00000190: bce8 57bf ba33 a63d b6b4 9d3c 0b1b 3a3d
000001a0: c513 c93e bda0 06bf b593 433e def5 77bd
000001b0: dc6e 3fbf 7acf 1d3e 262f f83c 635b 5dbf
000001c0: 07e1 debe 6742 85bf 97e4 223f 0b51 203e
000001d0: 5a1c b9bd 0023 9abf fe0f 6cbe ff51 17bf
000001e0: ba02 59bf 2295 80be 25e1 51bf 7780 03bf
000001f0: 6015 9bbe 0d25 da3e 03ed 26bf 092e 15bf
00000200: c394 17bf 9a17 52bf e0f8 a3be 33dd f83e
00000210: 8161 49be 906e 04bc 1253 f3be f910 80be
00000220: 63a7 cb3d ac78 de3e ebe5 03bf 4167 903e
00000230: 24bf bebd 9df3 debe 564a 13be d4f6 4abf
00000240: 3b03 51bf f503 a9be 004c 04be 9fb4 853e
00000250: ac5d 49be 11d8 c73c 4185 b7bd 0e81 3c3f
00000260: d078 c03e 1cea b3be 1efe 593d 3312 b1bd
00000270: c1fe 71be 3265 bb3d 3d5e b83e 8c5a 14be
00000280: 7f20 c3be a126 84be d0c7 acbe 59f4 a8be
00000290: ccfa 11bd 241c 85bd 64c6 e1bd 523d d4be
000002a0: 0eae 02bf d5b0 293e 7be5 fcbe c606 b43e
000002b0: 91d2 e23e 8456 eabe 3a2b 10be 7764 413e
000002c0: 9136 79bf 7079 823e 9baf 0f3e 220e 60bf
000002d0: c8cd 23bf 13c7 9abd 62a1 093d a194 42bf
000002e0: 327c 3f3d c34b 133e a780 eb3e 5689 55bf
000002f0: fe15 213e cfdd 6c3d 3572 c03e ac4f 41be
00000300: 9dfb 673d a631 71be e586 e33d b1d6 1cbf
00000310: cb5d 6abe b523 11bf 4e86 7abf 92c5 11bf
00000320: 72f0 ff3d c9fb 66be 54d5 69bf 30d7 febe
00000330: dc83 76be 0e41 c23e 5029 183d 78ee 903e
00000340: 40ae 5dbe 6670 d5bc 33f2 603d 5147 fcbe
00000350: 647a 32be b284 603e 3f23 e03e fbe6 d53e
00000360: 1d0e 0abd 2d72 82ba d253 233d b8a3 9f3d
00000370: fc59 213c 3391 06be 0fbc b43d 0841 5e3b
00000380: 149f 8cbe cd88 10bf bf94 77bf f6de 76bf
00000390: dd0b 1dbf e17b 06be 3926 73be f710 873d
000003a0: 84b9 b23d 7a0b 5fbf 1a7b 47bf ae62 983e
000003b0: 4501 67bf bfb5 03be 55cd c5be 6804 fabe
000003c0: f1df a63e 85fc 68be 2897 613d 1005 d63e
000003d0: 9b96 0a3f f407 1ebe 2f98 a0be 4e8c 3fbf
000003e0: 5131 bdbd a0ab cebb 0142 d93e feb3 d23d
000003f0: c435 2d3e d8e6 50be 9805 fdbe 47ef e83e
