standard_scaler_model.tflite (tflite, 1712 bytes, 2 tensors)

truediv;truediv/ReadVariableOp f4 [63]
000000 43 bc c1 40 9b 84 d9 40 c9 1c 4b 4a e0 e3 d6 40
       6.054231 6.797437 3.3277942e+06 6.715317
000010 10 eb d8 40 14 5c 95 42 e9 b7 ea 40 4d 62 d8 40
       6.778694 74.67984 7.33495 6.7619996
000020 8e 0a 41 42 ed 30 f3 40 29 aa d4 40 18 e2 13 42
       48.260307 7.5997224 6.6457715 36.970795
000030 1f 14 f0 40 b4 d8 ce 40 90 50 ec 41 89 ea dc 40
       7.502456 6.463953 29.539337 6.90363
000040 95 52 d5 40 c5 d3 28 42 e9 a9 e7 40 ac 31 d1 40
       6.666331 42.206806 7.239491 6.5373135
000050 41 10 f3 41 c7 04 e9 40 02 21 cd 40 17 e5 ce 41
       30.382936 7.281833 6.4102793 25.86186
000060 e2 6e e5 40 fb d3 c7 40 58 d4 bb 41 a7 18 d4 40
       7.1697855 6.2446265 23.478683 6.6280093
000070 31 30 d2 40 c5 6e 2e 42 76 27 e7 40 cb 54 cb 40
       6.5683827 43.608173 7.223567 6.3541007
000080 cf 14 e9 41 6b 00 ed 40 1a dc c3 40 be 99 d3 41
       29.13516 7.406301 6.120618 26.45007
000090 08 55 eb 40 77 d7 bc 40 4c 72 ca 41 d2 67 cb 40
       7.35413 5.901302 25.305809 6.3564234
0000a0 74 3d cf 40 32 51 27 42 bb 3e dd 40 6d b6 c8 40
       6.4762516 41.829292 6.9139075 6.272269
0000b0 15 00 e5 41 a8 a5 e2 40 ba fa c1 40 7b 15 e6 41
       28.62504 7.0827217 6.0618563 28.760489
0000c0 03 2f e2 40 18 a9 bb 40 cf bf e7 41 2b 71 c3 40
       7.0682387 5.8643913 28.968657 6.1075644
0000d0 3e f3 cc 40 51 6b 14 42 aa 46 cf 40 2f ff c8 40
       6.4046926 37.1048 6.477376 6.2811503
0000e0 ed 80 e6 41 93 5d d3 40 16 15 c5 40 7c 08 e9 41
       28.812952 6.6051726 6.158824 29.129143
0000f0 4c 26 d3 40 b9 a2 c0 40 72 3c eb 41
       6.598425 6.0198636 29.404514

sub/ReadVariableOp f4 [63]
000000 ff d2 e7 3e 2a 73 25 3f 09 b6 8d 33 f4 27 ea 3e
       0.45278165 0.6462885 6.598936e-08 0.45733607
000010 7f fd 1e 3f 4d c5 fb bb 20 0d ec 3e 37 66 17 3f
       0.62105554 -0.007683432 0.46103764 0.5914034
000020 70 22 81 bc 0a 62 ed 3e d6 e7 12 3f 09 75 c7 bc
       -0.015763491 0.4636386 0.57385004 -0.024347799
000030 30 ac ed 3e fa 30 10 3f 82 c7 05 bd 67 7c e9 3e
       0.4642043 0.5632473 -0.03266097 0.45602724
000040 27 43 0e 3f 88 a7 8b bc f3 d8 eb 3e 03 8b 07 3f
       0.55571216 -0.017047659 0.46063957 0.5294649
000050 f2 fc 04 bd 0b 91 ec 3e 21 a7 04 3f 75 8f 2d bd
       -0.03246779 0.4620441 0.5181752 -0.04237314
000060 9b d3 ec 3e df 51 02 3f 98 d1 46 bd 46 8d e8 3e
       0.46255192 0.50906175 -0.048539728 0.45420283
000070 29 23 10 3f 84 d4 b4 bc 7b 4b ec 3e a0 30 0c 3f
       0.5630365 -0.022073992 0.46151337 0.54761696
000080 75 8d 1b bd ed e1 ec 3e 2b 91 0c 3f ea fe 31 bd
       -0.0379767 0.46266118 0.5490901 -0.043455996
000090 e4 82 ec 3e ce da 0b 3f ae 0e 3b bd 6d dd e7 3e
       0.46193612 0.54630744 -0.045668297 0.45286122
0000a0 fa ba 13 3f 73 9e e4 bc 7a 8e eb 3e e3 ef 10 3f
       0.5770718 -0.027907586 0.46007138 0.5661604
0000b0 2d 77 2f bd d3 e0 eb 3e cd ad 11 3f 6b a6 2c bd
       -0.042838264 0.46069965 0.56905824 -0.042150896
0000c0 8c 40 eb 3e b9 37 11 3f d7 c8 21 bd be 46 e7 3e
       0.45947683 0.5672565 -0.039498176 0.4517116
0000d0 c9 33 18 3f 49 1c 0d bd aa 2c ea 3e 7c 96 15 3f
       0.5945402 -0.034450803 0.457372 0.58432746
0000e0 e4 6f 36 bd 3c 99 ea 3e b0 5a 15 3f a7 51 2d bd
       -0.0445403 0.45820034 0.58341503 -0.042314198
0000f0 43 32 ea 3e 02 87 14 3f 49 7d 1f bd
       0.45741472 0.58018506 -0.03893784
