Real-time Testing/model_with_preprocessing.tflite (tflite, 93156 bytes, 7 tensors)

truediv;truediv/y;sequential/dense/MatMul;sequential/dense/Relu;sequential/dense/BiasAdd f4 [128, 126]
000000 22 aa 0d c0 d6 c8 0b be 99 a5 20 c9 f4 b2 ff bc
       -2.213509 -0.13650832 -658009.56 -0.031213261
000010 99 30 7f bf c3 9c aa 3f 3a 5a 2c bd a7 d9 3b bf
       -0.9968353 1.332909 -0.042078234 -0.73378986
000020 11 ab e3 40 80 2f 14 40 0e 2a 9e 3e f2 d2 3f 40
       7.114632 2.3153992 0.3089146 2.99725
000030 aa 74 a7 3f 84 20 02 3f 8b 6a 60 40 11 29 81 bf
       1.3082478 0.50830865 3.5065029 -1.0090657
000040 ab 4f 44 c0 c8 a3 39 40 3a 6a a8 3e d6 86 df bf
       -3.0673625 2.9006214 0.32893544 -1.7463024
000050 54 a5 c6 bd f6 c3 20 40 eb 4b a0 3f b6 12 b9 bf
       -0.096995026 2.5119605 1.2523168 -1.4458835
000060 5d b4 64 40 84 59 99 3f 54 a2 e2 3f 31 be 7c c0
       3.5735085 1.1980443 1.7705789 -3.9491084
000070 25 54 0a c0 05 54 8f c0 c5 80 08 bf 40 04 3e c0
       -2.1613858 -4.4790063 -0.53321487 -2.9690094
000080 41 a4 ab 40 bd 76 5c 3f 08 53 37 c0 45 0d 49 3f
       5.3638005 0.8611868 -2.8644428 0.7853587
000090 73 62 8c 3f 08 9d 0a c0 00 8e bb be d6 45 2a c0
       1.0967544 -2.1658344 -0.36631775 -2.6605124
0000a0 a6 f7 12 c0 bd 93 9e c0 9f 55 46 bf 36 c3 4f bf
       -2.2963653 -4.9555345 -0.774744 -0.81157243
0000b0 8d f9 74 40 69 30 1d 3f 4b 94 df bf 86 8b fe 3f
       3.8277314 0.61401993 -1.746713 1.9886329
0000c0 0e 38 e1 3f 89 1b d2 bf 8a 1e 1e c1 2d 44 85 c0
       1.7595232 -1.6414653 -9.882456 -4.1645722
0000d0 27 bb 81 3f a7 9d 36 40 5a 68 da be a4 4f bb 3f
       1.0135239 2.8533723 -0.4265774 1.4633679
0000e0 ad cf e7 3f 7d 2a b9 3e 14 76 ed 3f 6c c6 c7 3e
       1.8110253 0.36165228 1.855166 0.3901857
0000f0 8c 4c 10 3e 6a 58 a5 3e ec 3d 1b c1 d0 5d b8 bf
       0.140917 0.32294017 -9.702618 -1.4403629
000100 e9 b2 40 40 b7 f3 2f 49 9d c2 46 3f 59 e5 13 3f
       3.0109198 720699.44 0.77640706 0.5777183
000110 c2 7e ff 40 cc b0 98 3c 53 dc 7f 3f 2c 04 5a 41
       7.9842234 0.01863899 0.99945563 13.626019
000120 99 f7 d7 3f 45 98 34 bf a9 4c 34 41 c5 58 ca 3e
       1.6872436 -0.70544845 11.268716 0.3952085
000130 39 db 08 bf 6a d8 11 41 46 a5 15 c0 f9 73 6f bf
       -0.5345951 9.115335 -2.3382125 -0.93536335
000140 49 58 32 c0 ba a4 4e bf 8b d0 95 bf 75 a1 c1 bf
       -2.7866385 -0.807201 -1.1704267 -1.5127398
000150 82 c2 22 3e 5c 64 92 3f c4 62 97 40 56 b3 25 40
       0.15894511 1.1436877 4.7308064 2.5890708
000160 ae 4b fd 3f 22 20 87 40 73 8c fb bf 0f 2b a9 bf
       1.9788721 4.2226725 -1.9652237 -1.3216265
000170 8c bf a8 c0 f2 a1 a0 bf c9 2c aa be de ea b7 3f
       -5.273382 -1.2549422 -0.33237293 1.4368551
000180 c2 fb 5b 3e 60 21 03 3f 75 a2 cb 40 56 28 65 3f
       0.21482757 0.512228 6.363581 0.8951467
000190 db 4b 00 bf e7 89 81 40 7f 9c 49 c0 14 f4 95 3e
       -0.50115746 4.048084 -3.1501768 0.2928778
0001a0 84 20 c6 40 54 7f 8b bf ff e0 34 3f 14 b9 cd 40
       6.191469 -1.0898232 0.70655817 6.4288425
0001b0 70 73 ff 3f 36 8a 81 3f a6 67 17 be 23 55 0b 40
       1.9957104 1.0120304 -0.14785632 2.1770713
0001c0 78 b8 9d 3d 03 8e 2d c1 e4 91 24 c0 26 9a 63 40
       0.077012 -10.847171 -2.5714045 3.5562835
0001d0 a2 b1 22 41 e2 35 f4 bf b1 c5 45 40 93 6a ab 40
       10.168367 -1.9078944 3.0901911 5.3567595
0001e0 09 3b c0 be 03 36 23 40 dd 0e f3 bb cd e6 c9 3f
       -0.3754504 2.5501716 -0.0074175433 1.577356
0001f0 60 dd 56 40 75 7a 19 c1 4e da 1a c0 52 2e 48 3f
       3.3572617 -9.592397 -2.4195743 0.7819568
000200 69 18 60 49 e9 46 f2 bf ed cd 20 3f 97 ae 82 c1
       917894.56 -1.892789 0.6281422 -16.335249
000210 f0 9a 8d bf 84 52 ab bf e3 4b 33 c1 48 07 be bf
       -1.1062908 -1.3384557 -11.206027 -1.4845972
000220 23 08 2e c0 fb c2 40 c1 7b 06 a2 bf e3 7f ea bf
       -2.7192466 -12.047603 -1.2658228 -1.8320278
000230 17 e3 e2 c0 61 93 28 bf e0 28 fd 3f 95 b3 27 c0
       -7.090221 -0.6584988 1.9778099 -2.6203358
000240 60 b6 eb 3e 4a 4b 5f bf df 20 72 40 13 07 1d 40
       0.4603758 -0.87224257 3.7832563 2.4535568
000250 b2 1f 52 bf 6c eb c3 3e 13 d4 9b 40 91 04 76 bf
       -0.82079613 0.3826555 4.869638 -0.9610072
000260 14 28 7e 40 4a 9a bd bf 6f 56 3b 40 aa a4 e4 40
       3.9711962 -1.481271 2.9271505 7.1451006
000270 cf 66 c1 be 63 fe af 3f 20 52 6d 40 48 29 a1 3f
       -0.3777375 1.3749508 3.7081375 1.2590723
000280 7b 3c 09 3f cb 71 0e 40 f0 ae 11 40 f2 be bb bf
       0.5360791 2.2256954 2.2763023 -1.4667647
000290 57 a5 ec 40 ba f6 d2 3e c8 fa 6a 40 ca db 18 41
       7.395183 0.41203862 3.6715565 9.553659
0002a0 a5 80 32 be e5 6a e8 3f 82 c0 d0 40 ea a5 80 be
       -0.17431886 1.8157622 6.5234995 -0.25126582
0002b0 8e f7 4d 3f 5e 99 9f c0 77 8e 01 c0 69 a6 4b 3f
       0.80455863 -4.9874716 -2.0243204 0.79550797
0002c0 2c c0 16 c0 e5 82 34 3e 81 1c 78 40 a7 d2 49 41
       -2.3554792 0.17628057 3.8767397 12.613929
0002d0 4b bc 18 3f ae c7 34 40 15 7a dc 40 06 f1 92 be
       0.5966231 2.8246875 6.8899026 -0.2869951
0002e0 5a 5e ad be f0 40 79 3d d0 6d ef 3d 73 ab 21 3c
       -0.33861047 0.060852945 0.11690867 0.009867537
0002f0 b9 96 09 c1 aa a5 b0 bf d7 ad 81 3f aa 01 ab c6
       -8.599298 -1.3800557 1.0131177 -21888.832
000300 47 a7 ba be 3d 7e 94 3f c0 5f 9c c1 bf 2b d6 bf
       -0.36455747 1.1601025 -19.546753 -1.67321
000310 0e e4 d4 3d 0b 3c 17 c1 53 33 97 bf 39 10 09 c0
       0.103950605 -9.452159 -1.1812538 -2.1416152
000320 df cd 29 c1 13 bc c2 bf e1 c0 5e c0 61 9f 70 c0
       -10.6127615 -1.5213646 -3.4805224 -3.7597277
000330 de a6 94 3e ee b1 75 bf 6a 38 9f 40 d4 9f 05 40
       0.2903356 -0.95974624 4.9756365 2.0878801
000340 f1 d4 19 c0 fb c4 de 3f 01 4c 58 40 ac 38 f0 bf
       -2.403622 1.7403864 3.379639 -1.8767295
000350 26 9e b4 40 ae c3 a8 40 d8 e5 a5 bf 81 1b 2f 41
       5.644305 5.2738867 -1.2960768 10.944215
000360 f2 9d 07 be ad 46 70 3f 31 0e 62 41 0b d8 6a 3f
       -0.13243845 0.9385784 14.128465 0.91735905
000370 d0 dc f0 3d 63 01 a2 bf 2e 0c 16 40 29 6c 15 bf
       0.11760867 -1.2656673 2.3444934 -0.58368164
000380 68 4f a4 40 12 a5 8f 40 8c 00 4f bf 9b b7 e2 40
       5.134693 4.4889 -0.8086021 7.084913
000390 d1 2f af 3e 4f 14 e4 3f 4b 56 43 41 43 a3 c0 3f
       0.3421617 1.7818698 12.208568 1.5049824
0003a0 4d bd fd 3e 5d 5a 34 c0 34 95 ef 3e 7a 47 e9 3e
       0.49558488 -2.8180153 0.4679352 0.45562345
0003b0 ca ef 87 bf 36 84 4a bf dc e6 f7 be a9 af 91 bf
       -1.0620053 -0.7910799 -0.4841832 -1.1381732
0003c0 6e e5 05 3f 20 67 1c 40 01 52 07 40 93 fa a1 be
       0.52303207 2.4437943 2.1143801 -0.31636485
0003d0 82 07 89 3f 64 07 25 3f 42 59 75 3e 02 f2 03 c0
       1.0705416 0.644644 0.2395983 -2.061646
0003e0 84 27 06 c1 da de d8 3e a0 b7 42 c0 9e 36 a9 bf
       -8.384647 0.42357522 -3.0424576 -1.3219793
0003f0 fa 79 e3 bf d3 af 09 c0 e5 fc c0 48 38 6a 20 c0
       -1.7771599 -2.1513565 395239.16 -2.506483

sequential/dense_1/MatMul;sequential/dense_1/Relu;sequential/dense_1/BiasAdd f4 [32]
000000 3d 6f 2d 41 b9 02 e5 3e e4 81 82 40 4d b7 24 40
       10.839658 0.4472864 4.078356 2.5736878
000010 07 2b 81 c0 82 bf a5 40 4d a6 86 41 65 8d 96 3f
       -4.0365024 5.1796274 16.831202 1.17619
000020 48 66 32 c0 e6 bb 3e 40 98 83 86 40 43 ee 0f 40
       -2.7874928 2.9802184 4.2035637 2.2489173
000030 c9 c6 6b 41 6d 27 b3 be 12 b8 09 41 4f 5c 55 bf
       14.736032 -0.34991017 8.607439 -0.83343977
000040 05 b7 d3 40 2b a4 65 3e a3 27 2e 41 5b c7 87 3e
       6.6160913 0.22425906 10.884677 0.26519284
000050 54 e1 d0 40 a3 18 33 41 6a 2a 07 41 e4 5b 1e 41
       6.527506 11.193515 8.447855 9.897434
000060 e4 e5 6b 40 8a 84 f4 40 ec 51 04 41 72 a6 28 41
       3.6859064 7.641179 8.27 10.540636
000070 99 51 1c 40 ae dd 2e 40 94 29 f6 3f 06 7a 03 c0
       2.4424803 2.7322803 1.9231439 -2.0543227

sequential/batch_normalization/batchnorm/mul_1;sequential/batch_normalization/batchnorm/add_1;sequential/dense_1/MatMul;sequential/dense_1/Relu;sequential/dense_1/BiasAdd f4 [32, 128]
000000 16 58 60 3e dc bc e0 bd 87 b3 d9 bd 74 99 7b be
       0.21908602 -0.10973522 -0.10629945 -0.24570256
000010 65 c5 11 bf 90 85 e6 be 95 a2 3b be 04 ec 8e 3d
       -0.56941825 -0.45023775 -0.18323739 0.0697861
000020 71 a3 8a be 67 dd 26 bf be 52 f6 3d 06 c7 94 3d
       -0.2707782 -0.65181583 0.120275006 0.07264523
000030 e8 b5 8a bd f8 9d 86 be 2b d1 bd be 0a 0d c4 bd
       -0.06772977 -0.26292396 -0.37073645 -0.095727995
000040 39 07 ec bd 90 a8 8f 3e 3f 52 3a be 65 98 74 bf
       -0.11524815 0.2805829 -0.18195437 -0.95545036
000050 07 d8 dc bd 7e d2 95 be a8 26 ad be 6d 0e f0 bd
       -0.107833914 -0.29262155 -0.33818555 -0.117215015
000060 28 eb a5 3c 9c e3 d8 bd bf a5 a9 be 6e d2 42 3c
       0.020253733 -0.10590288 -0.33134267 0.011890991
000070 c5 76 89 3c eb e9 15 bf 99 c0 83 bf fb b4 93 be
       0.016780267 -0.58560055 -1.0293151 -0.28849015
000080 fe 48 e3 3d 83 71 04 3e 1b 98 67 be f1 a7 cb be
       0.110979065 0.12933926 -0.22616617 -0.39776567
000090 fa 16 d3 3e cd 09 b7 3d f0 a5 09 be 02 8f e1 be
       0.41228467 0.08937416 -0.13442206 -0.4405442
0000a0 e6 f2 ce 3e 6c 60 64 3f aa e9 a2 3e b5 15 f8 3e
       0.40419692 0.8920963 0.31818897 0.4845406
0000b0 8c 8e 7f 3d 7c 39 ac 3e 30 cf 92 3d 78 79 d4 bb
       0.062391803 0.33637607 0.07168424 -0.0064842068
0000c0 cf a5 4a 3e 5e 59 95 3d 20 27 0b bd 32 cf 04 bf
       0.19789813 0.07292436 -0.03397286 -0.51878655
0000d0 95 34 58 3f 7d 6d 92 3d 29 21 95 be 61 90 a1 3e
       0.84455234 0.071497895 -0.29126862 0.31555465
0000e0 b2 cf 6b 3e 3c 3b 64 3e 03 7f 24 3e 11 f6 7c be
       0.23028448 0.22288221 0.16064076 -0.24703242
0000f0 07 ef 61 be dd 0c 05 3e 45 0c 17 be 15 d9 c1 bd
       -0.22063838 0.12993188 -0.14750774 -0.09465233
000100 cb b9 45 bc 5e 4c 80 bd f0 d4 a0 be fb 53 46 3d
       -0.012068222 -0.06264566 -0.31412458 0.048419934
000110 f0 77 2a 3f 20 5b 06 3f 2c e8 93 be 6f ea cd bf
       0.6658926 0.52482796 -0.2888807 -1.6087168
000120 f1 26 90 3c 08 4c 2b bf 25 96 b0 3d 15 73 05 bd
       0.017596694 -0.6691289 0.08622388 -0.032580454
000130 3b 2f 90 3e c6 3b 07 bc 0c 6c 20 bf 74 84 8a 3c
       0.28161034 -0.008253997 -0.62664866 0.016908862
000140 30 66 a3 3e f4 34 7b 3d aa ea de 3d 86 88 14 bf
       0.319139 0.061329797 0.10884602 -0.5802082
000150 f1 ca 26 be 96 1f 43 bf b6 8a 02 be 23 29 2e be
       -0.16288354 -0.7622007 -0.12748227 -0.1700788
000160 4d b5 d8 bd ce 1f 28 be ea 86 35 3e 42 bd c7 be
       -0.105814554 -0.16418383 0.17727247 -0.3901158
000170 5b 1c b6 3d e1 00 81 bd 2d e9 a6 3e 62 dc 70 bc
       0.08892127 -0.06298996 0.32599774 -0.014700981
000180 86 b6 9a 3d 76 22 b0 3e 02 a8 06 3d c8 a5 c0 be
       0.07554345 0.34401292 0.03287507 -0.3762648
000190 5e 99 cc be be 22 40 3e b5 59 73 bf 43 34 0e be
       -0.3996076 0.18763253 -0.9505876 -0.13887124
0001a0 2c b9 61 bf ce 14 f2 bd 49 60 a0 be 00 5b 65 be
       -0.88173175 -0.118203744 -0.3132346 -0.22397995
0001b0 ec 88 86 3f 92 f2 a7 3d e3 7e 7a 3e 7a 6d ea 3e
       1.0510535 0.082005635 0.24462466 0.4578665
0001c0 86 0c 06 bf 45 17 ab bd c9 dc 65 bd a7 e8 0a bf
       -0.5236286 -0.08354048 -0.05611876 -0.5426125
0001d0 dc b1 31 3b 6f df 82 be 90 dc 6a be 4d dc cd 3e
       0.002711407 -0.2556109 -0.229357 0.4020714
0001e0 67 3d 8c 3e 64 ae 78 bf a6 c9 b8 bd f2 78 08 bf
       0.27390596 -0.971411 -0.090228364 -0.5330955
0001f0 61 1f 9e be 7f b7 0b 3d fe 61 8f 3e 6a c0 d1 3c
       -0.30883315 0.034110542 0.2800445 0.025604445
000200 6d 9a 0a 3f 74 4b 04 be 04 c8 0f 3f 56 77 8e 3e
       0.54141885 -0.12919408 0.56164575 0.2782542
000210 1c 3a 18 bd ef 9c 3f bd 6c 10 2f 3f 10 05 b6 3c
       -0.037164792 -0.046780523 0.6838443 0.02221921
000220 49 c8 da be e0 64 42 be 63 5f 0c 3e 69 e9 2e be
       -0.4273093 -0.18983793 0.13708262 -0.17081226
000230 cb e4 ed bd db 8e 53 3e c6 03 8e 3d 2a 40 61 bf
       -0.116159044 0.20659964 0.069343135 -0.8798853
000240 27 46 20 3e fe 22 1a bd e1 5c fe 3d d9 c4 d0 3e
       0.15651761 -0.037631027 0.12420059 0.40775183
000250 26 38 a2 3e 9e 7b 0e bf 3f 46 9f bd 9d 6e c7 3c
       0.31683463 -0.55657375 -0.0777707 0.024344737
000260 c1 7a de be 72 67 f7 bd 0e 24 72 bf 59 c2 df 3d
       -0.4345303 -0.120802775 -0.94586265 0.10925741
000270 cb d3 de bd 42 87 35 3f 52 40 4d 3f a0 a9 c0 be
       -0.1088024 0.7090951 0.8017627 -0.37629414
000280 06 1d d4 be de 9b 2f be 68 14 16 bc d4 81 14 be
       -0.41428393 -0.17149302 -0.009160139 -0.1450265
000290 7e 43 8c bd 7d df c6 3e ac 6b 63 be fa 25 7a 3e
       -0.068488106 0.38842383 -0.22209042 0.2442855
0002a0 ff 8e 3c 3d 50 b3 89 3b 85 82 9e 3e 28 8f 41 3f
       0.04603481 0.004202284 0.30958953 0.75609064
0002b0 6d 24 24 3e 32 73 13 3e a8 58 65 3d 81 bb 4a 3d
       0.1602952 0.14399412 0.055992752 0.049495224
0002c0 3f af 46 be 44 1e 8b 3e 26 01 8b 3e d5 be 44 bf
       -0.19402789 0.27171528 0.27149314 -0.76853687
0002d0 42 e9 d4 3d 97 67 15 3e d5 09 cb bd 7b 56 8c bd
       0.10396053 0.14590298 -0.09913985 -0.06852432
0002e0 cf 56 ca 3d cf 44 80 3e 81 e4 ea 3d fb 53 05 3f
       0.09879839 0.25052497 0.11469365 0.5208127
0002f0 30 e4 da be 75 59 83 be a6 67 aa 3d c7 11 6e 3f
       -0.42752218 -0.25654188 0.083205506 0.92995876
000300 b8 ea 91 3d 86 bb 84 be 15 53 07 3f d9 aa 6e 3e
       0.07124847 -0.2592432 0.5286115 0.2330736
000310 98 3d 18 3f c0 57 17 3f b9 bd e7 bd 1b f3 91 3e
       0.59468985 0.5911827 -0.113154836 0.28505787
000320 0e 5b 2e 3e 3e e2 0f bf c9 f1 93 be 33 d9 2d bd
       0.17026922 -0.56204593 -0.28895405 -0.042443465
000330 ff b2 5f 3e a7 aa e2 3d 15 19 48 3f be 98 4e bf
       0.21845625 0.110677056 0.7816327 -0.80701816
000340 03 50 92 3e 4a 00 7f 3e 77 11 c1 3e 9d b6 42 3e
       0.2857667 0.24902454 0.37708637 0.19014974
000350 8a 80 00 be 63 de 9e 3f 1f d3 ae 3e 37 a2 cc bd
       -0.12549034 1.2411617 0.34145448 -0.099918775
000360 36 90 d6 3e 5d a5 94 3f 4c a0 c8 3e c7 fd b8 be
       0.419069 1.1612965 0.39184797 -0.36131117
000370 cf 25 0e bd 36 28 45 3e c2 e6 1f 3e c0 5f 6d be
       -0.034704026 0.1925362 0.15615371 -0.23181057
000380 74 ff 99 3e c0 2d 6d 3d 9c d5 ae 3e b3 4a 12 3e
       0.30077708 0.05790496 0.34147346 0.14286308
000390 e9 1b ea be 00 2d 16 be 0a 2f 88 3c c2 1e 32 3e
       -0.4572442 -0.14665604 0.016623992 0.17394546
0003a0 00 d4 f3 be de 71 24 be 8d 38 50 bf a9 6a 44 be
       -0.4762268 -0.16059062 -0.8133629 -0.19181313
0003b0 cf b8 88 3d f3 17 ce bd 4a 8f ea 3d 98 61 89 3e
       0.066758744 -0.10063162 0.114531115 0.2683227
0003c0 31 4e 9d be 5b 1d 1d 3f a1 a2 2a 3e 20 6d 0f bf
       -0.30723718 0.6137292 0.166636 -0.56025887
0003d0 8f 31 35 3e 85 4e ae bc 5d 48 ce bd 0e 00 1d bf
       0.17694686 -0.021277675 -0.10072396 -0.6132821
0003e0 8a 65 57 3f 03 91 f9 be c0 ec 2e bd 27 14 36 3e
       0.8413931 -0.48743448 -0.04270625 0.17781125
0003f0 d5 ae e7 be 5d c3 ad 3e fa 6c 10 be 31 3d ed be
       -0.45250574 0.33938113 -0.14104071 -0.46335748

sub/y f4 [126]
000000 25 7a e6 3e 30 1a 26 3f bc d5 a4 33 7f 57 e8 3e
       0.45015064 0.6488371 7.675723e-08 0.45379254
000010 e0 ac 1f 3f cd cc 03 bc c5 23 ea 3e a2 3c 18 3f
       0.6237316 -0.008044434 0.45730415 0.5946752
000020 38 dd 84 bc 84 7e eb 3e 8b d5 13 3f 7d f6 ca bc
       -0.016218767 0.4599496 0.57747716 -0.024775738
000030 4d ba eb 3e a0 2a 11 3f 55 98 07 bd 53 2b e8 3e
       0.46040574 0.56705666 -0.03310426 0.45345554
000040 fb ca 0f 3f a3 25 8f bc 54 f9 e9 3e 5b 4f 09 3f
       0.561691 -0.017474001 0.45698035 0.5363671
000050 b4 32 06 bd 29 b3 ea 3e 50 56 06 3f e0 a9 2e bd
       -0.032763198 0.45839813 0.5247545 -0.042642474
000060 70 1e eb 3e 54 fa 03 3f bb d2 47 bd 57 74 e7 3e
       0.4592166 0.51553845 -0.048784953 0.45205948
000070 c1 bb 11 3f c0 40 b6 bc f2 a9 ea 3e dc d6 0d 3f
       0.56927115 -0.022247672 0.45832783 0.55405974
000080 02 88 1b bd 32 8a eb 3e e6 08 0e 3f 3d af 32 bd
       -0.037971504 0.46003872 0.5548233 -0.04362415
000090 2d 89 eb 3e d2 4d 0d 3f 68 60 3c bd b1 e6 e6 3e
       0.46003094 0.5519687 -0.045990378 0.4509788
0000a0 11 4a 15 3f cd c5 e3 bc 38 2a ea 3e 27 78 12 3f
       0.5831614 -0.02780428 0.45735335 0.5721459
0000b0 28 a2 2e bd 03 c8 ea 3e 57 04 13 3f cc 23 2d bd
       -0.042635113 0.45855722 0.574285 -0.042270467
0000c0 96 7b ea 3e 7f 85 12 3f 51 3d 23 bd 8a 60 e6 3e
       0.45797414 0.5723495 -0.039853398 0.44995528
0000d0 de ab 19 3f fa 8d 0b bd 43 f9 e8 3e c7 0f 17 3f
       0.60027874 -0.034070946 0.45502672 0.5900845
0000e0 9c fa 34 bd ed a2 e9 3e a5 b8 16 3f 59 9a 2c bd
       -0.044184312 0.45632115 0.58875495 -0.042139385
0000f0 58 8b e9 3e 1d e4 15 3f dc 45 1f bd 2d 0f e0 3e
       0.45614123 0.585512 -0.038884982 0.43761578
000100 68 d2 26 3f ad b9 aa 33 38 96 e2 3e cb 41 20 3f
       0.65164804 7.950016e-08 0.44255233 0.6260039
000110 3c 70 ff bb bb 72 e5 3e 90 cd 18 3f ad 84 82 bc
       -0.007795362 0.44814095 0.59688663 -0.015932405
000120 94 b4 e7 3e 68 70 14 3f e5 6d c8 bc 51 82 e8 3e
       0.45254958 0.5798402 -0.024466464 0.45411924
000130 65 d3 11 3f a0 3d 06 bd f4 87 e3 3e fe 8f 10 3f
       0.5696319 -0.032773614 0.44439662 0.56469715
000140 b0 47 91 bc cd 75 e6 3e 88 00 0a 3f 78 ba 07 bd
       -0.017734379 0.4501175 0.5390706 -0.033136815
000150 99 b3 e7 3e a9 f4 06 3f bf 4c 30 bd 2a 6c e8 3e
       0.4525421 0.5271707 -0.04304194 0.45395023
000160 f7 8c 04 3f 11 63 49 bd 82 b8 e2 3e 5e a5 12 3f
       0.51777595 -0.049166743 0.44281393 0.5728358
000170 b8 3c b9 bc 3e 3e e7 3e 4f e2 0e 3f 65 71 1d bd
       -0.02261196 0.45164675 0.5581407 -0.03843822
000180 cb 97 e8 3e e7 1f 0f 3f 38 86 34 bd 4e d6 e8 3e
       0.4542831 0.55908054 -0.044073313 0.45476002
000190 57 75 0e 3f f7 15 3e bd 15 00 e2 3e 62 54 16 3f
       0.55647796 -0.046407666 0.44140688 0.5872251
0001a0 d1 11 e7 bc 72 6c e6 3e e7 a9 13 3f d7 6e 30 bd
       -0.028206738 0.45004612 0.57681125 -0.043074455
0001b0 d9 62 e7 3e 6b 3a 14 3f 1e 6b 2e bd 4b 3d e7 3e
       0.45192602 0.5790164 -0.042582624 0.4516395
0001c0 78 c1 13 3f 9a fd 23 bd 20 3f e1 3e 13 cc 1a 3f
       0.57717085 -0.040036775 0.43993473 0.6046764
0001d0 cd 3c 0d bd 19 a3 e4 3e 38 49 18 3f 04 59 36 bd
       -0.034481812 0.44655684 0.5948672 -0.044518486
0001e0 fe 91 e5 3e 79 00 18 3f 55 43 2d bd 8a 9d e5 3e
       0.44837946 0.5937572 -0.04230054 0.44846755
0001f0 fd 3a 17 3f b2 59 1f bd
       0.59074384 -0.0389039

sequential/dense_2/BiasAdd/ReadVariableOp/resource f4 [65]
000000 c1 fa c2 3d eb c4 4f 3d 9c 37 80 3e 10 b9 2a 3c
       0.09520484 0.050724905 0.25042427 0.010420099
000010 11 04 03 bf 02 30 87 be e3 19 4a 3c eb 49 73 bc
       -0.5117808 -0.26403815 0.012335273 -0.014849166
000020 d8 4c 24 3e 74 f1 17 be 39 3d 0b 3e 32 ce e9 bd
       0.16044939 -0.14838201 0.13597573 -0.11416282
000030 75 70 3d 3e 30 f3 81 be d6 a7 1e be c2 2f 21 3e
       0.1849993 -0.2538085 -0.15493712 0.15740874
000040 d6 14 ae bd 72 30 16 3e fa 76 53 be 87 ba 87 bd
       -0.08500068 0.14666918 -0.20650855 -0.06627374
000050 16 c5 b9 3d 04 07 60 bd 6d 5a 4e 3e c7 42 38 be
       0.09070794 -0.05469419 0.20151682 -0.17994224
000060 5d 48 0d 3e 9b 0e 7f 3e 9c 88 e6 bd aa 1c 4a 3d
       0.13797136 0.24907915 -0.11256525 0.049343742
000070 cd 5a 37 3b b3 4b 2a be e3 09 b0 bc 30 93 6c 3d
       0.0027977705 -0.1663044 -0.02148909 0.057757556
000080 e5 c4 88 3d 99 2f 16 3d 33 71 9a 3e 66 91 cc be
       0.0667818 0.036666486 0.3016449 -0.3995468
000090 c0 08 1b 3e 2d dc 98 3c 62 a6 68 be 9a 86 49 be
       0.15140057 0.018659675 -0.2271972 -0.19680253
0000a0 39 49 74 be 27 91 09 be 17 2b b4 bc fe da 35 bd
       -0.23856057 -0.13434277 -0.021993203 -0.0443983
0000b0 0d c8 32 3c b6 9b 80 be b1 f5 99 3d 6c be cf 3a
       0.010911954 -0.25118798 0.07517565 0.0015849597
0000c0 5e a6 cf 3b dd 23 3d be cf cf 4e be 5d af d0 3d
       0.006336971 -0.18470712 -0.2019646 0.10189698
0000d0 71 ef af 3c ec 09 27 3e 30 3b f1 3d 5a 6b b5 bd
       0.02147648 0.16312379 0.11778867 -0.08858366
0000e0 8f 76 0e be 9c 48 39 3e 0a 13 d6 bd ea 00 c6 bd
       -0.13912414 0.18094105 -0.1045285 -0.09668143
0000f0 da 89 2a be e0 dd 99 3e d4 62 48 be 43 c1 30 bd
       -0.16654149 0.3005209 -0.1956895 -0.04315306
000100 44 ec 9e bd
       -0.07759908

sequential/dense/BiasAdd/ReadVariableOp/resource f4 [128]
000000 fa c7 e4 be be e7 dc 3e b1 79 8f be 65 36 ae be
       -0.4468382 0.43145555 -0.2802253 -0.34025875
000010 f7 6f 8c be 8a dd 96 bf bb e9 41 bf 9f ea f1 bd
       -0.27429172 -1.1786358 -0.7574727 -0.118123285
000020 06 0f 12 be 5b c5 cc bf 5d 37 44 3f a7 d4 99 be
       -0.14263543 -1.5997728 0.7664698 -0.30045053
000030 36 c5 3f be 0c f0 39 bd e1 9d 9a 3e 50 9c 7c bd
       -0.18727574 -0.045394942 0.30198577 -0.06167251
000040 a8 e6 10 bf 2e 96 06 be 62 40 18 3e 30 b2 50 bf
       -0.56601954 -0.13143227 0.1486831 -0.8152189
000050 76 be c9 be cc d7 67 be 1d c3 fc 3d 73 fa ed 3d
       -0.39403123 -0.22640914 0.123419024 0.11620035
000060 68 39 42 bf 81 be b2 bd 27 9d f8 be 4b da 14 bd
       -0.75868845 -0.08727742 -0.48557398 -0.036340993
000070 05 dc cc 3c 44 25 02 bf a2 82 be be 0d c8 f5 3c
       0.025007257 -0.5083811 -0.3720904 0.030002618
000080 f8 58 ac 3e ea ae 04 bf 24 31 f0 be 6d 0b 1e bf
       0.33661628 -0.518294 -0.4691249 -0.61736184
000090 f3 a9 f4 3e a3 fd b5 be 95 1d bf be 26 d3 ca 3c
       0.4778591 -0.35545072 -0.37327257 0.024758887
0000a0 7b df 80 bf 43 79 f7 be 06 e4 05 bf 82 7f 58 be
       -1.0068201 -0.48334703 -0.5230106 -0.2114239
0000b0 5a 22 87 be 3e c9 77 bb 0d e0 07 3e e8 d1 52 bd
       -0.26393396 -0.0037809159 0.13269062 -0.051469713
0000c0 af c4 47 3d 8b 16 a2 3e 9b 82 91 be 7a 27 fa 3e
       0.048771556 0.31657824 -0.28419957 0.48858243
0000d0 40 d2 5e be f5 b5 90 bf f9 f7 9f bf 5e 47 17 bf
       -0.21759892 -1.1305529 -1.249755 -0.5909327
0000e0 96 65 98 3e 8a 9d 9f be 7d 41 89 bf 81 7d 9d 3c
       0.29765004 -0.3117488 -1.072311 0.019224884
0000f0 61 0b ad bf d7 b9 37 bf 32 19 c8 bb 63 f6 77 be
       -1.3519098 -0.71767944 -0.006106519 -0.24215083
000100 fa 4f 81 bf a5 41 2f bf 9c 73 fc bd 83 8f 1c bf
       -1.0102532 -0.6845954 -0.12326738 -0.6115648
000110 b1 a7 58 bf cb bb 3f bf b2 a3 99 3c 5e 7e 65 be
       -0.84630877 -0.74895924 0.018754814 -0.22411487
000120 fb 3e c3 be 5f ea 8c bf 56 56 89 bf ce 50 f4 be
       -0.38133988 -1.1009024 -1.0729473 -0.477179
000130 74 c4 cc be 50 29 da bd e8 b6 22 be fd 90 34 bf
       -0.39993632 -0.10652411 -0.15890086 -0.70533735
000140 f1 c1 d3 3d c1 56 45 bc b7 1d 0a bf aa 88 a3 3e
       0.10339726 -0.0120446095 -0.5395159 0.31940204
000150 4a 48 8c bd 3c 3a f0 be 3f 1d 1d bf f1 47 75 be
       -0.068497255 -0.4691943 -0.6137275 -0.23953225
000160 30 69 ce be e2 36 d1 bd fa 01 02 bf 80 cc 80 be
       -0.40314627 -0.10215546 -0.50784266 -0.2515602
000170 3c 08 ff be 1e 93 ca be ad 81 a9 bf 1e 7f 93 bf
       -0.4981097 -0.39565367 -1.3242699 -1.1523168
000180 c5 b9 94 be f9 14 93 bf 70 4d 00 bf 72 42 ac bf
       -0.2904798 -1.1490775 -0.5011816 -1.3457778
000190 96 6e 80 bd b2 e8 67 bf ec ee e0 bd ae 2f 0e bf
       -0.062710926 -0.9058944 -0.10983071 -0.55541503
0001a0 13 92 34 bf 21 a5 2e bf 7b 09 00 bf 3d a8 09 bf
       -0.7053539 -0.68220717 -0.50014466 -0.53772336
0001b0 67 2b 23 bf f9 83 b2 3d 1b a0 7a be 1a b1 02 bf
       -0.637381 0.08716578 -0.24475138 -0.51051486
0001c0 26 ec f3 3e 3e 52 a9 be f5 32 ee bd cb 40 ca be
       0.47641104 -0.33070558 -0.11630813 -0.39502558
0001d0 da cb 0a bf 3d 64 1a bf bc db 28 bf 4a 7b 92 bf
       -0.542173 -0.603092 -0.6596029 -1.1443875
0001e0 23 72 91 be f1 f2 73 3e e5 98 19 be ad 3a 28 3e
       -0.28407392 0.23823144 -0.14999731 0.16428633
0001f0 a6 dd 30 3f 1c 54 74 be ac 89 07 bf 90 dd 8a be
       0.6908821 -0.2386021 -0.52944446 -0.27122164

sequential/dense_2/MatMul f4 [65, 32]
000000 60 ef 6f bf 4d 43 41 bf 8e e1 84 bd f7 8b 8a 3e
       -0.9372463 -0.7549332 -0.06488334 0.2705991
000010 04 6b 8a be 00 2b 7e 3e 8c ba 01 bf 21 d8 0b 3e
       -0.2703477 0.2482109 -0.5067527 0.13656665
000020 6c 26 b4 be 04 0d 98 bf 1b 77 c4 3c b0 60 83 bf
       -0.35185564 -1.1878972 0.023982575 -1.0263882
000030 84 a4 ab be 03 f9 27 3e 69 bf 6b bc 25 6b c9 be
       -0.33523953 0.16403584 -0.014388897 -0.39339557
000040 c7 a8 9c bd ee 9a b7 3e 60 7d 91 bd eb 4e d8 be
       -0.07649379 0.3586039 -0.071039915 -0.4224771
000050 1e bb 0d bf 02 92 5b 3e 4f 0c cb 3e 53 5b 5e bf
       -0.55363643 0.21442416 0.39657828 -0.868581
000060 d2 c1 0b be ed 8c 05 be 21 2c a6 3d 8f 16 54 be
       -0.13648155 -0.1304204 0.08113886 -0.2071173
000070 1a fc 45 3e 93 2e 17 be 7f 10 86 3d 89 69 e1 3c
       0.1933445 -0.1476386 0.06546115 0.027516143
000080 33 6c a7 bd 84 76 93 3e 3a c2 ce be fc 87 d6 be
       -0.08174934 0.28801358 -0.40382558 -0.41900623
000090 63 f8 0e 3e 8b 92 3c be 75 fd 1a be 41 c8 07 be
       0.1396194 -0.18415277 -0.15135749 -0.13259985
0000a0 b1 65 a5 be 5a 70 26 bf 5c c4 94 3e db 7f 85 3e
       -0.32304147 -0.65015185 0.2905606 0.26074108
0000b0 ad a8 fe 3b f4 a6 3f bf 1c ba f8 be 52 a7 52 3e
       0.0077715726 -0.74864125 -0.4857949 0.2057164
0000c0 cb 4c 91 be 94 56 90 3e 89 77 cf be 06 7d 0b bf
       -0.283789 0.28191054 -0.40520886 -0.54487646
0000d0 60 8d 18 3f 6f 44 7e bb 6f a1 10 3f 22 3b 5b 3b
       0.5959072 -0.0038798114 0.5649633 0.0033451994
0000e0 5e 51 21 3f 49 8c 6d bf 04 6e 1a bf f8 95 0c 3e
       0.6301478 -0.92792183 -0.6032412 0.13729084
0000f0 a6 04 16 3d d7 81 69 bf 5d 3a 78 bf 48 d3 17 bf
       0.036625527 -0.91213745 -0.96964055 -0.59306765
000100 67 91 62 bf ea dd 89 3e 39 d0 4f bd 60 18 67 be
       -0.88503116 0.2692712 -0.050735686 -0.22567892
000110 4c d0 0c 3e 1b 8c b1 be ff e4 96 3c e2 42 a0 3e
       0.13751334 -0.34677204 0.01841974 0.31301028
000120 03 e4 1b bd 4d 52 8f 3c fd c9 3b bf ee 7d 0a 3e
       -0.038059246 0.017495299 -0.73355085 0.13524601
000130 38 6c 9b be ee cd c4 bc a8 9e 55 be f9 71 5f bf
       -0.30356002 -0.024023976 -0.20861304 -0.87283283
000140 b1 5c b2 3d 2c 26 1e bf c5 da 03 be 94 cf d2 3e
       0.08709086 -0.61776996 -0.12876423 0.41173995
000150 72 65 55 3e 4f 50 01 bf 30 1f 4c bd 3e 71 39 bf
       0.2083948 -0.50513166 -0.04983443 -0.7243842
000160 f8 26 c2 3e 1f ab 64 bd e1 86 87 3d 01 c5 d6 be
       0.37920356 -0.055827256 0.06617523 -0.41947177
000170 64 3e 60 bf 7a 3f 35 be db d7 d6 3e 6a 7d 48 bf
       -0.875952 -0.17699996 0.4196156 -0.78316367
000180 8a 18 37 bd 93 65 ef be d3 08 f4 3d b8 d3 a9 3e
       -0.044701137 -0.46757182 0.119157456 0.3316934
000190 0e f1 61 3e 3e 4a 50 3d 7e 6a 03 be 66 0f 66 3e
       0.22064611 0.050852053 -0.12833592 0.22466812
0001a0 6e 13 de 3d cf a9 29 be ca ce 9a be 2a c1 f3 3e
       0.1084355 -0.16568683 -0.30235893 0.4760831
0001b0 3f f3 07 bf 51 de 82 3e d6 e2 b8 3d 90 d6 eb be
       -0.5310554 0.2556024 0.090276405 -0.46062136
0001c0 4a 60 5f bf 0a 5f 9b be 13 b8 84 be 7c 8d 66 bf
       -0.872563 -0.30345947 -0.25921687 -0.9005964
0001d0 b6 24 2d 3e a4 8a 11 be 9d e0 34 3e b7 92 e2 be
       0.16908535 -0.14213043 0.17663808 -0.4425256
0001e0 90 80 04 bf e7 6e cd be b7 2d 21 3e c3 05 25 be
       -0.5175867 -0.40123674 0.15740095 -0.16115479
0001f0 b2 32 c9 be df f5 4f 3e c3 75 8e 3c 6d 16 8d bc
       -0.3929649 0.20308636 0.017390138 -0.017222608
000200 01 ae 1c be 30 5f 05 bf 16 34 44 bf 91 bf 63 3e
       -0.15300752 -0.5209837 -0.76641977 0.22241046
000210 e7 d3 70 bf 8a 38 9e bf 49 cf b0 bc fa dc 80 3e
       -0.9407334 -1.2361004 -0.021583216 0.25168592
000220 8d 8c 4f 3f 7c 6f a9 3e fb 3f ab bf c2 4e 34 3e
       0.8107384 0.33092868 -1.33789 0.17608169
000230 2b 52 bb bf 1e 76 0c be 1c 1b 7e bf f2 b2 14 3e
       -1.4634451 -0.13716933 -0.99260116 0.14521387
000240 44 29 e4 bf 69 9c 49 bd ed b0 b6 3e f6 b2 8f 3e
       -1.7825093 -0.04922143 0.3568186 0.28066224
000250 d4 4e 93 bf ad f6 83 3e 35 59 11 be 53 71 b5 bf
       -1.1508431 0.25774136 -0.14194186 -1.4175209
000260 01 24 f9 bd c7 53 03 bf 43 0a 03 bf 44 fe 29 bf
       -0.1216507 -0.5129971 -0.51187533 -0.66403604
000270 47 06 5a bf 03 c7 cc 3d df 59 db bd 48 73 50 be
       -0.8516583 0.09998896 -0.10710501 -0.20356476
000280 79 d0 93 3e e0 f1 0b 3e c6 16 ff 3e 53 05 4d be
       0.2886999 0.13666487 0.49822062 -0.20021562
000290 59 6b 6f 3d cc 6e a4 bf b2 8d 35 be c3 82 0a 3f
       0.058451984 -1.2846313 -0.17729834 0.54105777
0002a0 ec c8 2a bf 6c d7 ac 3e 92 36 1d bf 70 04 bb bd
       -0.6671283 0.33758104 -0.6141139 -0.09131706
0002b0 80 4b a3 be be 10 0d be 90 ba 38 3e 7b 2a 73 be
       -0.3189354 -0.13775918 0.18039918 -0.23746674
0002c0 04 c0 a7 b9 87 bb 15 bf 24 37 1c 3e 21 bc 25 3d
       -0.00031995785 -0.5848927 0.1525541 0.040462617
0002d0 04 13 62 be 72 17 4a bf aa 92 2b bf 07 b3 62 bf
       -0.22077566 -0.78942025 -0.67020667 -0.88554424
0002e0 c1 70 f4 bd c5 4f 5d bf f1 a9 24 3e 2d 96 7b bf
       -0.119355686 -0.86449844 0.16080453 -0.98276025
0002f0 30 f8 8b bd 07 81 49 bf 0f 5b 14 3f f1 4a 8b bf
       -0.068344474 -0.78712505 0.57951444 -1.0882245
000300 74 5a 7c bd 44 19 d1 3d 56 67 a4 3d 5d b9 ab be
       -0.0616097 0.10209897 0.08027522 -0.33539858
000310 9a 8e 06 bf ec 7f c7 be 83 46 a1 be 4e b2 d8 bc
       -0.5256134 -0.38964784 -0.3149911 -0.02645221
000320 9a f3 b9 3d c9 2e 89 b7 8b eb 35 3d 3c b6 91 be
       0.090796664 -1.6353459e-05 0.044414084 -0.28459346
000330 09 ed 21 3f 6a 06 3c be fe 4e fa be 99 3f 45 bf
       0.6325231 -0.18361822 -0.4888839 -0.7705017
000340 b9 f4 51 3e 3d 80 68 3e b2 d2 14 bf 23 2d 76 bf
       0.2050351 0.22705169 -0.58133996 -0.96162623
000350 3f 63 59 be 5a 85 2a 3e f3 08 b8 bd 85 a6 9f be
       -0.21229266 0.16652432 -0.08986082 -0.31181732
000360 b7 18 68 3d 12 6d 84 3e 7e e6 b0 3e 74 b1 b8 3e
       0.056664195 0.25864464 0.34550852 0.36072886
000370 9f 2f 88 be c4 11 dc be 31 c6 15 bf 59 5a 4a bf
       -0.26598832 -0.42982304 -0.5850554 -0.7904411
000380 79 b5 12 bf 48 1b fc bd eb 51 9a 3e f0 e7 98 bf
       -0.57308155 -0.12309891 0.30140623 -1.1945782
000390 c4 ee 1c bf e9 60 eb 3c 9b 44 d0 bd 33 f8 0c be
       -0.6130183 0.028732734 -0.101693355 -0.13766555
0003a0 01 20 20 bf 00 2b 7d 3e c8 15 8a be b7 48 5a 3e
       -0.62548834 0.24723434 -0.26969743 0.21316801
0003b0 1b 2f d2 be 84 42 99 be 68 a2 46 3d c2 ea d7 be
       -0.41051564 -0.2993356 0.048494726 -0.42171293
0003c0 fc 51 19 3f 92 10 9f bd 8b 24 66 be cf c4 b6 3d
       0.59890723 -0.077668324 -0.22474878 0.08924257
0003d0 52 23 bb 3e 41 75 80 bf 74 2c 00 bf 19 f2 56 3e
       0.36550385 -1.0035783 -0.5006783 0.2099079
0003e0 40 fc 3c bf 19 ed 5f be d4 65 0b 3e f6 dd 6f 3e
       -0.738224 -0.2186779 0.13613063 0.23424515
0003f0 81 43 3c 3e 29 8b d3 3e 02 78 89 be 6c 56 7f bf
       0.18385126 0.41317108 -0.2684937 -0.99741244
